experiments/GBMLGG_100/train/GBMLGG_100/s2v/network/network12000.pth (torch_old, 87608 bytes, 17 tensors)

node_init_embedding_layer_g.0.weight f4 [32, 2]
-0.75743866 -0.0031959082 0.72086835 -0.9626103 -0.16198027 0.44623026 1.0535266 0.060487743
-0.47108474 0.33249393 0.5459549 -0.023678137 0.7309649 0.056831036 0.14916736 0.93713576
-0.43795994 0.433856 1.3624418 0.22206335 -0.17753184 -0.060414936 0.8099939 -1.0822889
0.24245729 -0.5865308 -0.053547747 0.23628236 -1.056304 -0.09425077 0.25134912 0.3288358
-0.54825604 0.67198515 0.2222633 0.046091903 -0.2404518 -0.5728278 -0.76399535 0.3786326
0.022531193 -0.48847345 -0.575764 -0.08394438 -0.19685085 -0.06735158 -0.7112181 0.09230462
0.51708615 -1.1860553 0.35940877 0.21452281 0.5597899 -0.036842145 -1.2447382 0.09462136
0.23332004 0.09217826 0.16531518 0.05228667 0.65348387 0.42770723 -0.058822937 0.025918974
00000000: 80e7 41bf 7172 51bb d48a 383f a16d 76bf
00000010: 28de 25be 4b78 e43e f6d9 863f ffc1 773d
00000020: 0532 f1be a53c aa3e b3c3 0b3f a7f8 c1bc
00000030: 8420 3b3f a9c7 683d 54bf 183e 21e8 6f3f
00000040: 493c e0be 6022 de3e 7e64 ae3f 9364 633e
00000050: e8ca 35be a775 77bd c35b 4f3f 7188 8abf
00000060: b946 783e e226 16bf e254 5bbd 01f4 713e
00000070: f834 87bf 8c06 c1bd d5b0 803e 2a5d a83e
00000080: 825a 0cbf 3807 2c3f fe98 633e ddca 3c3d
00000090: ff38 76be d8a4 12bf 3395 43bf 22dc c13e
000000a0: 5693 b83c 3119 fabe 4565 13bf 08eb abbd
000000b0: 4593 49be a0ef 89bd 6412 36bf 340a bd3d
000000c0: c25f 043f a9d0 97bf 6d04 b83e deab 5b3e
000000d0: 644e 0f3f cae7 16bd 9553 9fbf d8c8 c13d
000000e0: 73eb 6e3e f5c7 bc3d 6248 293e 8c2a 563d
000000f0: b84a 273f 71fc da3e 52f0 70bd 0754 d43c

node_init_embedding_layer_p.0.weight f4 [32, 1]
-0.23542835 -0.27778438 0.31782383 -0.4236863 -0.056074504 -0.05794674 0.18013303 1.139648
-0.33931577 -0.23223357 -0.38809833 -0.17536838 -0.43497062 0.16118944 0.17750345 1.0468957
0.3463497 0.5193693 -0.56300247 0.29721355 0.30815682 0.18237339 -0.69230026 -0.04508317
0.2510787 -0.55381507 0.7106888 0.7719176 0.5282802 -0.3681091 0.23299062 -0.038321722
00000000: 2114 71be c139 8ebe ceb9 a23e 69ed d8be
00000010: 61ae 65bd 9059 6dbd cb74 383e fcdf 913f
00000020: ccba adbe a3ce 6dbe d3b4 c6be c593 33be
00000030: 78b4 debe d80e 253e 77c3 353e ae00 863f
00000040: bf54 b13e 63f5 043f ee20 10bf 602c 983e
00000050: bbc6 9d3e 17c0 3a3e 973a 31bf 21a9 38bd
00000060: 638d 803e d3c6 0dbf b4ef 353f 649c 453f
00000070: 5f3d 073f cc78 bcbe 1895 6e3e 3df7 1cbd

edge_embedding_layer_g.edge_embedding_NN.weight f4 [31, 1]
-0.47274733 0.40546042 -0.4683493 -0.6533548 0.32067424 -0.41619417 0.29866275 -0.005706541
-0.5228042 -0.17243387 0.2926884 0.23960434 -0.7517091 -0.5373524 0.47087246 -0.30385587
0.5308784 -0.20886357 -0.5960719 0.27272898 -0.00936628 -0.44719622 0.45982397 -0.14047045
-0.16190597 -0.32040024 0.12503442 0.780945 -0.5410727 -0.6745824 0.5370014
00000000: f00b f2be 8298 cf3e 7bcb efbe 4342 27bf
00000010: 6a2f a43e 6717 d5be 53ea 983e effd babb
00000020: 7fd6 05bf 8192 30be 41db 953e d75a 753e
00000030: 0270 40bf ed8f 09bf 3216 f13e ff92 9bbe
00000040: a6e7 073f 55e0 55be 2b98 18bf 22a3 8b3e
00000050: 0775 19bc e7f6 e4be 0c6e eb3e 7cd7 0fbe
00000060: aeca 25be 800b a4be 0609 003e 03ec 473f
00000070: be83 0abf 6fb1 2cbf ec78 093f

edge_embedding_layer_g.edge_feature_NN.weight f4 [32, 32]
-0.19650789 0.8268075 -1.2839496 1.138182 -0.5614787 0.48238435 0.12865275 0.035198823
-0.15225194 -0.050590158 -0.5138712 -0.39742762 0.24721947 -0.899665 0.6369063 0.40407526
-0.21937531 -0.17378186 0.13119252 -0.89037275 0.55934113 -0.79175496 0.06797479 0.23894376
0.52919954 -0.65700793 -0.25874177 -0.4360264 -0.68185157 -0.11887052 -0.1529675 0.21280637
0.08680761 0.1467424 0.12588072 0.03508139 0.15267278 -0.9576194 -0.15468645 0.5863681
-0.025783334 0.5105505 0.58849883 0.8096523 -0.10511441 -0.27765444 -0.32547352 0.5045967
-0.8883871 -1.0604659 0.011471116 0.034827936 0.68359685 0.09382478 -0.3991926 0.0753512
-0.00012010492 0.16898853 0.4752466 0.14416811 -0.0824397 -0.3598504 -0.8689834 0.20011917
0.74965817 -1.0521902 -0.43097833 -0.1982571 -0.51737463 -0.1675413 0.17343608 0.3516781
0.39200044 -0.3730031 -0.76109946 0.2667899 0.41156635 0.55610836 0.096252695 -0.6458401
0.5117794 -0.6044065 -0.25180876 0.4449808 0.12266128 -0.042376474 -0.32288563 -0.77774847
-0.6264384 -0.064874545 0.54603165 0.82607615 0.20467691 -0.34601268 0.74124825 -0.10981113
-0.02590814 -0.4228378 -0.48930287 -0.52077955 -0.4724556 -0.7222905 1.2682656 -0.22967228
0.17812866 -0.11601375 0.6023749 -0.5912765 0.6081127 -0.07084803 -0.07336023 -0.20236209
-0.42260963 0.6531968 0.24799833 -0.40058786 -0.58949375 -0.14647056 0.09647685 -0.3637478
-0.053012438 0.17248128 0.6245748 -0.76897824 -0.16485211 -0.3557751 0.39092347 0.7977901
-0.14317743 0.334538 -0.508904 0.04623286 -0.46560627 0.95643014 -0.317124 -0.027960472
-0.70384604 0.3212848 0.43479457 -0.5342496 -0.24453102 0.74999654 0.11531051 0.18271855
-0.524388 0.5683386 -0.04256448 0.47200117 0.05466315 -0.39048186 1.0819468 -0.25460887
0.28912064 0.40969396 -0.531002 -0.5192966 0.06151565 0.0059639243 -0.5424584 0.5700425
0.7344882 0.34085804 -0.6482317 0.63977194 -0.959855 0.3076848 -0.01860971 0.2514942
0.4757399 -0.8609191 -0.38096255 -0.57666713 0.57235396 0.10413448 0.035054483 -0.95079964
0.47226012 0.6469501 0.8726262 0.59440076 0.9010383 -0.16940422 0.5251782 0.7537517
0.09761662 0.4953821 -1.1268504 -0.3857603 -0.18532515 0.48454854 0.12774543 0.3530686
-0.111121096 0.8296483 0.30167764 -0.3094097 0.56062007 0.5711363 -0.39580798 -0.73401284
0.98742515 0.2835259 0.63276416 -0.51116836 0.69255906 0.21269582 -0.09585507 0.31893712
-0.3058756 0.2387949 0.23955348 0.425625 -0.14092089 -0.13150364 0.2991666 -0.110605925
-0.77350867 -0.6489894 -0.54622924 -0.73006284 -0.2826112 0.41208053 0.034203492 0.3074193
-0.44543985 -0.85320413 -0.30839062 -0.70833004 0.16694893 -0.4600021 -0.2866748 -0.5825246
-0.115582876 0.4306325 -0.097232535 -1.1509974 0.62075967 -0.6741188 0.2867892 0.4519799
-0.20768146 0.36912632 0.9152695 -0.20798655 -0.22387463 0.8179727 0.5279761 -0.27627835
-0.036960687 -1.0580468 0.06072246 0.53179365 0.089147314 -0.033590723 -0.54229605 0.045992248
00000000: 5d39 49be a8a9 533f 7658 a4bf f3af 913f
00000010: 11bd 0fbf 15fb f63e 8cbd 033e a42c 103d
00000020: efe7 1bbe a037 4fbd 108d 03bf a27b cbbe
00000030: 1a27 7d3e 7250 66bf 4b0c 233f f4e2 ce3e
00000040: eca3 60be dff3 31be 5557 063e 78ef 63bf
00000050: fb30 0f3f 74b0 4abf 5e36 8b3d acad 743e
00000060: 9f79 073f ac31 28bf cd79 84be da3e dfbe
00000070: d38d 2ebf 6372 f3bd 83a3 1cbe eae9 593e
00000080: 30c8 b13d a443 163e e0e6 003e 81b1 0f3d
00000090: 4156 1c3e 8c26 75bf 2066 1ebe 381c 163f
000000a0: 9237 d3bc 70b3 023f dca7 163f 6045 4f3f
000000b0: 3946 d7bd b928 8ebe 77a4 a6be 402d 013f
000000c0: 566d 63bf 59bd 87bf 59f1 3b3c bda7 0e3d
000000d0: 3400 2f3f 3527 c03d f962 ccbe bb51 9a3d
000000e0: d7e0 fbb8 540b 2d3e 8653 f33e cea0 133e
000000f0: 25d6 a8bd 503e b8be b275 5ebf 0aec 4c3e
00000100: 99e9 3f3f 2bae 86bf 31a9 dcbe e903 4bbe
00000110: aa72 04bf f28f 2bbe 3a99 313e 270f b43e
00000120: 48b4 c83e 43fa bebe 6ad7 42bf b098 883e
00000130: d3b8 d23e 1e5d 0e3f 2220 c53d c755 25bf
00000140: fa03 033f 62ba 1abf 14ed 80be 86d4 e33e
00000150: d635 fb3d f492 2dbd 4451 a5be 861a 47bf
00000160: 445e 20bf f2dc 84bd bbc8 0b3f ba79 533f
00000170: d396 513e 9328 b1be 72c2 3d3f a8e4 e0bd
00000180: 4f3d d4bc 327e d8be e885 fabe cf51 05bf
00000190: b3e5 f1be 08e8 38bf 8756 a23f 362f 6bbe
000001a0: 5c67 363e 9e98 edbd 3e35 1a3f e65d 17bf
000001b0: 46ad 1b3f c618 91bd e33d 96bd 0238 4fbe
000001c0: 4a60 d8be e837 273f 46f3 7d3e da19 cdbe
000001d0: 10e9 16bf 61fc 15be a895 c53d 273d babe
000001e0: 9223 59bd ef9e 303e 22e4 1f3f c2db 44bf
000001f0: fece 28be 2728 b6be 1f27 c83e f93b 4c3f
00000200: 1b9d 12be 9148 ab3e 8847 02bf ab5e 3d3d
00000210: f263 eebe 9bd8 743f 145e a2be 5c0d e5bc
00000220: 412f 34bf 717f a43e 659d de3e 95c4 08bf
00000230: 5766 7abe c6ff 3f3f eb27 ec3d 921a 3b3e
00000240: 4b3e 06bf a37e 113f 1858 2ebd 23aa f13e
00000250: 78e6 5f3d 3ded c7be 3c7d 8a3f 185c 82be
00000260: 9f07 943e 68c3 d13e bfef 07bf 9ff0 04bf
00000270: d6f7 7b3d 066d c33b 8ede 0abf 4eee 113f
00000280: 6b07 3c3f f284 ae3e 83f2 25bf 18c8 233f
00000290: 0fb9 75bf dd88 9d3e 6473 98bc d9c3 803e
000002a0: 2e94 f33e 3265 5cbf 860d c3be 75a0 13bf
000002b0: ca85 123f 7544 d53d 4a95 0f3d 9b67 73bf
000002c0: 14cc f13e 869e 253f 6e64 5f3f a62a 183f
000002d0: 72aa 663f 4d78 2dbe 1472 063f dff5 403f
000002e0: 39eb c73d b9a2 fd3e a23c 90bf 6082 c5be
000002f0: e0c5 3dbe bf16 f83e b3cf 023e 68c5 b43e
00000300: 7593 e3bd d563 543f 7e75 9a3e f36a 9ebe
00000310: cc84 0f3f fd35 123f 58a7 cabe 44e8 3bbf
00000320: e5c7 7c3f 4f2a 913e d5fc 213f eedb 02bf
00000330: 8d4b 313f efcc 593e aa4f c4bd ba4b a33e
00000340: ba9b 9cbe a686 743e 824d 753e 85eb d93e
00000350: 914d 10be e4a8 06be 5d2c 993e 5c85 e2bd
00000360: aa04 46bf 2b24 26bf aed5 0bbf 66e5 3abf
00000370: 6ab2 90be 38fc d23e f618 0c3d 1066 9d3e
00000380: b110 e4be 966b 5abf 60e5 9dbe 1e55 35bf
00000390: a9f4 2a3e 6585 ebbe 0ac7 92be 5520 15bf
000003a0: b7b6 ecbd dd7b dc3e da21 c7bd e253 93bf
000003b0: 1bea 1e3f 0d93 2cbf 09d6 923e e969 e73e
000003c0: 73aa 54be 20fe bc3e 1a4f 6a3f 6dfa 54be
000003d0: 643f 65be a966 513f 7129 073f 5b74 8dbe
000003e0: 1764 17bd 146e 87bf 1db8 783d a123 083f
000003f0: de92 b63d 6d96 09bd ead3 0abf 5e62 3c3d

edge_embedding_layer_p.edge_embedding_NN.weight f4 [31, 2]
0.10950041 -0.290925 0.4188505 -0.92993754 0.5541497 0.48835787 -0.050118346 -0.54322016
0.538627 0.5490791 -0.30330533 0.59270304 0.69165564 -0.32191053 -0.40238565 1.0352547
0.26493278 -0.5167823 -0.60786396 -0.8641893 0.011448941 0.33468208 0.7501335 0.27006945
-1.0718244 -0.86279804 -0.049632743 -0.92036575 0.328663 0.03595541 -0.08004539 -0.45851898
0.23795284 -0.62838614 0.52723116 0.09890592 -0.0042913943 -0.11482403 -0.40428397 -0.4617068
0.5502398 -1.2677643 -0.15045206 -0.991183 -0.07197479 -0.27332735 0.5261248 -0.21377021
-0.07143243 -0.35717362 0.21763027 0.019937819 -0.47266138 0.49062565 0.0030380625 -0.053262282
-0.39436674 -0.23673013 -0.18699528 0.09196371 -0.44278938 -0.21804246
00000000: c041 e03d 1ff4 94be 9373 d63e 6310 6ebf
00000010: c1dc 0d3f 0b0a fa3e e548 4dbd 7a10 0bbf
00000020: 76e3 093f 7390 0c3f d64a 9bbe 63bb 173f
00000030: 5810 313f 75d1 a4be 7e05 cebe 3a83 843f
00000040: 45a5 873e d84b 04bf f99c 1bbf 833b 5dbf
00000050: 5794 3b3c 735b ab3e c008 403f 8b46 8a3e
00000060: 8b31 89bf 55e0 5cbf b44b 4bbd 179d 6bbf
00000070: 8446 a83e fb45 133d d6ee a3bd 00c3 eabe
00000080: e9a9 733e eadd 20bf 9ff8 063f 308f ca3d
00000090: d39e 8cbb dc28 ebbd 4ffe cebe d564 ecbe
000000a0: 84dc 0c3f 1a46 a2bf 1b10 1abe 2bbe 7dbf
000000b0: 8567 93bd 90f1 8bbe 1db0 063f 94e6 5abe
000000c0: 2a4b 92bd 76df b6be 78da 5e3e a354 a33c
000000d0: ac00 f2be 4933 fb3e 3b1a 473b 8d29 5abd
000000e0: 70ea c9be 6269 72be b17b 3fbe 7857 bc3d
000000f0: 4ab5 e2be 8646 5fbe

edge_embedding_layer_p.edge_feature_NN.weight f4 [32, 32]
0.8532391 -0.34129903 0.8816128 0.32516104 -0.07628087 -0.49543568 -0.7896931 0.116569735
-0.52048665 0.9897353 0.10517597 -0.7074691 -0.17480747 -0.1679435 -0.40769738 0.48099282
-0.114418834 0.42969996 -0.17443614 -0.1689495 0.23460853 -0.30771178 -0.019034656 0.17901285
-0.032950763 -0.50687855 -0.14298631 -0.8479704 0.61732763 -0.32835186 0.26695368 -1.0192311
0.24686612 -1.4139746 0.3404675 -1.1568896 0.35068083 0.39264807 -0.36830494 -0.19938867
-1.2784163 -0.5807476 -0.25479442 -0.725992 -0.31808054 0.60200053 0.6559161 0.12141943
-0.3372187 0.8646363 -1.2200776 0.32444757 0.07425659 0.4139909 -0.5238029 -0.6314835
0.8098946 0.70661306 0.16272806 0.7450731 -0.39950186 -0.29403412 0.22405791 -0.17818305
-0.2772704 -1.1499666 -0.4258987 1.2316369 -0.11979323 -0.44518676 -0.6763843 0.04696092
0.58006275 0.21114449 0.17721452 0.39936844 -0.29342976 -0.4403545 -0.23587942 0.5001916
0.24061039 0.019983975 0.23164903 0.07361032 -0.004005418 0.6150303 0.41189423 -1.0433484
-0.62996066 -0.49886706 -0.05460064 0.1428043 0.716025 -0.21218313 0.39132452 0.20572785
-0.6036287 -0.2290096 -0.54103535 0.9255409 -0.8564561 -0.70553 -0.59911186 -0.17913455
0.22229777 -0.034628868 -0.18561476 -0.22359817 -0.5816851 0.95784485 0.026693135 -0.4749531
-1.2898978 -0.41152456 -0.4808007 0.9765604 0.3644415 0.40748703 -0.21713169 0.01774419
0.47861126 0.28391543 0.56803966 0.119524226 0.29334342 0.58359075 -0.50787544 -0.028293822
0.15066785 -0.31440297 0.5701068 -0.43779078 0.6263646 -0.10251615 -0.16953278 -0.6948418
-0.4236344 -0.6461555 0.2214551 0.65544415 -0.4613571 -0.25667205 -0.62740785 0.28907326
0.014292039 0.98425555 -0.77014023 0.1310803 -1.8887808 0.026457956 -0.16370484 0.12433425
0.57027346 -0.7647872 0.29835767 0.27283034 0.0723296 0.29659402 0.26944193 -0.17392667
0.035037667 -0.61292017 -0.07354762 1.02923 1.0248189 0.05027091 0.23783922 0.15374534
-0.18790866 -0.28763974 -0.27442682 -0.40721673 0.5770446 0.5453711 -0.21832734 0.45304587
-0.5862899 0.4249714 -0.3611733 -0.35698602 -1.1867151 0.34675184 0.6714159 -0.19890669
0.013138426 0.6120105 0.21482897 -0.2985968 -0.06712794 -0.24614547 -0.0631504 0.089608654
0.03152036 -0.86747843 0.13662562 -0.3567243 -0.837491 -0.9787122 -0.42782477 0.13807093
-0.69680655 0.24923986 1.1010821 -0.50844884 0.78157926 -0.56541395 -0.46553653 0.44197324
0.2160639 -1.1020713 -0.8478029 -0.14184828 -0.7562952 -0.40711257 -0.56613994 -1.2601216
0.13497618 -1.6904892 -0.18994792 0.7232049 0.7596853 0.18859383 0.15589947 0.46186638
-0.74885017 -0.40041757 0.7317145 -1.3287617 1.492811 -0.6958154 0.3415788 0.1717866
0.91280067 0.06773184 -0.48282862 -0.24975912 -0.08183438 0.21757923 0.31130108 -0.23785622
-0.27268183 -0.63179374 -0.03836357 -0.027325112 0.16689256 0.22979188 1.0056292 0.48112592
-0.7527149 0.38973978 -0.46256357 0.36421093 -0.96939623 -0.015715338 0.42000747 -1.3643137
00000000: e16d 5a3f bfbe aebe 60b1 613f 827b a63e
00000010: 2539 9cbd bfa9 fdbe 5429 4abf 1dbc ee3d
00000020: 9d3e 05bf 4b5f 7d3f 8066 d73d b21c 35bf
00000030: bb00 33be 62f9 2bbe b6bd d0be b144 f63e
00000040: 6c54 eabd a201 dc3e 639f 32be 1901 2dbe
00000050: 383d 703e 668c 9dbe 91ee 9bbc 254f 373e
00000060: 61f7 06bd cbc2 01bf 016b 12be 9714 59bf
00000070: 2f09 1e3f bc1d a8be 27ae 883e 2a76 82bf
00000080: 79ca 7c3e 1ffd b4bf c251 ae3e f514 94bf
00000090: 708c b33e 2b09 c93e 7792 bcbe 8b2c 4cbe
000000a0: 25a3 a3bf e0ab 14bf 6a74 82be 9dda 39bf
000000b0: 74db a2be b51c 1a3f 1eea 273f c0aa f83d
000000c0: eea7 acbe ce58 5d3f 812b 9cbf fe1d a63e
000000d0: d713 983d 9ef6 d33e f217 06bf e7a8 21bf
000000e0: 4155 4f3f 98e4 343f 2fa2 263e 1cbd 3e3f
000000f0: 828b ccbe a48b 96be 706f 653e 9e75 36be
00000100: 63f6 8dbe 1b32 93bf 650f dabe 47a6 9d3f
00000110: 2756 f5bd 85ef e3be 8627 2dbf 185a 403d
00000120: fe7e 143f 4336 583e b977 353e 057a cc3e
00000130: 6d3c 96be 2576 e1be 608a 71be 8f0c 003f
00000140: 9262 763e 6fb5 a33c 6735 6d3e 02c1 963d
00000150: e23f 83bb a072 1d3f cde3 d23e 718c 85bf
00000160: 1a45 21bf 816b ffbe eca4 5fbd 4a3b 123e
00000170: 6a4d 373f 8946 59be b05b c83e 52aa 523e
00000180: 6987 1abf 7e81 6abe 4b81 0abf 40f0 6c3f
00000190: b540 5bbf 9d9d 34bf 655f 19bf 0c6f 37be
000001a0: 07a2 633e 00d7 0dbd cc11 3ebe ebf6 64be
000001b0: 51e9 14bf 5235 753f 90ab da3c 0d2d f3be
000001c0: 5f1b a5bf 59b3 d2be 822b f6be ddff 793f
000001d0: 1498 ba3e 24a2 d03e c557 5ebe 435c 913c
000001e0: 890c f53e 5d5d 913e 0c6b 113f 1ec9 f43d
000001f0: 1c31 963e 3466 153f 2004 02bf 72c8 e7bc
00000200: ac48 1a3e 6df9 a0be 85f2 113f 1d26 e0be
00000210: 6e59 203f fdf3 d1bd 009a 2dbe 27e1 31bf
00000220: 9ce6 d8be 726a 25bf 20c5 623e 30cb 273f
00000230: ff36 ecbe 856a 83be cd9d 20bf 6901 943e
00000240: 2829 6a3c 2cf8 7b3f e927 45bf ea39 063e
00000250: 92c3 f1bf 5bbe d83c 3ea2 27be f5a2 fe3d
00000260: 71fd 113f 18c9 43bf 56c2 983e 6bb0 8b3e
00000270: 8b21 943d 2cdb 973e 4bf4 893e d519 32be
00000280: a883 0f3d 56e8 1cbf 22a0 96bd cfbd 833f
00000290: 442d 833f dfe8 4d3d 208c 733e 6b6f 1d3e
000002a0: 216b 40be 8445 93be ac81 8cbe b67e d0be
000002b0: 32b9 133f 719d 0b3f 3491 5fbe a1f5 e73e
000002c0: 1817 16bf da95 d93e b5eb b8be dfc6 b6be
000002d0: 48e6 97bf 7589 b13e eae1 2b3f 32ae 4bbe
000002e0: 8d42 573c b8ac 1c3f 20fc 5b3e aee1 98be
000002f0: 607a 89bd 8f0d 7cbe ff54 81bd be84 b73d
00000300: 7e1b 013d 1113 5ebf 96e7 0b3e 91a4 b6be
00000310: cf65 56bf e28c 7abf d90b dbbe 7762 0d3e
00000320: ea61 32bf bc38 7f3e 42f0 8c3f b429 02bf
00000330: 9415 483f f8be 10bf ce5a eebe 514a e23e
00000340: db3f 5d3e ac10 8dbf 9c09 59bf ad40 11be
00000350: 909c 41bf 0f71 d0be 8cee 10bf aa4b a1bf
00000360: 3237 0a3e f361 d8bf b581 42be f523 393f
00000370: bc7a 423f be1e 413e 1ca4 1f3e c079 ec3e
00000380: a5b4 3fbf 8803 cdbe a451 3b3f dd14 aabf
00000390: 6e14 bf3f f520 32bf 6be3 ae3e d4e8 2f3e
000003a0: 4ead 693f feb6 8a3d 5035 f7be dbc0 7fbe
000003b0: c998 a7bd 17cd 5e3e db62 9f3e 9590 73be
000003c0: f49c 8bbe 3cbd 21bf 1e23 1dbd ead8 dfbc
000003d0: e2e5 2a3e 904e 6b3e 75b8 803f 2356 f63e
000003e0: ecb1 40bf f98b c73e 22d5 ecbe db79 ba3e
000003f0: 5a2a 78bf 74bd 80bc 380b d73e d5a1 aebf

update_node_embedding_layer_g.0.message_layer.weight f4 [32, 64]
-0.3327985 0.7969703 -1.0452243 -0.22108485 0.74974704 0.0064336364 -0.22754371 -1.218135
0.057327937 0.35257828 0.18632862 0.09841275 0.2151689 -0.22260666 -0.106567495 -0.3802679
0.31075427 -0.63694274 -0.08748273 -0.4868108 1.7181557 -0.62604314 -0.08557944 0.19234103
0.022808462 0.18559435 0.13063118 0.044566546 -0.056752905 0.23370562 0.21155328 0.24586524
-1.0739853 -0.41178942 0.44004932 0.3876319 -0.1644925 0.5437621 0.35159615 -0.22295628
0.4918082 -1.1043775 -0.68448454 0.071551666 0.37437224 0.5250613 -0.22139414 -0.06934645
-0.013291563 -0.10316615 -0.36152184 0.05906313 0.07542852 -0.16458167 -0.4700298 -0.015213689
0.40013614 0.58473927 -0.18935929 -0.15435849 0.3102355 -0.93776906 0.38569155 -0.4380253
-0.15238865 0.10135719 0.56958055 -0.12531783 0.72157747 -0.34285066 0.36857352 0.60431385
0.54063797 -1.0937798 0.047894694 -0.9642869 -0.2522177 -0.52499634 -1.142263 -0.27313432
-0.49747574 0.07024756 -0.79230535 1.0028589 -0.7506986 0.77957124 -0.4234617 0.2516577
-0.040050786 0.24698451 0.1633647 0.20602097 0.5508067 0.73049843 0.21197149 -0.57207555
-0.9108615 -0.6929307 -0.7445371 -1.4980109 0.09227345 0.59409624 -0.2948734 0.118565515
0.2949396 0.49488086 -0.7190269 -0.71776474 -0.20890903 -0.34106398 -0.24180067 6.4153037e-06
-0.046534065 -1.6745206 -0.5460546 -0.66973335 -0.65285367 0.94525826 0.41470483 -0.29593223
-0.73724234 -0.18424757 -0.19731764 0.26363686 0.80815816 -0.24271335 0.12603183 1.1404237
0.1723756 -0.8217529 -0.09472813 0.4635583 -1.1220908 0.27469954 -0.699656 -0.12334293
0.32243732 -0.4000384 0.7363037 -0.31617537 -0.43658903 0.88553727 -0.40991932 0.031943593
-0.13603199 -0.6719315 -0.57906467 -0.034528073 0.069824815 -0.36675644 0.3242454 -0.29131007
1.2483504 -0.16789275 0.65002203 -1.381431 -0.052736536 1.1938924 0.67339647 0.017110651
1.1142209 0.1704138 -0.33335617 0.4717843 -0.5197071 1.1927253 0.031781264 -0.34097886
-0.11269028 -0.16452612 -0.30426666 -0.46828014 0.49789044 0.00355312 -0.026210733 0.87285453
0.931772 -0.2834345 -0.58818054 0.30180687 -0.6230573 0.43900833 0.24025881 0.65433294
-0.77594346 0.1724477 -0.10981609 0.5316333 1.0528197 0.39358962 -0.05901441 0.7550612
0.1529941 0.6508407 -0.19919808 -0.7483903 0.1305875 -0.3165563 -0.15476383 0.24669626
-0.14141509 0.19653691 -0.51922834 -0.65048563 -0.1794285 0.22536756 -0.17970876 -0.39629802
-1.3926013 0.14169775 -0.55152863 -0.070994064 -1.0029415 -0.06806544 0.21897316 0.40355173
-0.4527203 0.9819854 0.13885978 -0.57845306 -0.16298191 0.29057714 -0.094297074 0.093182065
-0.03972652 -0.3048097 0.27949086 -0.10784038 -0.62235147 0.4866094 -0.59287286 -0.3502665
-0.30820546 -0.03859029 -0.65030366 0.6198016 -0.13940272 -0.7600167 0.04234913 -0.3647393
-0.29931268 0.42257702 0.72842926 -0.08614354 -0.8728083 -0.00911504 -0.4214131 0.29080486
-0.9656065 -0.53597665 0.60372645 -0.047328945 0.33881065 0.43915015 -0.02266471 -0.45040807
00000000: 9164 aabe 3f06 4c3f e9c9 85bf 1164 62be
00000010: 6cef 3f3f 41d1 d23b 3801 69be d9eb 9bbf
00000020: b3d0 6a3d 2485 b43e eecc 3e3e a08c c93d
00000030: 3c55 5c3e 00f3 63be 0f40 dabd 79b2 c2be
00000040: 2f1b 9f3e ae0e 23bf 252a b3bd 443f f9be
00000050: 87ec db3f 5d44 20bf 4644 afbd 0cf5 443e
00000060: d0d8 ba3c 720c 3e3e 2ec4 053e 698b 363d
00000070: bc75 68bd 8750 6f3e 6ca1 583e 19c4 7b3e
00000080: 5a78 89bf 10d6 d2be 254e e13e b077 c63e
00000090: b970 28be fe33 0b3f 6904 b43e a74e 64be
000000a0: 49ce fb3e 3e5c 8dbf 613a 2fbf ae89 923d
000000b0: b8ad bf3e 6b6a 063f 25b5 62be 8305 8ebd
000000c0: dbc4 59bc c648 d3bd 6419 b9be 2eec 713d
000000d0: 457a 9a3d 1988 28be bfa7 f0be d642 79bc
000000e0: a5de cc3e 79b1 153f 67e7 41be 2710 1ebe
000000f0: 30d7 9e3e a211 70bf 5d79 c53e da44 e0be
00000100: c50b 1cbe 5c94 cf3d 08d0 113f 5153 00be
00000110: 4db9 383f 1f8a afbe abb5 bc3e 50b4 1a3f
00000120: 4067 0a3f fa00 8cbf 3a2d 443d 82db 76bf
00000130: ae22 81be 2966 06bf ad35 92bf 43d8 8bbe
00000140: 24b5 febe f4dd 8f3d 86d4 4abf ae5d 803f
00000150: c92d 40bf fb91 473f f9cf d8be 47d9 803e
00000160: 4b0c 24bd 82e9 7c3e 1349 273e 29f7 523e
00000170: ab01 0d3f f201 3b3f 0e0f 593e 8b73 12bf
00000180: 382e 69bf e863 31bf fc99 3ebf d2be bfbf
00000190: ddf9 bc3d b116 183f a5f9 96be 7ad2 f23d
000001a0: 5302 973e 0661 fd3e 2612 38bf 6ebf 37bf
000001b0: 40ec 55be f09f aebe 989a 77be 0a43 d736
000001c0: 819a 3ebd b156 d6bf 3cca 0bbf a573 2bbf
000001d0: 6b21 27bf 72fc 713f 3154 d43e 6e84 97be
000001e0: eabb 3cbf 65ab 3cbe a30d 4abe 69fb 863e
000001f0: 74e3 4e3f d989 78be 7d0e 013e 67f9 913f
00000200: 3b83 303e 665e 52bf d200 c2bd 8357 ed3e
00000210: aca0 8fbf 6ba5 8c3e a81c 33bf 389b fcbd
00000220: 8116 a53e d5d1 ccbe 667e 3c3f bde1 a1be
00000230: 9988 dfbe 92b2 623f f2e0 d1be 49d7 023d
00000240: f84b 0bbe b403 2cbf 953d 14bf 4f6d 0dbd
00000250: 5000 8f3d 80c7 bbbe 7e03 a63e 9826 95be
00000260: f2c9 9f3f 14ec 2bbe d867 263f bbd2 b0bf
00000270: 4402 58bd 77d1 983f b663 2c3f a32b 8c3c
00000280: ca9e 8e3f f580 2e3e a9ad aabe b68d f13e
00000290: 860b 05bf 39ab 983f 122d 023d c894 aebe
000002a0: 29ca e6bd 8979 28be d7c8 9bbe 6ac2 efbe
000002b0: 7feb fe3e 76db 683b e4b7 d6bc 6573 5f3f
000002c0: 9c88 6e3f 541e 91be 0093 16bf 6e86 9a3e
000002d0: af80 1fbf b3c5 e03e 6806 763e 5d82 273f
000002e0: 3ba4 46bf 2196 303e 42e7 e0bd 1f19 083f
000002f0: ccc2 863f 9484 c93e 18b9 71bd b14b 413f
00000300: 7caa 1c3e 7f9d 263f 95fa 4bbe 8296 3fbf
00000310: bbb8 053e ab13 a2be 697a 1ebe f29d 7c3e
00000320: 1ecf 10be f940 493e 26ec 04bf 3a86 26bf
00000330: 1bbc 37be c1c6 663e 9305 38be 93e7 cabe
00000340: c240 b2bf 3719 113e fb30 0dbf 5665 91bd
00000350: 6360 80bf e565 8bbd 803a 603e 559e ce3e
00000360: f5ca e7be 6563 7b3f 4231 0e3e 8015 14bf
00000370: bbe4 26be 87c6 943e d31e c1bd 3dd6 be3d
00000380: 47b8 22bd 0410 9cbe 6d19 8f3e 6bdb dcbd
00000390: 6d52 1fbf de24 f93e 84c6 17bf 2156 b3be
000003a0: 1bcd 9dbe da10 1ebd 4d7a 26bf 51ab 1e3f
000003b0: 96bf 0ebe 7490 42bf 4876 2d3d 1cbf babe
000003c0: 833f 99be 045c d83e 577a 3a3f 066c b0bd
000003d0: 5d70 5fbf 4057 15bc 75c3 d7be 60e4 943e
000003e0: fd31 77bf c435 09bf d18d 1a3f ffdb 41bd
000003f0: 9778 ad3e 4ad8 e03e 58ab b9bc e39b e6be

update_node_embedding_layer_g.0.update_layer.weight f4 [32, 64]
-0.8307098 0.28817025 0.19144443 0.033490036 0.0007034729 -0.52951074 -0.67917675 -0.4004844
-0.35945722 0.6827486 0.4035109 -0.62186706 0.05075525 -0.936371 -0.41993922 0.24133076
0.1367921 -0.6301565 0.70887065 -0.49546015 -0.6026175 0.37759215 0.104661256 0.51786214
0.22442733 -0.5750509 0.01254142 -0.15707707 0.054058857 0.5479839 -0.028980616 -0.06636165
0.37781963 -0.26015535 -0.3888542 -0.4770539 0.5328745 -0.34594724 0.5521919 -0.18448102
-0.4838276 -0.7688437 -0.49178872 0.2258142 0.116218776 0.43223444 -0.6299592 -0.37543246
0.351939 -0.2598284 -0.68501014 -0.36715487 0.33556646 -0.57885486 -1.1512535 -0.90139884
0.4275065 0.24981026 0.12383814 0.18084101 0.23968971 0.25873324 0.70998734 0.32474163
0.34392196 -0.123297386 -0.6701318 -0.6965077 0.69599116 0.56980246 0.012043064 0.43674755
0.376074 -0.18067273 -0.12387785 0.35183084 -0.65639955 0.00974206 0.21062118 -0.1744645
0.1721778 0.19049193 0.042149074 -0.93598264 -0.48415768 0.01074634 -0.013931302 0.6396837
-0.2491789 0.18343033 -0.6231209 0.04429984 -0.2766473 -0.83347625 0.3117205 0.17006275
0.12819177 -0.00372668 0.25779158 0.3581701 0.38482544 -0.33717605 0.68615276 0.5924343
-0.122677825 0.14206626 0.102040745 0.001482324 0.15892161 -0.17372562 -0.23557621 -0.0069365385
0.6515118 -0.5378965 0.17910084 0.40574586 0.6813091 -0.5097297 -0.7130043 -0.41748053
0.9923942 0.27178922 -0.22941865 -0.64949936 0.27405515 0.2911451 0.12568207 -0.2241047
1.3175782 0.09675516 0.14129324 -0.5810648 -0.014436338 -0.5118694 0.6353789 -0.5142704
-0.21859477 -0.11038635 0.75125265 0.15467966 -0.4751996 0.42274892 -0.6772651 0.45720753
-0.21595067 -0.00086054485 -0.4388891 -0.13224313 0.17940441 -0.11813125 -0.8359269 -0.60478795
-0.4261601 0.26027125 0.39176822 -0.29719028 -0.30841696 0.15352573 -0.9300978 -0.2954315
-0.3811509 -0.508998 -0.60106766 0.62463903 0.77569395 0.042444818 -0.44161084 -0.081555694
-0.42017022 -0.2719093 -0.07622939 -0.80445266 0.6040394 0.00020829734 0.73840696 0.2843985
0.54221165 -0.6158064 0.6255949 1.9200729 0.11157599 -0.5362548 -0.91116035 0.38957673
-0.14218135 0.32381913 -0.48141977 -0.21549298 -0.6414004 0.3048602 -0.320937 -0.5979579
-1.165997 -0.212791 1.0059037 -0.48395658 0.6571832 0.4145539 -0.3488339 0.893376
0.9878019 -0.845304 -0.025606928 0.21048978 0.16557583 -0.36757228 0.080346145 1.0448197
-0.70785743 0.1726547 -0.14069067 -0.7109528 0.17483754 -0.9336533 -0.4802112 0.20564961
-0.98313695 -0.40677348 0.3441741 -1.1194643 -0.78147644 0.37840226 1.0882678 -0.045775488
0.011845704 0.51608574 1.2411103 0.6847408 -0.114295244 0.124399625 -0.0020801327 -0.23408401
0.3971369 -0.588391 -0.24788767 0.2808678 0.5683865 -0.018149395 -0.3555513 -0.30105206
-0.5515665 -0.564743 0.55639106 -0.14221182 -0.008784115 0.2558682 -0.34903607 -0.8598736
-0.032630574 0.55924445 0.60842586 -0.028287606 -0.7030229 0.09454261 -1.0421796 -0.6039417
00000000: 66a9 54bf 0d8b 933e 020a 443e d92c 093d
00000010: 4469 383a 048e 07bf 87de 2dbf 4b0c cdbe
00000020: c70a b8be 9dc8 2e3f fb98 ce3e ae32 1fbf
00000030: bde4 4f3d 03b6 6fbf 4602 d7be 691f 773e
00000040: 3a13 0c3e f051 21bf 8c78 353f f4ac fdbe
00000050: 2445 1abf c253 c13e a458 d63d 9d92 043f
00000060: 47d0 653e 8936 13bf 877a 4d3c d0d8 20be
00000070: d26c 5d3d ac48 0c3f c268 edbc 9ee8 87bd
00000080: 9371 c13e 1533 85be e617 c7be 6940 f4be
00000090: 776a 083f ff1f b1be 735c 0d3f 98e8 3cbe
000000a0: 40b8 f7be f1d2 44bf bbcb fbbe d63b 673e
000000b0: 1c04 ee3d d54d dd3e 0245 21bf af38 c0be
000000c0: 5931 b43e 3a08 85be d35c 2fbf b9fb bbbe
000000d0: 5ecf ab3e d52f 14bf 465c 93bf 13c2 66bf
000000e0: 22e2 da3e 43ce 7f3e da9e fd3d 632e 393e
000000f0: 3871 753e af78 843e bbc1 353f 8944 a63e
00000100: 8a16 b03e 5783 fcbd c28d 2bbf 544e 32bf
00000110: 7a2c 323f 93de 113f 4650 453c 609d df3e
00000120: c58c c03e 4602 39be acb3 fdbd 2c23 b43e
00000130: cd09 28bf 299d 1f3c 14ad 573e d2a6 32be
00000140: 614f 303e 5110 433e 82a4 2c3d 8f9c 6fbf
00000150: 84e3 f7be 6b11 303c 1e40 64bc 50c2 233f
00000160: c128 7fbe 29d5 3b3e da84 1fbf c073 353d
00000170: b7a4 8dbe b35e 55bf d499 9f3e ee24 2e3e
00000180: b444 033e 513b 74bb 42fd 833e 1262 b73e
00000190: d707 c53e 57a2 acbe b5a7 2f3f c6a9 173f
000001a0: 833e fbbd d179 113e bdfa d03d 8a4a c23a
000001b0: 59bc 223e 21e5 31be e43a 71be e74b e3bb
000001c0: 7ac9 263f 96b3 09bf 3666 373e ecbd cf3e
000001d0: 466a 2e3f a57d 02bf 7387 36bf 02c0 d5be
000001e0: 8c0d 7e3f f527 8b3e b9ec 6abe 9745 26bf
000001f0: f550 8c3e f810 953e cdb2 003e b47b 65be
00000200: 67a6 a83f 9227 c63d 2daf 103e aac0 14bf
00000210: 6486 6cbc df09 03bf 31a8 223f 3aa7 03bf
00000220: 4fd7 5fbe 3d12 e2bd 1852 403f 5864 1e3e
00000230: 5d4d f3be 8c72 d83e 3f61 2dbf 1b17 ea3e
00000240: 2c22 5dbe 3096 61ba 12b6 e0be be6a 07be
00000250: cab5 373e ccee f1bd 4eff 55bf 62d3 1abf
00000260: a831 dabe 4642 853e d895 c83e 5329 98be
00000270: d4e8 9dbe d935 1d3e e41a 6ebf cc42 97be
00000280: 3626 c3be b14d 02bf 92df 19bf 58e8 1f3f
00000290: e193 463f 9eda 2d3d d11a e2be ac06 a7bd
000002a0: 8d20 d7be b237 8bbe 281e 9cbd 9cf0 4dbf
000002b0: 53a2 1a3f 646a 5a39 3d08 3d3f ae9c 913e
000002c0: 62ce 0a3f 7da5 1dbf fd26 203f f3c4 f53f
000002d0: f481 e43d ff47 09bf ce41 69bf 9a76 c73e
000002e0: fd97 11be 9fcb a53e a77c f6be 31aa 5cbe
000002f0: d132 24bf a316 9c3e db51 a4be c513 19bf
00000300: 643f 95bf e2e5 59be 74c1 803f 28c9 f7be
00000310: 283d 283f 6940 d43e 5b9a b2be 4ab4 643f
00000320: 96e0 7c3f d865 58bf 9fc5 d1bc a28a 573e
00000330: b68c 293e 6f32 bcbe 858c a43d a7bc 853f
00000340: 2536 35bf 65cc 303e 3711 10be 0101 36bf
00000350: 9d08 333e e703 6fbf 3ede f5be d095 523e
00000360: ddae 7bbf 9d44 d0be 9637 b03e 9b4a 8fbf
00000370: d70e 48bf f1bd c13e 5c4c 8b3f 147f 3bbd
00000380: 7c14 423c 321e 043f b4dc 9e3f 2c4b 2f3f
00000390: a013 eabd 3bc5 fe3d d652 08bb b8b3 6fbe
000003a0: 8755 cb3e cba0 16bf 44d6 7dbe e7cd 8f3e
000003b0: c781 113f 0aae 94bc d20a b6be 7f23 9abe
000003c0: 7633 0dbf ff92 10bf a56f 0e3f fa9f 11be
000003d0: 40eb 0fbc 2801 833e dbb4 b2be ad20 5cbf
000003e0: a3a7 05bd a52a 0f3f ccc1 1b3f 69bb e7bc
000003f0: 4ff9 33bf 8e9f c13d 2466 85bf ec9b 1abf

update_node_embedding_layer_g.1.message_layer.weight f4 [32, 64]
-1.0138028 -0.016477657 -0.10436493 -0.4212074 -0.60998994 0.08711768 -0.34044063 0.9276119
0.37528527 -1.0172259 -0.49487117 -0.023146583 -1.1163172 -0.15044925 -0.6053541 0.09545533
-0.15791476 0.27631226 0.5315915 0.27933946 -1.0175925 -0.6156387 0.57688606 -0.066440664
1.0410969 -0.7797836 0.35242888 -0.16025312 0.15410785 -0.23762015 0.5912613 -0.064368404
-0.4384894 0.17461006 -0.85415524 -0.8088228 0.34181964 -0.77709734 0.08989177 -0.57227933
-0.28429782 -0.17115563 -0.8035771 0.17462143 0.41451085 0.012600078 0.20756136 -0.08271153
-0.7919985 0.055095106 0.4497965 -0.3208134 -0.419959 -1.1807187 -0.56546396 -0.50339615
-0.009000326 0.21190429 -0.94944906 -0.7178632 -0.80997413 0.40433192 0.42420048 -0.90613836
0.76891196 0.19438633 0.2888123 0.22000103 -0.9563715 0.053211648 0.7546035 -0.307476
-0.3660758 -0.62517214 0.1345026 -0.2770238 -0.67291474 -0.16670583 -0.5846989 -0.9632317
0.36011314 -0.06946763 0.9587004 0.17088342 0.11959769 0.24357398 -0.7299671 -0.5379912
0.35198632 -0.7927531 -0.2556286 0.099154845 -0.19687472 -0.6170062 -0.35440913 0.19071575
0.10297912 0.86934006 0.5967812 -0.4983032 0.13829729 -0.24280411 -0.012071475 -0.33831427
0.17664342 -0.3874728 0.29374808 0.74717027 0.2927399 -0.4228339 0.042163193 -0.48975214
-0.85874176 0.23029922 0.041788414 -0.57943577 0.44464165 -0.31787986 -0.30187494 0.09897489
-0.05177222 -1.0837798 -1.1460949 0.4629413 -0.34188792 0.374982 -0.48705435 -0.70567566
-0.74407524 -1.4254336 -0.05383725 0.09926667 -0.53575706 0.11889317 -0.2727284 -0.20747747
1.099092 0.5385119 -0.57053155 1.0561913 -1.2598047 0.30617997 0.05751921 -0.7006965
-0.08693592 0.37301588 -0.5062092 0.090629876 -0.88186026 0.13265045 -0.030416979 -1.3647053
0.49909437 0.20121777 0.68211687 0.38011986 0.46454582 0.0003656309 -0.27045536 0.42156646
0.58931816 0.8219042 0.40871698 0.27033526 -0.5375034 -0.35508505 -0.8531718 0.122184746
0.6422657 0.5755891 0.27732697 -0.35685322 -0.9534275 0.29673415 0.12731746 -0.2657585
-0.4032044 -0.92639214 -0.30284804 -0.4709576 0.34715116 -0.3831474 -0.6437399 0.35221598
0.5889061 0.4043338 0.73059404 0.22174056 0.18470804 0.2755984 0.22637242 -0.7418353
0.052989185 0.43563855 0.53103197 -1.1512729 0.37199858 -0.33561546 -0.7534682 -0.04796355
0.052595623 -0.086997956 -0.04624882 -1.1958139 0.38613644 0.18489502 0.052485798 0.09167428
0.5621751 -0.55678385 0.5446286 0.56596243 0.47279915 0.80485 -0.5080748 -0.522353
-0.028746314 -0.23973948 -0.2722316 0.63656604 0.16007103 0.10346238 -1.4837534 0.569223
-1.357939 -0.9485556 -0.26716095 0.057872746 -0.70205396 -0.67507493 0.8745102 0.37592497
0.048382513 -0.6921594 -0.71639603 0.5044095 -0.7041346 -0.55953085 -0.27082312 -0.57665807
-0.6375788 0.3737791 -0.34595934 -0.8411011 -0.15510298 -0.31648877 -0.2760575 0.23510468
-0.2044756 0.36596027 -0.52870613 0.30526036 0.24061349 -0.71969604 -0.17201115 -0.6068757
00000000: 4ac4 81bf 27fc 86bc 48bd d5bd 7fa8 d7be
00000010: 4d28 1cbf c16a b23d 3c4e aebe f977 6d3f
00000020: 6425 c03e 7534 82bf c15f fdbe e79d bdbc
00000030: 7be3 8ebf 5e0f 1abe 7cf8 1abf 167e c33d
00000040: 68b4 21be cd78 8d3e 6116 083f 9505 8f3e
00000050: 7940 82bf 7f9a 1dbf ceae 133f 0b12 88bd
00000060: aa42 853f e69f 47bf 8f71 b43e 6519 24be
00000070: 73ce 1d3e b252 73be e75c 173f 95d3 83bd
00000080: af81 e0be fbcc 323e eba9 5abf 030f 4fbf
00000090: fc02 af3e daef 46bf 2d19 b83d e680 12bf
000000a0: 7c8f 91be 6c43 2fbe 3bb7 4dbf f6cf 323e
000000b0: c43a d43e 8f70 4e3c f78a 543e aa64 a9bd
000000c0: 6ac0 4abf 68ab 613d ba4b e63e a741 a4be
000000d0: de04 d7be ca21 97bf 3fc2 10bf 92de 00bf
000000e0: 1a76 13bc 70fd 583e 180f 73bf e2c5 37bf
000000f0: 775a 4fbf 9804 cf3e ce30 d93e aff8 67bf
00000100: 6ad7 443f 360d 473e 35df 933e f347 613e
00000110: c3d4 74bf 75f4 593d b22d 413f 7f6d 9dbe
00000120: 4a6e bbbe 480b 20bf 0dbb 093e 10d6 8dbe
00000130: 2444 2cbf efb4 2abe d4ae 15bf 5a96 76bf
00000140: c060 b83e 0b45 8ebd 646d 753f 10fc 2e3e
00000150: a2ef f43d 756b 793e 20df 3abf cbb9 09bf
00000160: 8d37 b43e def1 4abf c0e1 82be b211 cb3d
00000170: 8799 49be 1ef4 1dbf 1d75 b5be fd4a 433e
00000180: b8e6 d23d 128d 5e3f a7c6 183f 9921 ffbe
00000190: ce9d 0d3e a4a1 78be 70c7 45bc 8737 adbe
000001a0: 03e2 343e d662 c6be 2666 963e 8d46 3f3f
000001b0: 01e2 953e af7d d8be 50b3 2c3d cbc0 fabe
000001c0: 80d6 5bbf 8fd3 6b3e 542a 2b3d e755 14bf
000001d0: 12a8 e33e 26c1 a2be 5a8f 9abe 59b3 ca3d
000001e0: 1b0f 54bd 4cb9 8abf 3db3 92bf a406 ed3e
000001f0: ef0b afbe a4fd bf3e 305f f9be 29a7 34bf
00000200: b77b 3ebf 9c74 b6bf 7384 5cbd 534c cb3d
00000210: 6027 09bf 437e f33d 0fa3 8bbe f974 54be
00000220: 0caf 8c3f eadb 093f 5b0e 12bf 4731 873f
00000230: 4841 a1bf 9fc3 9c3e 4399 6b3d d960 33bf
00000240: 760b b2bd f0fb be3e ed96 01bf 289c b93d
00000250: 98c1 61bf 85d5 073e 072d f9bc aaae aebf
00000260: 4c89 ff3e 080c 4e3e 369f 2e3f 129f c23e
00000270: f3d8 ed3e 26b2 bf39 2079 8abe 8fd7 d73e
00000280: 8edd 163f 5068 523f 5a43 d13e 6269 8a3e
00000290: d399 09bf b5cd b5be 7869 5abf ff3b fa3d
000002a0: 866b 243f cf59 133f cdfd 8d3e 77b5 b6be
000002b0: d313 74bf 8aed 973e 825f 023e 8011 88be
000002c0: cf70 cebe 0928 6dbf e60e 9bbe 5b21 f1be
000002d0: ccbd b13e e52b c4be 23cc 24bf a755 b43e
000002e0: 8dc2 163f d704 cf3e 3608 3b3f f50f 633e
000002f0: 1b24 3d3e 3c1b 8d3e 2cce 673e ebe8 3dbf
00000300: 300b 593d 040c df3e b6f1 073f e95c 93bf
00000310: 9976 be3e cad5 abbe 4be3 40bf 6d75 44bd
00000320: 826e 573d fc2b b2bd 676f 3dbd 6e10 99bf
00000330: adb3 c53e 1f55 3d3e 59fb 563d babf bb3d
00000340: b5ea 0f3f 6389 0ebf c86c 0b3f eae2 103f
00000350: bb12 f23e a60a 4e3f 3111 02bf edb8 05bf
00000360: 647d ebbc 447e 75be f161 8bbe fef5 223f
00000370: a9e9 233e 16e4 d33d a2eb bdbf 99b8 113f
00000380: f2d0 adbf 8ad4 72bf 52c9 88be f90b 6d3d
00000390: cfb9 33bf b6d1 2cbf e7df 5f3f 3d79 c03e
000003a0: be2c 463d 5c31 31bf bb65 37bf fb20 013f
000003b0: 2a42 34bf 6a3d 0fbf 54a9 8abe dd9f 13bf
000003c0: 5d38 23bf f95f bf3e 9521 b1be 6752 57bf
000003d0: 51d3 1ebe d10a a2be 6957 8dbe 48bf 703e
000003e0: 0d62 51be 255f bb3e 4959 07bf 164b 9c3e
000003f0: 6263 763e 003e 38bf b123 30be 355c 1bbf

update_node_embedding_layer_g.1.update_layer.weight f4 [32, 64]
0.35571134 -0.8250013 -0.0910553 -1.1055298 0.6795579 1.1124532 0.81702995 0.09787822
0.30814254 -0.79638135 0.047938287 -0.94879127 -0.17324857 0.92985857 -0.115334116 0.3053064
0.42605034 0.1786781 -0.10430618 -0.20826392 -0.35296506 -0.09902324 0.26711065 1.1236073
-0.18261261 -0.6569721 0.24132927 0.08874821 0.14222623 -0.10862299 0.80180377 -0.07244076
0.3472596 -0.6996856 0.094519444 0.5572653 -0.11776248 -0.04185527 0.7057251 -0.43216893
-0.14798729 -0.3054929 -0.33275735 0.6322745 0.46045405 -1.1178455 0.28696564 -0.26387665
0.5688908 0.11488185 -0.6199612 -0.5489489 0.39508414 -0.09524221 -0.20626317 0.2545308
-0.42553207 0.18464577 -0.73305684 0.02719456 0.9779921 -0.15420471 -0.75686646 0.38090014
0.23937674 0.67406815 -0.04598662 -0.59934753 -0.051207274 0.75640345 -0.23012868 -0.11840936
1.4118509 -0.81744325 -0.19135408 0.64179504 -0.29426727 -1.1054931 -0.65962356 -0.49378362
0.07476548 0.41864312 -0.05445951 -0.14801192 -0.5053799 0.30530876 0.00280493 -0.26540327
-0.3217154 0.45566955 0.6385348 -0.78978103 0.5523458 -0.06204566 1.0447509 -0.3634828
0.73949367 0.22086325 -0.17180371 0.17698798 0.53501254 -0.13270603 0.18622757 0.7056324
-0.6520677 0.5005733 -0.22661991 -0.3465664 -0.27820125 0.30195275 1.4341527 -0.74286896
0.010512161 -1.0114621 -0.28323016 -0.87466574 0.5825678 -0.7674097 -0.05491093 0.80810547
-0.20789355 0.34694067 0.6331797 0.2198968 0.18176866 -0.461851 -0.1588819 0.16730371
-0.5176138 -0.23057021 0.33402488 -0.559656 -0.3776511 -0.78867793 0.72466964 0.29408965
0.10924701 0.5559169 -0.48676252 0.44190156 -0.5921536 -0.65144867 -0.22343476 -0.27610126
-0.078277685 0.55098087 0.15571745 -0.3399442 0.19517955 -0.008065917 -0.37559578 -0.44598046
-0.14046475 -0.56158674 -0.100386694 -0.033409886 -0.8116035 -0.2824409 -0.1334864 0.31026232
-0.006962769 0.8018358 0.21250673 -0.036411 0.24442749 -0.1566072 0.027666127 -0.50076425
-0.41352567 -0.82497466 -0.13967901 -0.08313507 -0.22960119 -0.18732736 0.232201 -0.107546054
0.92288285 -0.008537677 0.78523266 0.23107742 -0.19675629 0.7382047 0.36711368 -1.0692892
-0.5057779 -1.1289879 -0.11139898 0.0106604 -0.14579663 0.32494396 -0.07294589 0.29705563
-0.5745642 0.4939647 0.07394685 -0.11725454 -0.4087065 -0.69252837 -0.011265584 0.8545054
-0.30234638 -0.3745353 0.16397467 0.25631994 0.72484106 -0.2263135 -0.09242403 0.74412334
-0.2812866 -0.36569643 -0.37213263 -0.040510084 -0.058575403 -0.7594348 -0.8413321 -0.36584812
0.86683244 0.040350657 0.28425333 0.1073776 -0.79072475 -0.30908498 0.041388918 -0.1772124
-0.122662984 -0.19213536 0.19649617 0.03136098 0.23241618 -0.25223526 0.4025707 0.14027447
0.12755717 0.48643288 -0.52697086 -0.552573 0.101763934 -0.27110633 -0.23425189 0.5133847
0.0949569 0.30159014 0.36528262 0.5331822 0.5285184 -0.56101984 0.5580533 -0.24323048
-0.19774246 -0.10554818 -0.11862468 -0.4975396 0.19151951 -0.71418244 0.51393473 -0.38503268
00000000: cc1f b63e 4933 53bf 337b babd 0082 8dbf
00000010: 82f7 2d3f de64 8e3f e028 513f 6074 c83d
00000020: dcc4 9d3e a6df 4bbf f05a 443d fce3 72bf
00000030: 1368 31be 360b 6e3f 4b34 ecbd 1f51 9c3e
00000040: 4523 da3e 64f7 363e 7a9e d5bd 2343 55be
00000050: d6b7 b4be b2cc cabd bac2 883e 5dd2 8f3f
00000060: cdfe 3abe 532f 28bf 051f 773e 9fc1 b53d
00000070: c1a3 113e bb75 debd 0343 4d3f d25b 94bd
00000080: 03cc b13e 981e 33bf 6993 c13d f0a8 0e3f
00000090: 752d f1bd 6e70 2bbd 66aa 343f 3f45 ddbe
000000a0: fb89 17be 9169 9cbe 2c5f aabe bedc 213f
000000b0: a2c0 eb3e 9015 8fbf 29ed 923e d71a 87be
000000c0: d4a2 113f 2d47 eb3d c7b5 1ebf ea87 0cbf
000000d0: 7848 ca3e 590e c3bd a736 53be dc51 823e
000000e0: 57df d9be c813 3d3e 9da9 3bbf 20c7 de3c
000000f0: b15d 7a3f d7e7 1dbe 00c2 41bf 5805 c33e
00000100: 2d1f 753e bb8f 2c3f 775c 3cbd d76e 19bf
00000110: b8be 51bd a8a3 413f daa6 6bbe 9b80 f2bd
00000120: 88b7 b43f f643 51bf 53f2 43be ae4c 243f
00000130: 33aa 96be cc80 8dbf 17dd 28bf 35d1 fcbe
00000140: a51e 993d 6458 d63e ef10 5fbd 7090 17be
00000150: 9460 01bf 6e51 9c3e ebd2 373b f0e2 87be
00000160: e2b7 a4be 854d e93e 0477 233f 172f 4abf
00000170: 8966 0d3f 9723 7ebd 66ba 853f 6b1a babe
00000180: 754f 3d3f fa29 623e 50ed 2fbe 563c 353e
00000190: 95f6 083f 17e4 07be 71b2 3e3e 53a4 343f
000001a0: e9ed 26bf 9225 003f 0d0f 68be 2771 b1be
000001b0: 6570 8ebe 8d99 9a3e 5192 b73f a92c 3ebf
000001c0: 333b 2c3c 9777 81bf 8b03 91be 18ea 5fbf
000001d0: 2a23 153f f674 44bf 49ea 60bd 00e0 4e3f
000001e0: 0ce2 54be 35a2 b13e 1118 223f a02c 613e
000001f0: 9021 3a3e bc77 ecbe f0b1 22be aa51 2b3e
00000200: 5782 04bf 991a 6cbe 4f05 ab3e 9e45 0fbf
00000210: 7c5b c1be cce6 49bf f383 393f eb92 963e
00000220: e5bc df3d 9250 0e3f f038 f9be ec40 e23e
00000230: 6197 17bf 57c5 26bf 15cc 64be 255d 8dbe
00000240: 0d50 a0bd 150d 0d3f 6574 1f3e 2b0d aebe
00000250: 26dd 473e e826 04bc 174e c0be 8d57 e4be
00000260: fed5 0fbe 26c4 0fbf 8a97 cdbd ced8 08bd
00000270: 3fc5 4fbf 189c 90be a9b0 08be b4da 9e3e
00000280: f127 e4bb 1c45 4d3f 5d9b 593e b323 15bd
00000290: 334b 7a3e a35d 20be 13a4 e23c 1632 00bf
000002a0: a3b9 d3be 8a31 53bf 0408 0fbe b842 aabd
000002b0: 931c 6bbe bed2 3fbe 19c6 6d3e 1b41 dcbd
000002c0: 0d42 6c3f 9de1 0bbc 0205 493f 8f9f 6c3e
000002d0: 7b7a 49be fcfa 3c3f 53f6 bb3e 78de 88bf
000002e0: a97a 01bf ad82 90bf 2625 e4bd f5a8 2e3c
000002f0: b64b 15be 0e5f a63e a864 95bd ad17 983e
00000300: a416 13bf f1e8 fc3e 7271 973d 2623 f0bd
00000310: fa41 d1be 8a49 31bf 4993 38bc dec0 5a3f
00000320: 25cd 9abe 17c3 bfbe fae8 273e 5e3c 833e
00000330: 2f8f 393f babe 67be cf48 bdbd de7e 3e3f
00000340: cc04 90be 903c bbbe 2b88 bebe e7ed 25bd
00000350: c3ec 6fbd 526a 42bf 8a61 57bf 7250 bbbe
00000360: bbe8 5d3f bb46 253d a789 913e cae8 db3d
00000370: f06c 4abf 6340 9ebe 6d87 293d 2b77 35be
00000380: bb36 fbbd 22bf 44be 4b36 493e 5f74 003d
00000390: 82fe 6d3e fb24 81be bf1d ce3e 1ca4 0f3e
000003a0: 599e 023e bb0d f93e 90e7 06bf 6d75 0dbf
000003b0: 9c69 d03d 73ce 8abe badf 6fbe 2e6d 033f
000003c0: c378 c23d 066a 9a3e 5306 bb3e a17e 083f
000003d0: fb4c 073f ff9e 0fbf 95dc 0e3f 6911 79be
000003e0: 007d 4abe a529 d8bd 7ff1 f2bd 83bd febe
000003f0: b11d 443e a9d4 36bf 3a91 033f 0123 c5be

update_node_embedding_layer_p.0.message_layer.weight f4 [32, 64]
-0.23381652 -0.5933319 -0.26706603 1.2427227 0.1850755 0.7079241 -0.6838151 0.8991638
-0.33411956 0.4320439 0.12523971 0.20655335 -0.33704844 0.3486983 0.061033398 -0.20544352
-0.07349697 -0.14126559 -0.22315063 -0.083396934 -0.43442306 -0.28842446 -0.33574307 -0.072524466
-0.198506 -0.6776725 0.8643034 -0.12052063 0.34674492 0.033588853 -0.10741198 0.997788
1.096363 0.8101077 -0.05065819 -0.40216798 0.27949008 -0.19337846 0.44492164 0.49952894
0.54246366 0.8780389 -0.46931642 -0.24165891 0.22635627 -0.17733309 -0.6193791 -0.4540205
-0.56001186 -0.07926323 0.14512256 -0.32554296 -1.1286185 -0.09567223 0.1698408 1.2538688
-0.48520353 -0.104580544 -0.20477311 -0.5226998 -0.1678015 1.4117512 -0.85059255 0.5910348
-0.43713346 -0.61334777 0.99112695 0.47933257 0.10775675 0.32631677 0.36699095 -0.045933444
0.04835227 0.36911327 -0.1493286 0.14057748 0.08614037 0.009254939 0.06912121 0.049823817
-0.5710267 -0.788572 -0.04563007 0.055016804 -0.6054064 -0.012884248 0.38125458 -0.2384734
-1.1285576 0.07627904 0.3705912 -0.43876666 -0.33364445 -0.17492633 -0.7368023 0.5124054
0.2121093 -0.121959604 -0.5505022 -0.046387255 0.9856143 0.66007113 -0.7592445 0.6140786
-0.1619 -0.27290308 1.1671698 -0.63344723 0.6677597 -0.33946556 -0.44794366 -0.70895225
0.42096874 -0.2777614 0.24158533 -0.88577914 0.4313125 0.23268445 0.057556264 -0.8631515
-0.2942827 0.2749761 -0.767364 -0.26518843 -0.28024757 -1.103305 0.32691705 0.36755404
0.2109356 -0.6933695 -0.35022578 -0.48141262 -0.791437 0.51172495 -0.123623766 -0.6169591
-0.6356584 -0.0316263 -0.08110663 -0.2866555 0.52350247 0.05572213 -0.5447246 0.46975064
0.10086176 -0.58386904 0.74279106 -0.062913544 0.20022875 -0.088053346 -0.55796564 -0.2803837
-0.60712326 -0.016077368 -0.5090445 -0.061240487 -0.12868845 0.23832694 0.41992077 0.12202506
0.11404494 0.17586744 -0.12999816 -0.07292184 0.7457528 0.5333065 0.360621 -0.7183205
-0.95685637 -0.40850422 1.4677377 0.690189 -0.111945175 0.021076431 0.021451155 1.3526837
0.44121575 -0.19782166 0.26606002 0.098836266 -0.0765853 -0.45111635 -0.46336126 0.076451816
-0.76560116 -0.14144775 0.61205626 0.12246039 0.33043072 -0.122572854 -0.10889232 -0.26505858
0.3453999 -0.3899995 0.19632861 -0.791556 -0.39459282 -0.24304155 0.29235595 -0.17675926
-1.0596888 0.35490412 0.6950359 -0.22963169 0.4764617 0.05822023 -0.27003244 0.49495682
-0.68485 0.70699686 -0.41211444 0.07206299 -0.87645525 0.19079396 -0.092805766 -0.71383375
-0.057939634 0.14449559 -0.08293758 0.5924413 -0.24251054 0.45918813 -0.24736202 -0.16106874
0.87549955 0.11471402 0.39248422 -0.07404889 -0.08782113 0.11040121 -0.18214932 -0.4025644
0.2074524 0.4590637 0.35113126 0.042959448 -0.59119874 -0.026902314 -0.114894606 -0.45372704
-0.056695893 -0.20107283 -0.7115112 -0.38124758 0.060872115 0.08952241 -0.053382438 0.10134108
-0.056763742 -0.70880526 -0.077562936 0.86155 -0.39594093 -0.0008083049 0.29282865 -1.0977266
00000000: 996d 6fbe 99e4 17bf e1bc 88be 8a11 9f3f
00000010: 6f84 3d3e 843a 353f 820e 2fbf 992f 663f
00000020: b811 abbe dc34 dd3e d73e 003e b982 533e
00000030: 9d91 acbe 9588 b23e 28fe 793d c95f 52be
00000040: 9485 96bd eda7 10be 9981 64be 03cc aabd
00000050: b36c debe 5fac 93be 84e6 abbe b587 94bd
00000060: 2845 4bbe f27b 2dbf fd42 5d3f 85d3 f6bd
00000070: 8d88 b13e 7794 093d d0fa dbbd 096f 7f3f
00000080: 9f55 8c3f 3863 4f3f f67e 4fbd f6e8 cdbe
00000090: 5319 8f3e 0105 46be c5cc e33e 42c2 ff3e
000000a0: e6de 0a3f 28c7 603f 3e4a f0be 6f75 77be
000000b0: f0c9 673e ce96 35be a18f 1ebf 6075 e8be
000000c0: f05c 0fbf c354 a2bd 029b 143e 91ad a6be
000000d0: 9276 90bf cdef c3bd bfea 2d3e c67e a03f
000000e0: 996c f8be 532e d6bd 0bb0 51be a7cf 05bf
000000f0: 28d4 2bbe 43b4 b43f 6fc0 59bf 0f4e 173f
00000100: f5cf dfbe 5c04 1dbf 7fba 7d3f 146b f53e
00000110: 92af dc3d fe12 a73e 3de6 bb3e b524 3cbd
00000120: 080d 463d 6afc bc3e 99e9 18be 8bf3 0f3e
00000130: 5d6a b03d 07a2 173c 6c8f 8d3d 0f14 4c3d
00000140: ce2e 12bf dbdf 49bf 99e6 3abd 4d59 613d
00000150: eafb 1abf 7418 53bc cd33 c33e 5f32 74be
00000160: 9374 90bf 2f38 9c3d 21be bd3e 06a6 e0be
00000170: 72d3 aabe e31f 33be 139f 3cbf 002d 033f
00000180: 2e33 593e f5c5 f9bd b6ed 0cbf 9000 3ebd
00000190: 3851 7c3f 6cfa 283f d95d 42bf 4134 1d3f
000001a0: 1dc9 25be f4b9 8bbe d265 953f 9929 22bf
000001b0: 4df2 2a3f 6ece adbe df58 e5be e57d 35bf
000001c0: 3789 d73e be36 8ebe 2562 773e 6cc2 62bf
000001d0: fed4 dc3e d544 6e3e 1ec0 6b3d 7ff7 5cbf
000001e0: 39ac 96be abc9 8c3e f871 44bf c7c6 87be
000001f0: 9c7c 8fbe 1939 8dbf ac61 a73e 0b30 bc3e
00000200: 80ff 573e aa80 31bf cb50 b3be b77b f6be
00000210: 9d9b 4abf 6800 033f 752e fdbd 08f1 1dbf
00000220: 82ba 22bf 948a 01bd 3c1b a6bd 82c4 92be
00000230: 4204 063f e33c 643d 1273 0bbf 2883 f03e
00000240: 9c90 ce3d 7178 15bf 8e27 3e3f d1d8 80bd
00000250: c408 4d3e 5055 b4bd d6d6 0ebf 748e 8fbe
00000260: 6e6c 1bbf afb4 83bc be50 02bf 4ed7 7abd
00000270: e8c6 03be fa0b 743e dbff d63e 46e8 f93d
00000280: 6590 e93d 9816 343e 3d1e 05be 0c58 95bd
00000290: a8e9 3e3f c686 083f 51a3 b83e dae3 37bf
000002a0: 8af4 74bf 7727 d1be d4de bb3f 3ab0 303f
000002b0: 8343 e5bd 7ba8 ac3c 55ba af3c bd24 ad3f
000002c0: 08e7 e13e c391 4abe 0539 883e ab6a ca3d
000002d0: c1d8 9cbd b9f8 e6be b03d edbe c592 9c3d
000002e0: 70fe 43bf aed7 10be b8af 1c3f 83cc fa3d
000002f0: 372e a93e 7a07 fbbd f002 dfbd c2b5 87be
00000300: 41d8 b03e 04ae c7be 5e0a 493e 6aa3 4abf
00000310: 1208 cabe e2df 78be aeaf 953e 6100 35be
00000320: e2a3 87bf feb5 b53e dfed 313f 9224 6bbe
00000330: caf2 f33e 5678 6e3d b141 8abe fb6a fd3e
00000340: 5452 2fbf bffd 343f aa00 d3be c395 933d
00000350: 5f5f 60bf 7e5f 433e f310 bebd cfbd 36bf
00000360: 1c52 6dbd a7f6 133e 2edb a9bd 3caa 173f
00000370: af54 78be b51a eb3e 784c 7dbe 34ef 24be
00000380: bd20 603f 2fef ea3d b1f3 c83e f2a6 97bd
00000390: 91db b3bd 081a e23d 5a85 3abe ec1c cebe
000003a0: 676e 543e 660a eb3e 7ac7 b33e 3ff6 2f3d
000003b0: cd58 17bf 3e62 dcbc dd4d ebbd e94e e8be
000003c0: f439 68bd 09e6 4dbe 9925 36bf e232 c3be
000003d0: 0a55 793d 8657 b73d 8ba7 5abd ea8b cf3d
000003e0: 1981 68bd 4374 35bf 51d9 9ebd 8a8e 5c3f
000003f0: c5b8 cabe 6ce4 53ba a3ed 953e 4e82 8cbf
