experiments/GBMLGG_100/train/GBMLGG_100/s2v/network/network28000.pth (torch_old, 87608 bytes, 17 tensors)

node_init_embedding_layer_g.0.weight f4 [32, 2]
00000000: 80e7 41bf 7172 51bb ce0e 3d3f 6b59 77bf
00000010: e111 06be 15f9 c73e dce7 793f 178d 42bc
00000020: 0532 f1be 2feb e63e 181b fd3e 049b 053d
00000030: c2ee 2f3f 14e7 c6bc 246d 063d 3d76 633f
00000040: 493c e0be f44a 343e 7b80 ad3f 4525 493e
00000050: e8ca 35be a775 77bd 3276 533f f3da 8bbf
00000060: d444 653e 6c6d 5cbf 5a25 d8bd feb0 abbc
00000070: f834 87bf 8c06 c1bd 1e4e 433e 639e ac3e
00000080: 825a 0cbf 46a2 233f fd3b 123d 2699 bb3c
00000090: ff38 76be d8a4 12bf 3395 43bf 330b dd3e
000000a0: 5693 b83c 3119 fabe 4565 13bf 08eb abbd
000000b0: 4593 49be a0ef 89bd 6412 36bf dc5c 99bb
000000c0: 09de 143f 0ac5 a4bf d688 633e 5f00 1c3e
000000d0: 2eb7 f33e bd86 13be 9553 9fbf c08f 5d3e
000000e0: 6b5f 133e 591b 5a3d 301e ee3b ddb0 02be
000000f0: 3375 fc3e 0cfe 4d3e 52f0 70bd 9afd dfbb
-0.75743866 -0.0031959082 0.73850715 -0.96620816 -0.13092758 0.39057222 0.97619414 -0.011874459
-0.47108474 0.45101306 0.49434733 0.032618538 0.6872369 -0.024280109 0.03281893 0.8885229
-0.43795994 0.17606717 1.3554834 0.19643123 -0.17753184 -0.060414936 0.82602227 -1.0926193
0.22389537 -0.86104465 -0.10553999 -0.02095842 -1.056304 -0.09425077 0.19072768 0.3371459
-0.54825604 0.63919485 0.03570174 0.022900175 -0.2404518 -0.5728278 -0.76399535 0.43172607
0.022531193 -0.48847345 -0.575764 -0.08394438 -0.19685085 -0.06735158 -0.7112181 -0.004680259
0.581513 -1.2872632 0.22220168 0.15234517 0.47600693 -0.14406867 -1.2447382 0.21636868
0.14391868 0.053248737 0.007266782 -0.1276278 0.49308166 0.20116442 -0.058822937 -0.0068356516

node_init_embedding_layer_p.0.weight f4 [32, 1]
00000000: 2114 71be c139 8ebe 57e9 233e 69ed d8be
00000010: 61ae 65bd 9059 6dbd d1b6 1fbc eb72 8c3f
00000020: ccba adbe a3ce 6dbe d3b4 c6be c593 33be
00000030: 78b4 debe cbb1 183d 3a3f 1bbb 4765 6c3f
00000040: 1fc4 423e 6c5c e53e ee20 10bf 24bc 353e
00000050: 16a5 533e f0d6 3c3d 973a 31bf 21a9 38bd
00000060: ad75 203e d3c6 0dbf fc36 323f 61e8 3f3f
00000070: 7877 023f cc78 bcbe 2548 833d 3df7 1cbd
-0.23542835 -0.27778438 0.16006981 -0.4236863 -0.056074504 -0.05794674 -0.009748177 1.097257
-0.33931577 -0.23223357 -0.38809833 -0.17536838 -0.43497062 0.03727893 -0.002368881 0.92342037
0.19020127 0.44797075 -0.56300247 0.17747551 0.20668444 0.046103418 -0.69230026 -0.04508317
0.1566989 -0.55381507 0.6961515 0.7496396 0.50963545 -0.3681091 0.06410245 -0.038321722

edge_embedding_layer_g.edge_embedding_NN.weight f4 [31, 1]
00000000: f00b f2be 099a b43e 7bcb efbe 4342 27bf
00000010: b306 b53e 6717 d5be be6b 473e effd babb
00000020: 7fd6 05bf 8192 30be 4be1 833e 52fa 7c3e
00000030: 0270 40bf ed8f 09bf a342 cf3e ff92 9bbe
00000040: cfef ae3e 55e0 55be 2b98 18bf 8f22 5a3e
00000050: 0775 19bc e7f6 e4be a67f c53e 7cd7 0fbe
00000060: aeca 25be 800b a4be d5df dc3c e336 373f
00000070: be83 0abf 6fb1 2cbf 547e d73e
-0.47274733 0.3527377 -0.4683493 -0.6533548 0.35356674 -0.41619417 0.19474694 -0.005706541
-0.5228042 -0.17243387 0.25757822 0.24704865 -0.7517091 -0.5373524 0.40480527 -0.30385587
0.34167334 -0.20886357 -0.5960719 0.21302246 -0.00936628 -0.44719622 0.3857395 -0.14047045
-0.16190597 -0.32040024 0.0269622 0.71568125 -0.5410727 -0.6745824 0.42088568

edge_embedding_layer_g.edge_feature_NN.weight f4 [32, 32]
00000000: 5d39 49be d647 303f 7658 a4bf f3af 913f
00000010: 66dc 33bf 15fb f63e bbf9 0ebc a42c 103d
00000020: efe7 1bbe a037 4fbd de5c 26bf cde8 05bf
00000030: 1a27 7d3e 7250 66bf be76 fe3e f4e2 ce3e
00000040: 1554 b9be dff3 31be 5557 063e 7c0a 83bf
00000050: fb30 0f3f 74b0 4abf befb 94bd acad 743e
00000060: 9f79 073f ac31 28bf 3659 c8be f79c 13bf
00000070: d38d 2ebf 6372 f3bd 1e40 96be b5d5 0e3e
00000080: 30c8 b13d cbd0 cb3c e0e6 003e 81b1 0f3d
00000090: b2b0 093d 8c26 75bf afda 86be 381c 163f
000000a0: 9237 d3bc 70b3 023f b1b5 e73e e109 343f
000000b0: 3946 d7bd b928 8ebe ab05 e5be 402d 013f
000000c0: 37f9 84bf 59bd 87bf 59f1 3b3c 0c90 83bd
000000d0: 3400 2f3f 3527 c03d 4c5f 04bf bb51 9a3d
000000e0: d7e0 fbb8 540b 2d3e 5ad4 b23e 3d7e 273c
000000f0: 25d6 a8bd 503e b8be 9b3d 80bf 718d 533e
00000100: 99e9 3f3f 9a68 97bf 31a9 dcbe e903 4bbe
00000110: 4e98 27bf f28f 2bbe 0c37 253d 270f b43e
00000120: 48b4 c83e 43fa bebe c8a6 62bf cfb5 f93d
00000130: d3b8 d23e 1e5d 0e3f 4b48 0fbd c755 25bf
00000140: 6bd9 c03e 62ba 1abf 14ed 80be 6b34 9c3e
00000150: d635 fb3d f492 2dbd 5acd e7be 861a 47bf
00000160: 445e 20bf f2dc 84bd e126 d73e 73a3 303f
00000170: d396 513e 9328 b1be 2703 1c3f 22f5 59be
00000180: 4f3d d4bc 43a0 e0be e885 fabe cf51 05bf
00000190: a048 fabe 08e8 38bf c1b3 9a3f 362f 6bbe
000001a0: 5c67 363e 9e98 edbd ce28 0e3f 3a5a 17bf
000001b0: 46ad 1b3f c618 91bd 6dcf e5bd 0238 4fbe
000001c0: 649d edbe e837 273f 46f3 7d3e 2686 cfbe
000001d0: 10e9 16bf 61fc 15be a277 8b3d 273d babe
000001e0: 9223 59bd ef9e 303e e3eb f33e ae93 4ebf
000001f0: fece 28be 2728 b6be 4f09 a83e ed50 383f
00000200: 1b9d 12be 5ceb 863e 8847 02bf ab5e 3d3d
00000210: 21de 04bf 9bd8 743f ea17 b2be 5c0d e5bc
00000220: 412f 34bf 717f a43e 1422 af3e b433 15bf
00000230: 5766 7abe c6ff 3f3f 775f 593d 921a 3b3e
00000240: e33c 1cbf a37e 113f 1858 2ebd 56ec d73e
00000250: 78e6 5f3d 3ded c7be 0f3b 833f 185c 82be
00000260: 9f07 943e 68c3 d13e 81ad 05bf 6878 15bf
00000270: d6f7 7b3d 066d c33b 175e 1cbf cc5e 0c3f
00000280: 6b07 3c3f 9261 cd3d 83f2 25bf 18c8 233f
00000290: 7565 99bf dd88 9d3e 696b 7dbe d9c3 803e
000002a0: 2e94 f33e 3265 5cbf 17f6 1fbf 57cb 4dbf
000002b0: ca85 123f 7544 d53d df22 52be 9b67 73bf
000002c0: 5cf8 583e 869e 253f 6e64 5f3f 896b bd3e
000002d0: 72aa 663f 4d78 2dbe 72e0 923e dff5 403f
000002e0: 39eb c73d b9a2 fd3e cadf a9bf be55 22bf
000002f0: e0c5 3dbe bf16 f83e f26c f7bd 67c1 473e
00000300: 7593 e3bd 51bc 123f 7e75 9a3e f36a 9ebe
00000310: 2179 9c3e fd35 123f 416b 1cbf 44e8 3bbf
00000320: e5c7 7c3f 4f2a 913e 5e3c ba3e aa68 42bf
00000330: 8d4b 313f efcc 593e cb53 aebe ba4b a33e
00000340: e403 0cbf a686 743e 824d 753e 3979 3e3e
00000350: 914d 10be e4a8 06be 810a 5a3d 5c85 e2bd
00000360: aa04 46bf 2b24 26bf cb2f 43bf 81fe 7abf
00000370: 6ab2 90be 38fc d23e 51ea 57be 4427 5e3e
00000380: b110 e4be f2ce 5ebf 60e5 9dbe 1e55 35bf
00000390: 0b84 1c3e 6585 ebbe 5e01 9cbe 5520 15bf
000003a0: b7b6 ecbd dd7b dc3e e091 e9bd c159 95bf
000003b0: 1bea 1e3f 0d93 2cbf 805b 8a3e e969 e73e
000003c0: 4e4c 66be 20fe bc3e 1a4f 6a3f b00c 65be
000003d0: 643f 65be a966 513f 7ea4 023f 5b74 8dbe
000003e0: 1764 17bd 146e 87bf f098 303d 00ea 033f
000003f0: de92 b63d 6d96 09bd a722 0fbf 0638 163d
-0.19650789 0.6885961 -1.2839496 1.138182 -0.70258176 0.48238435 -0.008726533 0.035198823
-0.15225194 -0.050590158 -0.64985454 -0.5230835 0.24721947 -0.899665 0.49699968 0.40407526
-0.36196962 -0.17378186 0.13119252 -1.0237575 0.55934113 -0.79175496 -0.072745785 0.23894376
0.52919954 -0.65700793 -0.39130563 -0.57661384 -0.68185157 -0.11887052 -0.29345793 0.1394871
0.08680761 0.024879834 0.12588072 0.03508139 0.033615775 -0.9576194 -0.26338717 0.5863681
-0.025783334 0.5105505 0.45255807 0.70327574 -0.10511441 -0.27765444 -0.44730887 0.5045967
-1.0388554 -1.0604659 0.011471116 -0.06423959 0.68359685 0.09382478 -0.5170791 0.0753512
-0.00012010492 0.16898853 0.34927636 0.010222969 -0.0824397 -0.3598504 -1.00188 0.20659424
0.74965817 -1.1828797 -0.43097833 -0.1982571 -0.65466774 -0.1675413 0.0403357 0.3516781
0.39200044 -0.3730031 -0.8853574 0.1219288 0.41156635 0.55610836 -0.034981053 -0.6458401
0.37665877 -0.6044065 -0.25180876 0.30508742 0.12266128 -0.042376474 -0.45273858 -0.77774847
-0.6264384 -0.064874545 0.4202185 0.68999404 0.20467691 -0.34601268 0.6094231 -0.21284917
-0.02590814 -0.4387227 -0.48930287 -0.52077955 -0.48883533 -0.7222905 1.2086107 -0.22967228
0.17812866 -0.11601375 0.55531013 -0.5912205 0.6081127 -0.07084803 -0.11221204 -0.20236209
-0.46409142 0.6531968 0.24799833 -0.40532035 -0.58949375 -0.14647056 0.068099275 -0.3637478
-0.053012438 0.17248128 0.47640905 -0.8069409 -0.16485211 -0.3557751 0.32819602 0.7199848
-0.14317743 0.2635144 -0.508904 0.04623286 -0.5190144 0.95643014 -0.3478387 -0.027960472
-0.70384604 0.3212848 0.34205687 -0.5828202 -0.24453102 0.74999654 0.053069558 0.18271855
-0.61030406 0.5683386 -0.04256448 0.42172498 0.05466315 -0.39048186 1.0252398 -0.25460887
0.28912064 0.40969396 -0.5221787 -0.5838685 0.06151565 0.0059639243 -0.6108107 0.5483215
0.7344882 0.10028376 -0.6482317 0.63977194 -1.1984087 0.3076848 -0.24748005 0.2514942
0.4757399 -0.8609191 -0.6248488 -0.80388397 0.57235396 0.10413448 -0.20521115 -0.95079964
0.21188492 0.6469501 0.8726262 0.36996105 0.9010383 -0.16940422 0.28686863 0.7537517
0.09761662 0.4953821 -1.327142 -0.6341208 -0.18532515 0.48454854 -0.120813265 0.19507371
-0.111121096 0.573186 0.30167764 -0.3094097 0.30561164 0.5711363 -0.61101156 -0.73401284
0.98742515 0.2835259 0.36374182 -0.75940955 0.69255906 0.21269582 -0.34048304 0.31893712
-0.54693437 0.2387949 0.23955348 0.1860093 -0.14092089 -0.13150364 0.053232674 -0.110605925
-0.77350867 -0.6489894 -0.762448 -0.9804459 -0.2826112 0.41208053 -0.21085478 0.21694666
-0.44543985 -0.87034523 -0.30839062 -0.70833004 0.15284745 -0.4600021 -0.30469793 -0.5825246
-0.115582876 0.4306325 -0.114047766 -1.1668016 0.62075967 -0.6741188 0.27022934 0.4519799
-0.22490045 0.36912632 0.9152695 -0.22368121 -0.22387463 0.8179727 0.51032245 -0.27627835
-0.036960687 -1.0580468 0.043114603 0.5152893 0.089147314 -0.033590723 -0.5591225 0.036674522

edge_embedding_layer_p.edge_embedding_NN.weight f4 [31, 2]
00000000: b9a6 443e 2e23 dfbe f369 003f c1e0 8dbf
00000010: a1d8 cd3e e18e c13e e548 4dbd 7a10 0bbf
00000020: db8a 023f 7e4b f43e 0c73 dfbe 86e9 073f
00000030: 7179 193f 8aea d5be 039c b1be dc3c 7f3f
00000040: c9fd 9a3e dbc6 25bf f99c 1bbf 833b 5dbf
00000050: dc3c 61be 03d5 803e b0a3 543f a4da 483e
00000060: 8b31 89bf 55e0 5cbf b44b 4bbd 179d 6bbf
00000070: 1ca0 753e a4d3 02bd d6ee a3bd 00c3 eabe
00000080: 5467 ae3e 9118 45bf fc77 ee3e e986 893d
00000090: d39e 8cbb dc28 ebbd 4ffe cebe d564 ecbe
000000a0: 093e 233f 6b93 b3bf 1b10 1abe 2bbe 7dbf
000000b0: 8567 93bd 90f1 8bbe 7dde 3b3f 0292 26bd
000000c0: 2a4b 92bd 76df b6be df55 0c3e c9cb a6bc
000000d0: ac00 f2be eb21 043f 3b1a 473b 8d29 5abd
000000e0: 70ea c9be 6269 72be b17b 3fbe 4f78 23bb
000000f0: 4ab5 e2be 8646 5fbe
0.19204225 -0.43581527 0.50161666 -1.1084214 0.40204337 0.3780432 -0.050118346 -0.54322016
0.50993127 0.47713846 -0.4364246 0.53090703 0.5995093 -0.41780502 -0.3468934 0.9970224
0.30271748 -0.64756554 -0.60786396 -0.8641893 -0.21995872 0.25162515 0.8306227 0.19614655
-1.0718244 -0.86279804 -0.049632743 -0.92036575 0.23986858 -0.031940117 -0.08004539 -0.45851898
0.34063208 -0.7699061 0.46575916 0.06715185 -0.0042913943 -0.11482403 -0.40428397 -0.4617068
0.63766533 -1.4029363 -0.15045206 -0.991183 -0.07197479 -0.27332735 0.73386365 -0.040666588
-0.07143243 -0.35717362 0.13704632 -0.020360844 -0.47266138 0.51614255 0.0030380625 -0.053262282
-0.39436674 -0.23673013 -0.18699528 -0.0024943536 -0.44278938 -0.21804246

edge_embedding_layer_p.edge_feature_NN.weight f4 [32, 32]
00000000: e16d 5a3f bfbe aebe 60b1 613f 827b a63e
00000010: 2539 9cbd bfa9 fdbe 5429 4abf 1dbc ee3d
00000020: 9d3e 05bf 4b5f 7d3f 8066 d73d b21c 35bf
00000030: bb00 33be 62f9 2bbe b6bd d0be b144 f63e
00000040: 6c54 eabd a201 dc3e 639f 32be 1901 2dbe
00000050: 383d 703e 668c 9dbe 91ee 9bbc 254f 373e
00000060: 61f7 06bd cbc2 01bf 016b 12be 9714 59bf
00000070: 2f09 1e3f bc1d a8be 27ae 883e 2a76 82bf
00000080: f257 9e3d 3d16 28c0 2188 f13e f514 94bf
00000090: 8414 f23e 6d97 f53e 606b 77be ef05 b4bd
000000a0: 9e8c 07c0 e0ab 14bf 777c 29be cbb3 11bf
000000b0: 74db a2be b51c 1a3f 3cb9 483f c0aa f83d
000000c0: 682c c0bf 47a2 813f 812b 9cbf fe1d a63e
000000d0: 4c00 c6bf 9ef6 d33e f217 06bf 9d91 e7be
000000e0: 4155 4f3f 0bff 493f 410e 753e 1cbd 3e3f
000000f0: 828b ccbe 1842 25be 706f 653e 124a 6dbe
00000100: 697a 69bf 65d8 e5bf ac24 fcbe 47a6 9d3f
00000110: 78b2 44be 19fb 06bf 79fb d0bf fd78 03bd
00000120: 131b 9abd 4336 583e 7647 ab3d 3936 a53e
00000130: 6d3c 96be 2576 e1be 19ea aabe 8f0c 003f
00000140: ea43 9cbe e74b 35bb 6735 6d3e 02c1 963d
00000150: ba50 27bf a072 1d3f cde3 d23e 3071 f7bf
00000160: 1a45 21bf 4f77 cbbe d920 f6bd 4a3b 123e
00000170: 6a4d 373f 7f79 abbe b05b c83e 1022 553e
00000180: 6987 1abf 7e81 6abe 4b81 0abf 40f0 6c3f
00000190: b540 5bbf 9d9d 34bf 655f 19bf 0c6f 37be
000001a0: 07a2 633e 00d7 0dbd cc11 3ebe ebf6 64be
000001b0: 51e9 14bf 5235 753f 90ab da3c 0d2d f3be
000001c0: 5f1b a5bf 59b3 d2be 822b f6be ddff 793f
000001d0: 1498 ba3e 24a2 d03e c557 5ebe 435c 913c
000001e0: 890c f53e 5d5d 913e 0c6b 113f 1ec9 f43d
000001f0: 1c31 963e 3466 153f 2004 02bf 72c8 e7bc
00000200: f8b4 0a3e fb09 e9be fe4f 153f 1d26 e0be
00000210: 03d8 203f 747f 33be f292 02be 60f3 36bf
00000220: e910 eebe 726a 25bf 62c8 283e 1ed3 2c3f
00000230: ff36 ecbe 856a 83be 90ce 00bf 6901 943e
00000240: 5354 e7bd 8685 803f e927 45bf ea39 063e
00000250: ec61 04c0 5bbe d83c 3ea2 27be 0f42 303e
00000260: 71fd 113f 178f 37bf 527e 443e 6bb0 8b3e
00000270: 8b21 943d a4f8 7a3e 4bf4 893e 0fdc f4bd
00000280: 0dd7 1d3e 8e7c 25bf f3b8 adbd cfbd 833f
00000290: 1487 803f bf60 25bd 6646 973e d2fc ca3d
000002a0: 65f3 cfbd 8445 93be 427c acbe 478f c0be
000002b0: 32b9 133f 719d 0b3f 8cae ebbd a1f5 e73e
000002c0: ce7e 1abf 7572 e33e b5eb b8be dfc6 b6be
000002d0: a168 a5bf 7589 b13e eae1 2b3f e609 1bbe
000002e0: 8d42 573c 947f 233f 839b 113e aee1 98be
000002f0: 607a 89bd 6573 b4be ff54 81bd a0b4 a6bb
00000300: 6408 6ebe 02cf 8dbf 9158 2c3d 91a4 b6be
00000310: f7dc 6fbf 0967 8abf 9eed aabf 92ab 213d
00000320: 25e4 70bf bc38 7f3e 17d1 7b3f 1bf4 20bf
00000330: 9415 483f f8be 10bf 2c68 31bf 514a e23e
00000340: eb05 573d 60fe 95bf 9c09 59bf ad40 11be
00000350: e481 80bf 0f71 d0be 8cee 10bf ca16 0bc0
00000360: 3237 0a3e f049 d8bf 5500 8dbe f523 393f
00000370: bc7a 423f a269 2f3d 1ca4 1f3e 3674 ed3e
00000380: b77d 5bbf eb3d 13bf 789a 5d3f dd14 aabf
00000390: 1633 cf3f b33e 28bf 4102 a33e 26f8 a83e
000003a0: 6e65 2b3f feb6 8a3d 6474 c3be 3f94 0bbe
000003b0: c998 a7bd 17cd 5e3e 4fbf b43e 9590 73be
000003c0: 773e d2be 960e 06bf 1e23 1dbd ead8 dfbc
000003d0: 45d3 02bd 904e 6b3e 75b8 803f 9d86 0f3f
000003e0: ecb1 40bf 8bc4 c53e b86a e6be db79 ba3e
000003f0: 5a2a 78bf 3d1a 783d 380b d73e bafb b0bf
0.8532391 -0.34129903 0.8816128 0.32516104 -0.07628087 -0.49543568 -0.7896931 0.116569735
-0.52048665 0.9897353 0.10517597 -0.7074691 -0.17480747 -0.1679435 -0.40769738 0.48099282
-0.114418834 0.42969996 -0.17443614 -0.1689495 0.23460853 -0.30771178 -0.019034656 0.17901285
-0.032950763 -0.50687855 -0.14298631 -0.8479704 0.61732763 -0.32835186 0.26695368 -1.0192311
0.07731618 -2.6263573 0.4717417 -1.1568896 0.47281277 0.4796709 -0.24162054 -0.08790194
-2.1179576 -0.5807476 -0.16551386 -0.5691497 -0.31808054 0.60200053 0.78407645 0.12141943
-1.5013552 1.0127648 -1.2200776 0.32444757 -1.5468841 0.4139909 -0.5238029 -0.45228282
0.8098946 0.7890479 0.23931219 0.7450731 -0.39950186 -0.16138494 0.22405791 -0.23172787
-0.9120241 -1.7956663 -0.49246728 1.2316369 -0.19208705 -0.52726895 -1.6326743 -0.032097805
-0.07524695 0.21114449 0.083632395 0.3226793 -0.29342976 -0.4403545 -0.33381727 0.5001916
-0.30520564 -0.002766365 0.23164903 0.07361032 -0.65357554 0.6150303 0.41189423 -1.9331417
-0.62996066 -0.39739463 -0.12017984 0.1428043 0.716025 -0.33491132 0.39132452 0.20813775
-0.6036287 -0.2290096 -0.54103535 0.9255409 -0.8564561 -0.70553 -0.59911186 -0.17913455
0.22229777 -0.034628868 -0.18561476 -0.22359817 -0.5816851 0.95784485 0.026693135 -0.4749531
-1.2898978 -0.41152456 -0.4808007 0.9765604 0.3644415 0.40748703 -0.21713169 0.01774419
0.47861126 0.28391543 0.56803966 0.119524226 0.29334342 0.58359075 -0.50787544 -0.028293822
0.13545597 -0.45515427 0.58325183 -0.43779078 0.6282961 -0.17529088 -0.12751368 -0.7146511
-0.46497276 -0.6461555 0.1648269 0.6750964 -0.4613571 -0.25667205 -0.5031519 0.28907326
-0.112953804 1.0040748 -0.77014023 0.1310803 -2.0684767 0.026457956 -0.16370484 0.172127
0.57027346 -0.7170271 0.19188812 0.27283034 0.0723296 0.24508911 0.26944193 -0.11956035
0.15414067 -0.6464318 -0.08482542 1.02923 1.0041223 -0.040375467 0.29545897 0.09911503
-0.10153846 -0.28763974 -0.3368855 -0.37609312 0.5770446 0.5453711 -0.115079015 0.45304587
-0.6034974 0.4442326 -0.3611733 -0.35698602 -1.2922555 0.34675184 0.6714159 -0.15140495
0.013138426 0.63866544 0.1421948 -0.2985968 -0.06712794 -0.3524429 -0.0631504 -0.00508745
-0.23245388 -1.1078799 0.04207665 -0.3567243 -0.9369654 -1.0812694 -1.3353765 0.039470263
-0.9409812 0.24923986 0.9836592 -0.62872475 0.78157926 -0.56541395 -0.6929958 0.44197324
0.05249588 -1.1718254 -0.8478029 -0.14184828 -1.003964 -0.40711257 -0.56613994 -2.173266
0.13497618 -1.6897564 -0.27539316 0.7232049 0.7596853 0.04282535 0.15589947 0.46377724
-0.857387 -0.57516354 0.86563826 -1.3287617 1.6187465 -0.6572067 0.31837657 0.33001822
0.66951644 0.06773184 -0.38174736 -0.1363077 -0.08183438 0.21757923 0.35302207 -0.23785622
-0.41063282 -0.52366006 -0.03836357 -0.027325112 -0.031939764 0.22979188 1.0056292 0.5606478
-0.7527149 0.38626513 -0.45003295 0.36421093 -0.96939623 0.060571898 0.42000747 -1.3826821

update_node_embedding_layer_g.0.message_layer.weight f4 [32, 64]
00000000: 9164 aabe 3f06 4c3f 22fb 8bbf 1164 62be
00000010: 6cef 3f3f 41d1 d23b cdc1 90be ffe6 a2bf
00000020: b3d0 6a3d 2485 b43e eecc 3e3e a08c c93d
00000030: 3c55 5c3e 9221 98be 56c6 22be c801 debe
00000040: a136 893e 4329 30bf 252a b3bd 6ad7 0abf
00000050: 888b d43f 12d0 30bf 4644 afbd 0cf5 443e
00000060: 4fb9 d8bc 720c 3e3e 8b40 a23d 75ba 15bc
00000070: fde7 cabd 8750 6f3e fb7d 133e 19c4 7b3e
00000080: 118d 8cbf 889b d0be 8ad0 b53e e8ef c03e
00000090: ff00 4ebe a33c 013f 142c aa3e a74e 64be
000000a0: 1575 ef3e ebf3 95bf 500d 33bf ae89 923d
000000b0: b8ad bf3e 6b6a 063f 25b5 62be 3202 88bd
000000c0: 525e 24bd 3fe2 d8bd ed0f c5be 2eec 713d
000000d0: 457a 9a3d 78fe 37be bfa7 f0be d642 79bc
000000e0: a5de cc3e aa95 103f 67e7 41be 2710 1ebe
000000f0: bf7f ad3e a211 70bf f159 b63e ef8e f4be
00000100: c50b 1cbe 5c94 cf3d a0f6 293f 5153 00be
00000110: 4db9 383f 1f8a afbe 8994 af3e 99e6 2d3f
00000120: 4067 0a3f fa00 8cbf 3a2d 443d 82db 76bf
00000130: ae22 81be 6a05 a6be cdf1 58bf 8bc9 49be
00000140: dabc cabe a801 203e 86d4 4abf 647a 843f
00000150: f866 26bf 9246 543f f9cf d8be 47d9 803e
00000160: 061c 6f3d 82e9 7c3e 7778 813e 36eb 913e
00000170: ab5a 223f f201 3b3f e390 ab3e 8b73 12bf
00000180: 382e 69bf e863 31bf decb 3dbf 9f7a fdbf
00000190: 762e 0abf 495e 0a3f ef97 84be 7ad2 f23d
000001a0: 3f85 15be 7032 ff3e 4793 2cbf 6ebf 37bf
000001b0: 40ec 55be cd5a 9cbe d4db 8bbe 0a43 d736
000001c0: f33b 3abe 81b8 1ac0 5d53 0fbf a573 2bbf
000001d0: a4a7 37bf 72fc 713f 3154 d43e 6e84 97be
000001e0: eabb 3cbf ccf9 30be a30d 4abe 2f52 863e
000001f0: 74e3 4e3f a64a c4be 7d0e 013e c71f 843f
00000200: 3b83 303e 665e 52bf 107b 5fbe 8357 ed3e
00000210: aca0 8fbf 6ba5 8c3e 7821 51bf ff0b 83be
00000220: 8116 a53e d5d1 ccbe 667e 3c3f bde1 a1be
00000230: 9988 dfbe f360 453f bfa4 07bf f819 cdbd
00000240: 9296 87be 0eda 4cbf 953d 14bf 061d 21be
00000250: 35a5 62bd 7caf f3be 7e03 a63e 9826 95be
00000260: 8400 8f3f 14ec 2bbe d884 043f 667d c1bf
00000270: ecdd 3cbe 77d1 983f ca25 0d3f a32b 8c3c
00000280: 10d0 7a3f f1aa dd3d 9c4c a5be 027d d33e
00000290: 5190 0dbf e9d5 8e3f e066 153d 7cc6 acbe
000002a0: 01e6 2fbe a240 d4be f255 babe 6ac2 efbe
000002b0: 7feb fe3e 76db 683b e4b7 d6bc ec42 563f
000002c0: 40a4 5a3f 3883 a9be 6e73 26bf 6e86 9a3e
000002d0: af80 1fbf 1b65 c73e 6806 763e 5d82 273f
000002e0: 3ba4 46bf 4874 cd3d 42e7 e0bd 1f19 083f
000002f0: ddcd 803f 9484 c93e 4d53 52bd cbf8 213f
00000300: 7caa 1c3e 7f9d 263f 95fa 4bbe 8296 3fbf
00000310: bbb8 053e ab13 a2be 697a 1ebe f29d 7c3e
00000320: 1ecf 10be f940 493e 26ec 04bf 3a86 26bf
00000330: 1bbc 37be c1c6 663e 9305 38be 93e7 cabe
00000340: c240 b2bf 3719 113e fb30 0dbf 5665 91bd
00000350: 6360 80bf e565 8bbd 803a 603e 559e ce3e
00000360: f5ca e7be 6563 7b3f 4231 0e3e 8015 14bf
00000370: bbe4 26be 87c6 943e d31e c1bd 3dd6 be3d
00000380: 47b8 22bd 0410 9cbe 6d19 8f3e 6bdb dcbd
00000390: 6d52 1fbf de24 f93e 84c6 17bf 2156 b3be
000003a0: 1bcd 9dbe da10 1ebd 4d7a 26bf 51ab 1e3f
000003b0: 96bf 0ebe 7490 42bf 4876 2d3d 1cbf babe
000003c0: 833f 99be 045c d83e 577a 3a3f 066c b0bd
000003d0: 5d70 5fbf 4057 15bc 75c3 d7be 60e4 943e
000003e0: fd31 77bf c435 09bf d18d 1a3f ffdb 41bd
000003f0: 9778 ad3e 4ad8 e03e 58ab b9bc e39b e6be
-0.3327985 0.7969703 -1.0936015 -0.22108485 0.74974704 0.0064336364 -0.28272858 -1.2726744
0.057327937 0.35257828 0.18632862 0.09841275 0.2151689 -0.29713112 -0.15895972 -0.43360734
0.2679949 -0.6881296 -0.08748273 -0.54234946 1.6605082 -0.6906749 -0.08557944 0.19234103
-0.02645555 0.18559435 0.07922467 -0.009138693 -0.099075295 0.23370562 0.14403526 0.24586524
-1.098055 -0.4074366 0.35510665 0.37683034 -0.20117567 0.5048315 0.33236754 -0.22295628
0.46769014 -1.1715063 -0.6994219 0.071551666 0.37437224 0.5250613 -0.22139414 -0.06641044
-0.040129013 -0.10590028 -0.38488713 0.05906313 0.07542852 -0.17968166 -0.4700298 -0.015213689
0.40013614 0.5647837 -0.18935929 -0.15435849 0.33886525 -0.93776906 0.35615495 -0.477653
-0.15238865 0.10135719 0.66391945 -0.12531783 0.72157747 -0.34285066 0.3429301 0.6792999
0.54063797 -1.0937798 0.047894694 -0.9642869 -0.2522177 -0.32426006 -0.8474396 -0.19705789
-0.39597207 0.15625632 -0.79230535 1.0349851 -0.6500087 0.8292018 -0.4234617 0.2516577
0.058376335 0.24698451 0.2528722 0.28499764 0.634196 0.73049843 0.33508977 -0.57207555
-0.9108615 -0.6929307 -0.741392 -1.9803046 -0.53977144 0.5405012 -0.25897166 0.118565515
-0.1460161 0.49843168 -0.6741223 -0.71776474 -0.20890903 -0.30538025 -0.27316153 6.4153037e-06
-0.18186931 -2.4175112 -0.5598658 -0.66973335 -0.71740174 0.94525826 0.41470483 -0.29593223
-0.73724234 -0.1728279 -0.19731764 0.26234576 0.80815816 -0.38338202 0.12603183 1.0322198
0.1723756 -0.8217529 -0.21824288 0.4635583 -1.1220908 0.27469954 -0.81691694 -0.2559509
0.32243732 -0.4000384 0.7363037 -0.31617537 -0.43658903 0.7710106 -0.5298576 -0.10014719
-0.26482064 -0.80020225 -0.57906467 -0.15733728 -0.055333335 -0.4759482 0.3242454 -0.29131007
1.1172032 -0.16789275 0.51765203 -1.5116394 -0.18444031 1.1938924 0.55135787 0.017110651
0.9797373 0.1082362 -0.3228501 0.4130631 -0.55298334 1.115903 0.036475062 -0.33745182
-0.17177583 -0.4145556 -0.36393696 -0.46828014 0.49789044 0.00355312 -0.026210733 0.83695865
0.85406876 -0.33107924 -0.6501988 0.30180687 -0.6230573 0.38944325 0.24025881 0.65433294
-0.77594346 0.100319445 -0.10981609 0.5316333 1.0062824 0.39358962 -0.051348973 0.6327025
0.1529941 0.6508407 -0.19919808 -0.7483903 0.1305875 -0.3165563 -0.15476383 0.24669626
-0.14141509 0.19653691 -0.51922834 -0.65048563 -0.1794285 0.22536756 -0.17970876 -0.39629802
-1.3926013 0.14169775 -0.55152863 -0.070994064 -1.0029415 -0.06806544 0.21897316 0.40355173
-0.4527203 0.9819854 0.13885978 -0.57845306 -0.16298191 0.29057714 -0.094297074 0.093182065
-0.03972652 -0.3048097 0.27949086 -0.10784038 -0.62235147 0.4866094 -0.59287286 -0.3502665
-0.30820546 -0.03859029 -0.65030366 0.6198016 -0.13940272 -0.7600167 0.04234913 -0.3647393
-0.29931268 0.42257702 0.72842926 -0.08614354 -0.8728083 -0.00911504 -0.4214131 0.29080486
-0.9656065 -0.53597665 0.60372645 -0.047328945 0.33881065 0.43915015 -0.02266471 -0.45040807

update_node_embedding_layer_g.0.update_layer.weight f4 [32, 64]
00000000: 66a9 54bf 0d8b 933e 020a 443e d92c 093d
00000010: 4469 383a 048e 07bf 87de 2dbf 4b0c cdbe
00000020: c70a b8be 9dc8 2e3f fb98 ce3e ae32 1fbf
00000030: bde4 4f3d 03b6 6fbf 4602 d7be 691f 773e
00000040: 3a13 0c3e f051 21bf 8c78 353f f4ac fdbe
00000050: 2445 1abf c253 c13e a458 d63d 9d92 043f
00000060: 47d0 653e 8936 13bf 877a 4d3c d0d8 20be
00000070: d26c 5d3d ac48 0c3f c268 edbc 9ee8 87bd
00000080: 9371 c13e 1533 85be e617 c7be 6940 f4be
00000090: 776a 083f ff1f b1be 735c 0d3f 98e8 3cbe
000000a0: 40b8 f7be f1d2 44bf bbcb fbbe d63b 673e
000000b0: 1c04 ee3d d54d dd3e 0245 21bf af38 c0be
000000c0: 5931 b43e 3a08 85be d35c 2fbf b9fb bbbe
000000d0: 5ecf ab3e d52f 14bf 465c 93bf 13c2 66bf
000000e0: 22e2 da3e 43ce 7f3e da9e fd3d 632e 393e
000000f0: 3871 753e af78 843e bbc1 353f 8944 a63e
00000100: 8a16 b03e 5783 fcbd 428f 3cbf 56ee 3cbf
00000110: 103e 213f d8bc 093f 4f9c 70bd 3e74 bd3e
00000120: 73cd 9d3e f317 7ebe acb3 fdbd 2c23 b43e
00000130: cd09 28bf 6099 6cbd 14ad 573e 3073 77be
00000140: a62a d73d 2e28 fa3d 82a4 2c3d 3349 80bf
00000150: 84e3 f7be 6b11 303c 1e40 64bc 6f4f 193f
00000160: c128 7fbe bf2c ee3d da84 1fbf bf18 babc
00000170: 60b2 b0be b35e 55bf 5b18 7b3e 5a30 0a3e
00000180: b444 033e 513b 74bb 50d6 483e 1262 b73e
00000190: d707 c53e 57a2 acbe b5a7 2f3f c6a9 173f
000001a0: 833e fbbd d179 113e 7dc0 0c3d 898c 83bd
000001b0: 59bc 223e 21e5 31be e43a 71be e74b e3bb
000001c0: 7ac9 263f 96b3 09bf 3666 373e ecbd cf3e
000001d0: 466a 2e3f cae8 13bf 3068 47bf 02c0 d5be
000001e0: 62c8 6c3f f527 8b3e b9ec 6abe 9745 26bf
000001f0: f550 8c3e f810 953e cdb2 003e b47b 65be
00000200: 67a6 a83f 9227 c63d 2daf 103e aac0 14bf
00000210: 6486 6cbc df09 03bf 31a8 223f 3aa7 03bf
00000220: 4fd7 5fbe 3d12 e2bd 1852 403f 5864 1e3e
00000230: 5d4d f3be 8c72 d83e 3f61 2dbf 1b17 ea3e
00000240: 2c22 5dbe 3096 61ba 12b6 e0be be6a 07be
00000250: cab5 373e ccee f1bd 4eff 55bf 62d3 1abf
00000260: a831 dabe 4642 853e d895 c83e 5329 98be
00000270: d4e8 9dbe d935 1d3e e41a 6ebf cc42 97be
00000280: 3626 c3be b14d 02bf 92df 19bf 58e8 1f3f
00000290: e193 463f 9eda 2d3d d11a e2be ac06 a7bd
000002a0: 8d20 d7be b237 8bbe 281e 9cbd 9cf0 4dbf
000002b0: 53a2 1a3f 646a 5a39 3d08 3d3f ae9c 913e
000002c0: 62ce 0a3f 7da5 1dbf fd26 203f f3c4 f53f
000002d0: f481 e43d ff47 09bf ce41 69bf 9a76 c73e
000002e0: fd97 11be 9fcb a53e a77c f6be 31aa 5cbe
000002f0: d132 24bf a316 9c3e db51 a4be c513 19bf
00000300: 643f 95bf 6355 42be 690a 883f 0333 adbe
00000310: fa78 2e3f 86ee f03e 0182 42be b36b 703f
00000320: c41b 843f 22a1 48bf 9fc5 d1bc acdd 6a3e
00000330: e3e8 fe3d cc4c 9cbe 858c a43d 7d0c 8a3f
00000340: 9cbb 27bf 39e8 813c 3711 10be bbe2 26bf
00000350: 9d08 333e e703 6fbf 3ede f5be 8ff4 643e
00000360: 6aa6 97bf 923f c3be 416c f73e 8f8f 86bf
00000370: ba05 3dbf 68c1 b53e 030f 8e3f 1c91 4bbd
00000380: 0b81 cc3d 04f9 d23e 4495 9c3f 2c4b 2f3f
00000390: 031b b0bd 2720 893e d652 08bb c4cd 99be
000003a0: 8755 cb3e 5f37 00bf c042 9cbe 4096 943e
000003b0: c781 113f 0aae 94bc d20a b6be f9cc bfbe
000003c0: 7633 0dbf ff92 10bf a56f 0e3f cd84 acbe
000003d0: 40eb 0fbc 2dfe 073e 6ebe a2be ad20 5cbf
000003e0: 6893 02be a52a 0f3f 872b e03e 69bb e7bc
000003f0: 4ff9 33bf 8e9f c13d 6a99 75bf ec9b 1abf
-0.8307098 0.28817025 0.19144443 0.033490036 0.0007034729 -0.52951074 -0.67917675 -0.4004844
-0.35945722 0.6827486 0.4035109 -0.62186706 0.05075525 -0.936371 -0.41993922 0.24133076
0.1367921 -0.6301565 0.70887065 -0.49546015 -0.6026175 0.37759215 0.104661256 0.51786214
0.22442733 -0.5750509 0.01254142 -0.15707707 0.054058857 0.5479839 -0.028980616 -0.06636165
0.37781963 -0.26015535 -0.3888542 -0.4770539 0.5328745 -0.34594724 0.5521919 -0.18448102
-0.4838276 -0.7688437 -0.49178872 0.2258142 0.116218776 0.43223444 -0.6299592 -0.37543246
0.351939 -0.2598284 -0.68501014 -0.36715487 0.33556646 -0.57885486 -1.1512535 -0.90139884
0.4275065 0.24981026 0.12383814 0.18084101 0.23968971 0.25873324 0.70998734 0.32474163
0.34392196 -0.123297386 -0.73656094 -0.7380117 0.62985325 0.5380378 -0.058742817 0.37002748
0.30820808 -0.24813823 -0.12387785 0.35183084 -0.65639955 -0.057763457 0.21062118 -0.24165034
0.105061814 0.12214695 0.042149074 -1.0022339 -0.48415768 0.01074634 -0.013931302 0.5988683
-0.2491789 0.116296284 -0.6231209 -0.022716878 -0.3451109 -0.83347625 0.2452101 0.13495007
0.12819177 -0.00372668 0.19613004 0.3581701 0.38482544 -0.33717605 0.68615276 0.5924343
-0.122677825 0.14206626 0.03436326 -0.06423289 0.15892161 -0.17372562 -0.23557621 -0.0069365385
0.6515118 -0.5378965 0.17910084 0.40574586 0.6813091 -0.5777708 -0.7789335 -0.41748053
0.9249326 0.27178922 -0.22941865 -0.64949936 0.27405515 0.2911451 0.12568207 -0.2241047
1.3175782 0.09675516 0.14129324 -0.5810648 -0.014436338 -0.5118694 0.6353789 -0.5142704
-0.21859477 -0.11038635 0.75125265 0.15467966 -0.4751996 0.42274892 -0.6772651 0.45720753
-0.21595067 -0.00086054485 -0.4388891 -0.13224313 0.17940441 -0.11813125 -0.8359269 -0.60478795
-0.4261601 0.26027125 0.39176822 -0.29719028 -0.30841696 0.15352573 -0.9300978 -0.2954315
-0.3811509 -0.508998 -0.60106766 0.62463903 0.77569395 0.042444818 -0.44161084 -0.081555694
-0.42017022 -0.2719093 -0.07622939 -0.80445266 0.6040394 0.00020829734 0.73840696 0.2843985
0.54221165 -0.6158064 0.6255949 1.9200729 0.11157599 -0.5362548 -0.91116035 0.38957673
-0.14218135 0.32381913 -0.48141977 -0.21549298 -0.6414004 0.3048602 -0.320937 -0.5979579
-1.165997 -0.18977885 1.0628177 -0.3382798 0.68153346 0.4705698 -0.18994905 0.93914336
1.0320973 -0.7837087 -0.025606928 0.22936124 0.12446763 -0.3052734 0.080346145 1.0785061
-0.65520644 0.015857803 -0.14069067 -0.65189713 0.17483754 -0.9336533 -0.4802112 0.22358917
-1.184766 -0.38134438 0.4832478 -1.0512561 -0.73836863 0.3549912 1.1098331 -0.049698934
0.099855505 0.4120561 1.2233052 0.6847408 -0.08598902 0.26782343 -0.0020801327 -0.300398
0.3971369 -0.5008449 -0.30519676 0.29020882 0.5683865 -0.018149395 -0.3555513 -0.3746107
-0.5515665 -0.564743 0.55639106 -0.3369507 -0.008784115 0.13280554 -0.3178591 -0.8598736
-0.12751544 0.55924445 0.4378321 -0.028287606 -0.7030229 0.09454261 -0.95937216 -0.6039417

update_node_embedding_layer_g.1.message_layer.weight f4 [32, 64]
00000000: a3bf adbf c1b7 1c3c 6aa2 b8bd a33a c3be
00000010: cc62 0fbf 3869 093d ab9c b0be 2c72 993f
00000020: 776a 0a3f 8620 71bf 0f84 edbe 2b0a 173e
00000030: 3d2a 8fbf f11c 48be 58af 0bbf ec67 f0be
00000040: b3c0 d1be e30b 803e d9ab 0a3f 2546 863e
00000050: 26fd 58bf e3ab 62bf 46a5 e73e 1efd 053e
00000060: ce2b 783f 3b65 b8bf d31d 5c3e cc6c 98be
00000070: 6917 3a3e 6411 ccbe 6e8d 063f 1411 35bc
00000080: 4fd2 c0be f72d b23e 30bc 3cbf 44a1 2dbf
00000090: 0dca f73e 9317 3bbf 2a37 353e 7b45 13bf
000000a0: 0e3e 07be 4166 d0bd 4118 31bf f6cf 323e
000000b0: c43a d43e 9436 973d df01 3b3e 5385 533d
000000c0: 7633 26bf ecec d93d e5d1 fd3e a741 a4be
000000d0: fca7 dabe 7c09 8bbf 3fc2 10bf 92de 00bf
000000e0: 1a76 13bc 90f8 893e 180f 73bf 69d5 36bf
000000f0: cda7 36bf e265 f53e e8cd e93e a99f 4abf
00000100: 8d48 023f 512a 0a3e 1f32 073e e76c 473f
00000110: 5e32 71bf ea3c 853e 013b 133f 32ee 283d
00000120: eea0 febe 3992 16bf a3e4 cc3d 7734 e0be
00000130: 2444 2cbf c348 8abe 6b94 11bf 1b6a cabf
00000140: eca8 963f f603 18be ab1c 713f 1d01 713d
00000150: cf33 9b3e cfc3 913e 8b3c 40bf 25b1 d7bd
00000160: 7f6f 143e 8d7f 98bf 0bc7 a8be ee82 7b3f
00000170: 62ee 61be cf98 bcbe 114c 19bf 36a4 88bd
00000180: b1d7 6b3d 08f3 4d3f 9468 0a3f a10e a3bf
00000190: 70c2 b8be e7bc b5be 6aad 29bd 8737 adbe
000001a0: 6f44 debe 7045 fdbe 7bf4 b1bc 8d46 3f3f
000001b0: 01e2 953e 1e88 11bf 1fd0 963d e58f 23bf
000001c0: fec1 8ebf eaef 0bbf 4813 18be e755 14bf
000001d0: 2c6a cf3e acbc bdbe 5a8f 9abe 59b3 ca3d
000001e0: 1b0f 54bd 2190 aabf 3db3 92bf 1dfb ee3e
000001f0: ad96 c5be 2191 a33e 30ed 02bf a57d 47bf
00000200: f9ad aabf 6689 5dc0 877b e7bd f903 71bf
00000210: 6027 09bf 76d7 363e b30c 75be f4b7 31bf
00000220: 5432 8c3f a11e 063f 443c 0fbf 1998 5c3f
00000230: 4841 a1bf 67d3 b63e fc36 f0bd 4525 63bf
00000240: 40b1 5bbe 4289 db3e 0125 0ebf 03c2 dd3d
00000250: 8cd3 8dbf 8f8d 063e bace ccbd fbfc 01c0
00000260: 3646 a93e 9857 263d a3a5 483f dc91 033e
00000270: e455 eb3e a836 a9bd 9b6e dabe d49c fe3e
00000280: 6245 0c3f 57a0 693f fa9d d53e 487a a1be
00000290: 46a0 8abf 361d e7be ba18 5fbf 1ab2 1a3e
000002a0: b43e 8c3c 93af ee3e adae b53d 77b5 b6be
000002b0: d313 74bf b9bc 823e 825f 023e 32db 1cbe
000002c0: 6198 c7be f4cd a6bf 0a8f 8cbe 5b21 f1be
000002d0: a548 9a3e 9f6e 92be 23cc 24bf a755 b43e
000002e0: 8dc2 163f dbcf 623e 3608 3b3f 2b86 613e
000002f0: 88c8 933e b804 703e cb5c 513e eabc 4cbf
00000300: be4a 4f3e 47fe 343f 5065 7e3e 4776 98bf
00000310: d82c a23e d3e4 babe f0fd 96bf 7791 93bc
00000320: ee63 183d 06b7 d0bd 8210 2abd fcc4 bfbf
00000330: adb3 c53e cc7a 9ebe 9110 eabb a47e d93e
00000340: cab5 a33f 385b b0bf a514 1c3f d92d fd3e
00000350: 7709 543f 107e 133f 0769 c2be 3d80 87be
00000360: 99e0 76be d21d 933d 6e6b d7bd 987d 943f
00000370: c0d5 04be 0821 623e 4622 f4bf 5afe f8be
00000380: e1fb bfbf e24d bbbf 412f 35be e5cf cf3c
00000390: 4e28 36bf a858 40bf 56e8 083f 3d79 c03e
000003a0: 1895 873c 5d75 32bf 23a4 09bf fb20 013f
000003b0: 2a42 34bf d495 18bf 6422 75be 69fa 57bf
000003c0: 40f5 4abf 8a91 b93e bb5b 05bf 6752 57bf
000003d0: bd11 d0bd 719f ddbe 6957 8dbe 48bf 703e
000003e0: 0d62 51be 1719 db3e 4959 07bf eee2 9c3e
000003f0: 875b 413e 74d9 19bf abc4 68bd 5f18 10bf
-1.3574108 0.009565295 -0.09015353 -0.38130674 -0.5601013 0.03354761 -0.34494528 1.1987967
0.540687 -0.9419025 -0.46389815 0.14749973 -1.1184765 -0.1954229 -0.5456443 -0.46954286
-0.4096733 0.2500907 0.5416847 0.2622539 -0.84761274 -0.8854353 0.4524328 0.13084838
0.9694184 -1.4405893 0.21495752 -0.29770505 0.18172993 -0.39857018 0.52559555 -0.011051435
-0.37660453 0.34800693 -0.7372465 -0.67824197 0.4839634 -0.73082846 0.17696825 -0.57527894
-0.13207266 -0.101757534 -0.69177634 0.17462143 0.41451085 0.07383457 0.18262433 0.05164082
-0.64922273 0.106408924 0.495742 -0.3208134 -0.42706287 -1.0862269 -0.56546396 -0.50339615
-0.009000326 0.2694745 -0.94944906 -0.7141939 -0.71349794 0.47929293 0.45664907 -0.7914987
0.50891954 0.13492705 0.13202713 0.77900547 -0.9421748 0.26023036 0.5751191 0.041242786
-0.49732155 -0.5881687 0.100045465 -0.43790027 -0.67291474 -0.27008638 -0.5686709 -1.5813631
1.1770301 -0.14845261 0.9418437 0.058838952 0.30312964 0.28469703 -0.7509238 -0.105318345
0.14495657 -1.1913925 -0.32964358 0.9824666 -0.22063592 -0.36835334 -0.59881693 -0.06671946
0.057578746 0.8044896 0.54065824 -1.2738839 -0.36085844 -0.35495684 -0.041425146 -0.33831427
-0.43411586 -0.4946704 -0.021723023 0.74717027 0.2927399 -0.56848323 0.07363915 -0.6389144
-1.1152952 -0.54662955 -0.14851105 -0.57943577 0.4051069 -0.37058008 -0.30187494 0.09897489
-0.05177222 -1.3325235 -1.1460949 0.4667596 -0.3859152 0.31946662 -0.5114317 -0.77926093
-1.3334342 -3.4615111 -0.11302858 -0.94146687 -0.53575706 0.1785563 -0.23930626 -0.69421315
1.0952859 0.52390486 -0.55951333 0.8616958 -1.2598047 0.35708162 -0.117292374 -0.88728744
-0.21454334 0.42878157 -0.55525213 0.108280204 -1.1080184 0.13139938 -0.100003675 -2.0310657
0.3306138 0.04061088 0.7837774 0.1284861 0.45963967 -0.08262378 -0.4266251 0.49729025
0.5479337 0.91260284 0.4172209 -0.31538606 -1.0830162 -0.45139474 -0.87147105 0.15107003
0.017119743 0.46618327 0.088712074 -0.35685322 -0.9534275 0.2553461 0.12731746 -0.15317991
-0.38983443 -1.3031602 -0.2745288 -0.4709576 0.30133548 -0.28600022 -0.6437399 0.35221598
0.5889061 0.22149603 0.73059404 0.22023837 0.2886393 0.234393 0.20445554 -0.7997576
0.20243356 0.70700496 0.24843335 -1.1911095 0.31674838 -0.36502704 -1.1796246 -0.018013699
0.037204675 -0.10191159 -0.04151965 -1.498199 0.38613644 -0.30953062 -0.007143088 0.42479432
1.2789853 -1.3777838 0.60969 0.4944904 0.8282694 0.5761423 -0.37970755 -0.26465026
-0.24109115 0.07183422 -0.105185375 1.1600828 -0.12972164 0.22082913 -1.907296 -0.48631555
-1.4998742 -1.4633143 -0.17693807 0.025367687 -0.7115525 -0.7513528 0.53479517 0.37592497
0.016550586 -0.6971033 -0.5376608 0.5044095 -0.7041346 -0.5960362 -0.239389 -0.8436647
-0.7928047 0.3624385 -0.52093095 -0.8411011 -0.10159633 -0.43285707 -0.2760575 0.23510468
-0.2044756 0.4279258 -0.52870613 0.30641884 0.18882571 -0.6009743 -0.056828182 -0.5628719

update_node_embedding_layer_g.1.update_layer.weight f4 [32, 64]
00000000: cc1f b63e 4933 53bf 337b babd 3ff4 9bbf
00000010: 82f7 2d3f 3d9c 8c3f cc1e 343f 3fd7 cbbd
00000020: dcc4 9d3e f4d0 60bf a702 c3be 81dc 77bf
00000030: db51 d8be 0b27 543f 37cf 69be 8e1d 993e
00000040: 3e05 523e 85a5 7b3b 7a9e d5bd cc07 d5be
00000050: b94f 42be 8e61 d33b 157d 3abe 984c 5d3f
00000060: cdfe 3abe 532f 28bf 051f 773e aa07 86bd
00000070: 1a1a a1bd bb75 debd 5fef 1b3f 083f d5bd
00000080: 0ab0 683e 5e73 f2be 5615 393f b103 e03e
00000090: 5605 093e c90a 2cbd 1197 523f 1d9f b73d
000000a0: 548d 84be a444 88be a6de 80be 4557 823f
000000b0: d3d0 183f be4b 9ebf 858c 1e3f 9bef ebbe
000000c0: 976e c23f 7eda 913e c7b5 1ebf 5184 eebe
000000d0: 7028 ed3c fa5c 923e f5e4 1abf c435 fd3e
000000e0: c24c 70be b3d7 453e bac5 45bf 20c7 de3c
000000f0: b15d 7a3f c363 fc3d 4586 68bf 2ed4 993e
00000100: 2d1f 753e bb8f 2c3f 775c 3cbd 04dd e2be
00000110: 2a60 65bd 34e1 443f 9040 e2bc 7dd2 31bc
00000120: b40e bb3f 31b6 6fbf defd acbe 594d 243f
00000130: f107 78be a4ba 87bf ba87 40bf 9686 f7be
00000140: 5d23 053e 9659 e23e ef10 5fbd 7c86 8cbd
00000150: 26fa debe 7dcc b03e 66bd 40bf c54f dfbd
00000160: e2b7 a4be 854d e93e 0477 233f c98d 5bbf
00000170: 62ad 053f 4428 81bd 68d6 8c3f 6b1a babe
00000180: 43c4 4d3f 69fa 4b3d 44bc 81be fd22 edbe
00000190: f93e 4a3e 17e4 07be 3df0 9abe 53a4 343f
000001a0: 2ed8 13bf 4b99 073f a355 85be 69d1 61be
000001b0: 336e 1ebf 0641 4b3f 50ba ad3f bd3c 48bf
000001c0: 4f74 a6bd 3d97 b5bf 8b03 91be 18ea 5fbf
000001d0: 77e5 283f 7a06 86bf da46 cfbe 5ae4 3b3f
000001e0: 0532 53be 9753 cf3e 7ee8 003f a02c 613e
000001f0: 9021 3a3e 23b5 0cbf ee31 c5be 1cd5 083e
00000200: 5782 04bf 991a 6cbe 4f05 ab3e 6442 51bf
00000210: 7c5b c1be dc7d 2ebf 2e86 4c3f 8d33 4f3d
00000220: 820e cd3d e67d fe3e a796 2abf e862 883e
00000230: 4de5 43bf b491 0fbf 44bd b1be 255d 8dbe
00000240: 6966 813e 02b1 573f 6574 1f3e 1cc2 ffbd
00000250: 14b7 ad3d cfa5 5abe 36da 22bf 16ad 04bf
00000260: fed5 0fbe 26c4 0fbf 8a97 cdbd c986 87be
00000270: 1c03 90bf a4a0 aabe 3f91 9abc 04cd 8e3e
00000280: bb96 2dbe cef3 5d3e 24b3 e23e cf32 d83e
00000290: eec8 e93b a35d 20be f81b 35bf 353e 1ebe
000002a0: 797a 0ebf 4824 53bf b4fd 02be b842 aabd
000002b0: 8028 92be 495b c5be 44be 403e 6b46 03bf
000002c0: bb17 d23f b6c2 ad3e 0205 493f 6bf7 8b3e
000002d0: 21f2 dcbe c113 453f fd18 c3bd 1016 a7bf
000002e0: f266 07bf c7c6 76bf 960b 44be f5a8 2e3c
000002f0: b64b 15be d367 d03e 8929 35be dea9 1f3e
00000300: a416 13bf ec64 143f 7271 973d 61a7 d4bd
00000310: 87fb c7be 7c4e 25bf 7cf2 53bd f973 5c3f
00000320: 1e69 8bbe de38 d6be 63b1 833d 611c f53d
00000330: aacd 303f 56e7 99be a444 1fbe 976b 363f
00000340: 3f96 00bf 80e9 3fbf 2b88 bebe 3b80 b6be
00000350: ba12 d0bd 85cf 44bf eb68 86bf ce0b e0be
00000360: bbe8 5d3f bb46 253d 5419 763e 2a95 b8bc
00000370: a951 4ebf 1aa6 dbbe 906f 11be 2b77 35be
00000380: 3981 86bd 7f05 5fbd a07a 823e 65cb 243f
00000390: 72eb 993e fb24 81be 716d da3e b156 f33d
000003a0: 0d12 103e 49fc ed3e 7b7e 21bf 2d62 51bf
000003b0: 155a 923e fbee 4c3c d1b8 ccbb e64f ec3e
000003c0: 5140 6d3e d858 513f f926 9d3e 8771 0a3f
000003d0: 615f eb3e 1ba7 4dbf d7e1 133f 7a19 e5bd
000003e0: cde8 acbe 892e 8dbd 3479 6ebd 83bd febe
000003f0: dfbd 3c3d f644 1abf 57a9 1e3f 3801 d7be
0.35571134 -0.8250013 -0.0910553 -1.2183913 0.6795579 1.098518 0.7035949 -0.09953164
0.30814254 -0.8781884 -0.3808796 -0.9682084 -0.4224995 0.82872075 -0.22832952 0.2990536
0.20509812 0.0038398218 -0.10430618 -0.4160751 -0.18975724 0.0064508384 -0.18211778 0.86445
-0.18261261 -0.6569721 0.24132927 -0.065444306 -0.078663066 -0.10862299 0.60912126 -0.10412413
0.22723404 -0.47353643 0.7229818 0.43752816 0.13380942 -0.042002473 0.8226176 0.08965895
-0.25889075 -0.2661487 -0.25169867 1.0182883 0.5969364 -1.2366865 0.61933166 -0.46081242
1.5189999 0.2848701 -0.6199612 -0.46585324 0.028949946 0.2858656 -0.6050561 0.49455082
-0.23466781 0.19320564 -0.7725483 0.02719456 0.9779921 0.123237155 -0.9082988 0.30044693
0.23937674 0.67406815 -0.04598662 -0.44309247 -0.055999912 0.7690613 -0.027618676 -0.010853407
1.4613862 -0.9363738 -0.33787435 0.64180523 -0.2422178 -1.0603833 -0.752071 -0.48344868
0.13001771 0.44208974 -0.05445951 -0.06861588 -0.43550223 0.34531012 -0.75289 -0.10903887
-0.3217154 0.45566955 0.6385348 -0.8576322 0.52217686 -0.06306508 1.1002932 -0.3634828
0.80377597 0.049799357 -0.25338948 -0.46315756 0.19750585 -0.13270603 -0.30261412 0.7056324
-0.5775174 0.5296828 -0.26041898 -0.2205254 -0.618869 0.7939609 1.3572483 -0.7821768
-0.08127653 -1.4186779 -0.28323016 -0.87466574 0.65975136 -1.0470726 -0.40483743 0.7339531
-0.2062455 0.4049346 0.50354755 0.2198968 0.18176866 -0.5496389 -0.38514656 0.13362545
-0.5176138 -0.23057021 0.33402488 -0.8174193 -0.3776511 -0.68160796 0.7989224 0.050586272
0.10012533 0.49705428 -0.6663613 0.2663796 -0.7652176 -0.560817 -0.3471471 -0.27610126
0.25273445 0.8425447 0.15571745 -0.12488195 0.08482185 -0.21352313 -0.63614213 -0.5182661
-0.14046475 -0.56158674 -0.100386694 -0.2647002 -1.1250949 -0.33325684 -0.018868087 0.2789079
-0.1695203 0.21675035 0.44277298 0.42226264 0.0071345484 -0.1566072 -0.707458 -0.15453418
-0.5565563 -0.82477236 -0.12792093 -0.08313507 -0.28546524 -0.38546208 0.1882258 -0.51279324
1.6413492 0.33937615 0.78523266 0.27337202 -0.4315348 0.7698327 -0.095262505 -1.3053608
-0.5289146 -0.9639706 -0.19145045 0.0106604 -0.14579663 0.40704212 -0.17691626 0.15592143
-0.5745642 0.57966495 0.07394685 -0.103834875 -0.39059088 -0.6457288 -0.051744923 0.8611446
-0.27228636 -0.4184026 0.06430318 0.119683035 0.6906382 -0.30059308 -0.15553528 0.7125792
-0.5022926 -0.7496567 -0.37213263 -0.35644707 -0.10159822 -0.7687915 -1.0500768 -0.43759006
0.86683244 0.040350657 0.240331 -0.022532064 -0.80593354 -0.42900163 -0.14202714 -0.1772124
-0.06567616 -0.0544486 0.2548418 0.64372855 0.30062443 -0.25223526 0.42661622 0.118817694
0.14069386 0.4648154 -0.6308362 -0.8179043 0.28584352 0.012508149 -0.006247618 0.46154708
0.23169066 0.8177619 0.30693796 0.5407948 0.45971206 -0.8033311 0.5776648 -0.111865
-0.33771363 -0.068936415 -0.058221057 -0.4975396 0.046079513 -0.60261476 0.6197714 -0.41993117

update_node_embedding_layer_p.0.message_layer.weight f4 [32, 64]
00000000: 996d 6fbe 4347 0dbf f0d5 75be 2b68 a83f
00000010: 3797 333e bfcf 453f 6d02 16bf ebab 723f
00000020: efd2 a3be 804d 053f d73e 003e 1047 683e
00000030: 1072 b6be 0609 993e 28fe 793d 2ba3 efbd
00000040: 19d2 a3bd f00e e5bd 9981 64be 48ce aabd
00000050: b36c debe 5fac 93be 84e6 abbe 0521 28bd
00000060: f0a6 99be dc4c 0ebf a8aa 6f3f 90ae f0bd
00000070: e78b c93e 082a 5d3d c97f e0bc 5725 843f
00000080: 9f55 8c3f f067 033f f67e 4fbd f6e8 cdbe
00000090: 9db7 f03e 7092 29be c5cc e33e b08a f03e
000000a0: 7de2 1d3f f23b 473f 0f19 e0be ba55 b13d
000000b0: a3e8 603e 7fd8 7ebe b23f e8be cef6 31bf
000000c0: 9eab 00c0 0631 61be 966e 513e 8b82 5cbf
000000d0: cbb4 b3bf a917 0cbe e4f3 8ebe f420 a43f
000000e0: 0f18 18bf 29f0 613d 1b1e e8be a7cf 05bf
000000f0: 28d4 2bbe 0a65 ce3f 6fc0 59bf cf90 2b3f
00000100: f5cf dfbe 31d1 5dbf 9403 723f afdb 123f
00000110: 548a 44bd b7b8 c63e 32e2 d33e d219 ccbd
00000120: 1c2b c0bd 91a5 d93e 99e9 18be 1917 8bbd
00000130: 239e 09bf 4ba6 23be 6c8f 8d3d 89bc 943c
00000140: c42b 3abf 8304 17bf 99e6 3abd 1935 aabd
00000150: eafb 1abf 7418 53bc cd33 c33e c83a 8abe
00000160: c8ec f3bf 826e a43d cc3a cf3e 8a28 15bf
00000170: be1b a4be a0bf a1be 36bd 30bf 343c a93e
00000180: 2e33 593e 6659 913d 8e79 1ebf 9000 3ebd
00000190: 14cd 803f f49a 2d3f a5b2 56bf 4d96 5d3e
000001a0: 2115 63be 35fb bebe a16b a33f 9929 22bf
000001b0: b559 133e 77e0 8cbe 3e3c 2cbf 7fa1 68bf
000001c0: 5c75 5e3e 657f dfbd b7a2 ec3e 0475 73bf
000001d0: 888d cd3e 26ae 3b3e 3af3 30bc f8f5 95bf
000001e0: 41ef 1ebf dda3 6b3e 01f2 63bf c7c6 87be
000001f0: 4ce4 d6be 40f7 ddbf ac61 a73e 054e f13e
00000200: 80ff 573e 1a51 1bbf 02f1 12bf 38f2 aebe
00000210: d437 81bf 6d8d 293f 6c38 7b3c d4ae 41bf
00000220: 5359 51bf 6a0b 6e3d 3c1b a6bd b01d 64be
00000230: 7d77 eabe 869b b1bd 1273 0bbf 3366 cb3e
00000240: e452 b4bd 4b6f 08bf 8e27 3e3f d72f 94be
00000250: c408 4d3e 5055 b4bd d6d6 0ebf a467 8ebe
00000260: 8efb b3bf 2d76 a8bc e0e9 adbe 8e87 87be
00000270: e7c4 a0bd 6457 c83e cdf4 c03e b0d5 0c3e
00000280: 6590 e93d a962 6b3e 4884 9abe 0c58 95bd
00000290: 5d77 713f e635 033f 92ef 603e 4250 28bf
000002a0: 8b94 b5bf b3e7 cfbe b7a2 ca3f bdab 423f
000002b0: 6ee6 53be 1391 803d 9dc4 38bf 5cea a63f
000002c0: 7a3b b53e b8d6 13be 1a83 053e 1759 1ebe
000002d0: ed0a 15be 30bf e4be be77 27bf b443 74be
000002e0: 0268 71bf c95a 07be 7c7c fc3e 83cc fa3d
000002f0: 30df 1e3e ec48 e3bd f002 dfbd eb41 88bd
00000300: 41d8 b03e 04ae c7be 5e0a 493e 6aa3 4abf
00000310: 1208 cabe e2df 78be aeaf 953e 6100 35be
00000320: e2a3 87bf feb5 b53e dfed 313f 9224 6bbe
00000330: caf2 f33e 5678 6e3d b141 8abe fb6a fd3e
00000340: 5452 2fbf bffd 343f aa00 d3be c395 933d
00000350: 5f5f 60bf 7e5f 433e f310 bebd cfbd 36bf
00000360: 1c52 6dbd a7f6 133e 2edb a9bd 3caa 173f
00000370: af54 78be b51a eb3e 784c 7dbe 34ef 24be
00000380: bd20 603f 2fef ea3d b1f3 c83e f2a6 97bd
00000390: 91db b3bd 081a e23d 5a85 3abe ec1c cebe
000003a0: 676e 543e 660a eb3e 7ac7 b33e 3ff6 2f3d
000003b0: cd58 17bf 3e62 dcbc dd4d ebbd e94e e8be
000003c0: f439 68bd 09e6 4dbe 9925 36bf e232 c3be
000003d0: 0a55 793d 8657 b73d 8ba7 5abd ea8b cf3d
000003e0: 1981 68bd 4374 35bf 51d9 9ebd 8a8e 5c3f
000003f0: c5b8 cabe 6ce4 53ba a3ed 953e 4e82 8cbf
-0.23381652 -0.5518686 -0.24007392 1.315679 0.17538153 0.7727012 -0.5859745 0.94793576
-0.31996867 0.5207138 0.12523971 0.22683358 -0.35633898 0.29889697 0.061033398 -0.11701044
-0.07999057 -0.1118449 -0.22315063 -0.08340126 -0.43442306 -0.28842446 -0.33574307 -0.041047115
-0.30010176 -0.5558603 0.93619776 -0.11752045 0.3936455 0.053995162 -0.027404683 1.0323895
1.096363 0.5133047 -0.05065819 -0.40216798 0.47015086 -0.16559768 0.44492164 0.4698081
0.6167372 0.77825844 -0.43769118 0.08658929 0.21963744 -0.24887274 -0.45361096 -0.6951722
-2.0104747 -0.21991357 0.20452341 -0.8613669 -1.4039549 -0.136809 -0.2792045 1.2822556
-0.5941171 0.055160675 -0.4533547 -0.5226998 -0.1678015 1.6124585 -0.85059255 0.67017835
-0.43713346 -0.86647326 0.9453671 0.5736646 -0.047983482 0.388128 0.4138351 -0.09965862
-0.093832225 0.4250913 -0.1493286 -0.06791515 -0.5375692 -0.15981404 0.06912121 0.018156307
-0.7272303 -0.5899126 -0.04563007 -0.08310909 -0.6054064 -0.012884248 0.38125458 -0.26997972
-1.9056635 0.0802889 0.40474546 -0.5826498 -0.32052416 -0.3159151 -0.6903871 0.33053744
0.2121093 0.070971295 -0.6190423 -0.046387255 1.0062585 0.67814565 -0.8386634 0.21639366
-0.22176029 -0.3730103 1.2767221 -0.63344723 0.1438969 -0.27515003 -0.6727942 -0.90871423
0.21724457 -0.109129705 0.46217892 -0.95100427 0.40147042 0.18328151 -0.010800177 -1.1715689
-0.6208382 0.23011728 -0.89041144 -0.26518843 -0.41971052 -1.734108 0.32691705 0.47129837
0.2109356 -0.60670626 -0.57399 -0.34169173 -1.0095162 0.66231424 0.015333276 -0.7565739
-0.8177692 0.058116354 -0.08110663 -0.2227695 -0.45794287 -0.08672242 -0.5447246 0.3972641
-0.08804873 -0.5329482 0.74279106 -0.2894275 0.20022875 -0.088053346 -0.55796564 -0.27813447
-1.4061143 -0.020564163 -0.33967495 -0.26470608 -0.07850056 0.39129174 0.37686768 0.1375339
0.11404494 0.22986855 -0.30179048 -0.07292184 0.9432276 0.5125412 0.21966389 -0.65747464
-1.4185957 -0.4060646 1.5830907 0.760433 -0.2069337 0.06277671 -0.7217501 1.3040271
0.3539694 -0.14437377 0.13038293 -0.15463673 -0.14554949 -0.44677114 -0.6541709 -0.23853952
-0.9429933 -0.13218226 0.49313724 0.12246039 0.15514827 -0.11097893 -0.10889232 -0.06653198
0.3453999 -0.3899995 0.19632861 -0.791556 -0.39459282 -0.24304155 0.29235595 -0.17675926
-1.0596888 0.35490412 0.6950359 -0.22963169 0.4764617 0.05822023 -0.27003244 0.49495682
-0.68485 0.70699686 -0.41211444 0.07206299 -0.87645525 0.19079396 -0.092805766 -0.71383375
-0.057939634 0.14449559 -0.08293758 0.5924413 -0.24251054 0.45918813 -0.24736202 -0.16106874
0.87549955 0.11471402 0.39248422 -0.07404889 -0.08782113 0.11040121 -0.18214932 -0.4025644
0.2074524 0.4590637 0.35113126 0.042959448 -0.59119874 -0.026902314 -0.114894606 -0.45372704
-0.056695893 -0.20107283 -0.7115112 -0.38124758 0.060872115 0.08952241 -0.053382438 0.10134108
-0.056763742 -0.70880526 -0.077562936 0.86155 -0.39594093 -0.0008083049 0.29282865 -1.0977266
