experiments/GBMLGG_100/train/GBMLGG_100/s2v/network/network16000.pth (torch_old, 87608 bytes, 17 tensors)

node_init_embedding_layer_g.0.weight f4 [32, 2]
0	0xbf41e780	-0.75743866
1	0xbb517271	-0.0031959082
2	0x3f382fb3	0.71947783
3	0xbf7d70be	-0.99000156
4	0xbe00f3b5	-0.12592967
5	0x3ed36629	0.4128888
6	0x3f8754d1	1.0572759
7	0xbc18613f	-0.009300529
8	0xbef13205	-0.47108474
9	0x3ebf911f	0.37415406
10	0x3f04aa8a	0.5182272
11	0xbd41393c	-0.047173724
12	0x3f3659a6	0.7123054
13	0x3d49198a	0.04909662
14	0x3db8aceb	0.090173565
15	0x3f6e3749	0.9305311
16	0xbee03c49	-0.43795994
17	0x3eb31bcc	0.34982145
18	0x3fac1bf2	1.3446028
19	0x3e5e66fd	0.21718974
20	0xbe35cae8	-0.17753184
21	0xbd7775a7	-0.060414936
22	0x3f54de82	0.8315202
23	0xbf8d7166	-1.1050231
24	0x3e82a2bc	0.2551478
25	0xbf143c9c	-0.5790498
26	0xbd993d85	-0.07482437
27	0x3e5b44f3	0.21413021
28	0xbf8734f8	-1.056304
29	0xbdc1068c	-0.09425077
30	0x3e7b4a21	0.24539997
31	0x3ea79499	0.3273056
32	0xbf0c5a82	-0.54825604
33	0x3f298c86	0.66230047
34	0x3e4f437b	0.20240586
35	0x3d3393a1	0.04384196
36	0xbe7638ff	-0.2404518
37	0xbf12a4d8	-0.5728278
38	0xbf439533	-0.76399535
39	0x3ed1fede	0.4101476
40	0x3cb89356	0.022531193
41	0xbefa1931	-0.48847345
42	0xbf136545	-0.575764
43	0xbdabeb08	-0.08394438
44	0xbe499345	-0.19685085
45	0xbd89efa0	-0.06735158
46	0xbf361264	-0.7112181
47	0xbb995cdc	-0.004680259
48	0x3f0d3a28	0.55166864
49	0xbf9f829e	-1.2461736
50	0x3eae4861	0.34039596
51	0x3e3666e2	0.17812684
52	0x3f082353	0.531789
53	0xbddd65af	-0.1081041
54	0xbf9f5395	-1.2447382
55	0x3e1f664d	0.15566368
56	0x3e5a052f	0.2129104
57	0x3dcc2fd9	0.09970064
58	0x3dfd8809	0.12379462
59	0xbcab756a	-0.02093001
60	0x3f228046	0.6347698
61	0x3ebeb086	0.37244052
62	0xbd70f052	-0.058822937
63	0x3cd1c228	0.025605276

node_init_embedding_layer_p.0.weight f4 [32, 1]
0	0xbe711421	-0.23542835
1	0xbe8e39c1	-0.27778438
2	0x3e841cc6	0.25803202
3	0xbed8ed69	-0.4236863
4	0xbd65ae61	-0.056074504
5	0xbd6d5990	-0.05794674
6	0x3de1a6a0	0.11018109
7	0x3f963fbc	1.17382
8	0xbeadbacc	-0.33931577
9	0xbe6dcea3	-0.23223357
10	0xbec6b4d3	-0.38809833
11	0xbe3393c5	-0.17536838
12	0xbedeb478	-0.43497062
13	0x3e04a43a	0.12953272
14	0x3dcd2c33	0.10018196
15	0x3f7a2611	0.97714335
16	0x3e9a2d08	0.3011248
17	0x3efd906c	0.49524248
18	0xbf1020ee	-0.56300247
19	0x3e878488	0.264683
20	0x3e88d669	0.26726082
21	0x3dcc21f7	0.09967416
22	0xbf313a97	-0.69230026
23	0xbd38a921	-0.04508317
24	0x3e4271e6	0.18988761
25	0xbf0dc6d3	-0.55381507
26	0x3f39d2d2	0.7258731
27	0x3f41b3ac	0.7566478
28	0x3f009fe4	0.50243974
29	0xbebc78cc	-0.3681091
30	0x3e4d7b3d	0.20066543
31	0xbd1cf73d	-0.038321722

edge_embedding_layer_g.edge_embedding_NN.weight f4 [31, 1]
0	0xbef20bf0	-0.47274733
1	0x3ec79a45	0.38984886
2	0xbeefcb7b	-0.4683493
3	0xbf274243	-0.6533548
4	0x3eaff4f3	0.3436657
5	0xbed51767	-0.41619417
6	0x3e649f7f	0.22326468
7	0xbbbafdef	-0.005706541
8	0xbf05d67f	-0.5228042
9	0xbe309281	-0.17243387
10	0x3e9da684	0.30791104
11	0x3e823f14	0.2543875
12	0xbf407002	-0.7517091
13	0xbf098fed	-0.5373524
14	0x3ee254b3	0.44205245
15	0xbe9b92ff	-0.30385587
16	0x3ef6599e	0.48115247
17	0xbe55e055	-0.20886357
18	0xbf18982b	-0.5960719
19	0x3e86abcf	0.26302955
20	0xbc197507	-0.00936628
21	0xbee4f6e7	-0.44719622
22	0x3ed59582	0.41715628
23	0xbe0fd77c	-0.14047045
24	0xbe25caae	-0.16190597
25	0xbea40b80	-0.32040024
26	0x3df0f06e	0.11764608
27	0x3f436d2d	0.76338464
28	0xbf0a83be	-0.5410727
29	0xbf2cb16f	-0.6745824
30	0x3eec8fc9	0.4620345

edge_embedding_layer_g.edge_feature_NN.weight f4 [32, 32]
0	0xbe49395d	-0.19650789
1	0x3f4341c1	0.7627221
2	0xbfa45876	-1.2839496
3	0x3f91aff3	1.138182
4	0xbf20610b	-0.62648076
5	0x3ef6fb15	0.48238435
6	0x3d8770d9	0.06613321
7	0x3d102ca4	0.035198823
8	0xbe1be7ef	-0.15225194
9	0xbd4f37a0	-0.050590158
10	0xbf14bddd	-0.5810221
11	0xbeea3206	-0.4574129
12	0x3e7d271a	0.24721947
13	0xbf665072	-0.899665
14	0x3f11f4ba	0.5701405
15	0x3ecee2f4	0.40407526
16	0xbe940f41	-0.28917888
17	0xbe31f3df	-0.17378186
18	0x3e065755	0.13119252
19	0xbf73cee2	-0.95237553
20	0x3f0f30fb	0.55934113
21	0xbf4ab074	-0.79175496
22	0x3b822481	0.0039716368
23	0x3e74adac	0.23894376
24	0x3f07799f	0.52919954
25	0xbf2831ac	-0.65700793
26	0xbea93700	-0.33049774
27	0xbf00d88b	-0.5033042
28	0xbf2e8dd3	-0.68185157
29	0xbdf37263	-0.11887052
30	0xbe62ee2b	-0.22161166
31	0x3e3195b5	0.17342265
32	0x3db1c830	0.08680761
33	0x3dd13c9b	0.10216638
34	0x3e00e6e0	0.12588072
35	0x3d0fb181	0.03508139
36	0x3ddb35c8	0.10703617
37	0xbf75268c	-0.9576194
38	0xbe4cfa29	-0.20017304
39	0x3f161c38	0.5863681
40	0xbcd33792	-0.025783334
41	0x3f02b370	0.5105505
42	0x3f0a1978	0.5394511
43	0x3f443535	0.7664369
44	0xbdd74639	-0.10511441
45	0xbe8e28b9	-0.27765444
46	0xbebeec49	-0.37289646
47	0x3f012d40	0.5045967
48	0xbf710973	-0.94155043
49	0xbf87bd59	-1.0604659
50	0x3c3bf159	0.011471116
51	0xbbdbdaf3	-0.0067094504
52	0x3f2f0034	0.68359685
53	0x3dc02735	0.09382478
54	0xbee31965	-0.44355312
55	0x3d9a51bb	0.0753512
56	0xb8fbe0d7	-0.00012010492
57	0x3e2d0b54	0.16898853
58	0x3ed2d5a4	0.4117862
59	0x3dc21dac	0.09478316
60	0xbda8d625	-0.0824397
61	0xbeb83e50	-0.3598504
62	0xbf6b0a84	-0.9181292
63	0x3e3da980	0.1852169
64	0x3f3fe999	0.74965817
65	0xbf8dcf7a	-1.1078942
66	0xbedca931	-0.43097833
67	0xbe4b03e9	-0.1982571
68	0xbf13f785	-0.5779956
69	0xbe2b8ff2	-0.1675413
70	0x3de326ee	0.110914096
71	0x3eb40f27	0.3516781
72	0x3ec8b448	0.39200044
73	0xbebefa43	-0.3730031
74	0xbf50550a	-0.8137976
75	0x3e4df5b1	0.20113255
76	0x3ed2b8d3	0.41156635
77	0x3f0e5d1e	0.55610836
78	0x3d23e8e0	0.04001701
79	0xbf2555c7	-0.6458401
80	0x3ee63d81	0.449688
81	0xbf1aba62	-0.6044065
82	0xbe80ed14	-0.25180876
83	0x3ec36cee	0.38169044
84	0x3dfb35d6	0.12266128
85	0xbd2d92f4	-0.042376474
86	0xbec18f02	-0.3780442
87	0xbf471a86	-0.77774847
88	0xbf205e44	-0.6264384
89	0xbd84dcf2	-0.064874545
90	0x3ef87265	0.48524776
91	0x3f43fa47	0.7655377
92	0x3e5196d3	0.20467691
93	0xbeb12893	-0.34601268
94	0x3f2ebfc6	0.68261373
95	0xbe2a48fb	-0.16629402
96	0xbcd43d4f	-0.02590814
97	0xbef42338	-0.4768312
98	0xbefa85e8	-0.48930287
99	0xbf0551cf	-0.52077955
100	0xbf079afb	-0.52970856
101	0xbf38e808	-0.7222905
102	0x3f9a610b	1.2060865
103	0xbe6b2f36	-0.22967228
104	0x3e36675c	0.17812866
105	0xbded989e	-0.11601375
106	0x3f0a6481	0.54059607
107	0xbf2488b4	-0.6427109
108	0x3f1bad46	0.6081127
109	0xbd9118c6	-0.07084803
110	0xbe07f014	-0.13275176
111	0xbe4f3802	-0.20236209
112	0xbef7353e	-0.48282808
113	0x3f2737e8	0.6531968
114	0x3e7df346	0.24799833
115	0xbee8b332	-0.45449215
116	0xbf16e910	-0.58949375
117	0xbe15fc61	-0.14647056
118	0x3d296fc2	0.041366346
119	0xbeba3d27	-0.3637478
120	0xbd592392	-0.053012438
121	0x3e309eef	0.17248128
122	0x3f0c0362	0.5469266
123	0xbf53a9fb	-0.82681245
124	0xbe28cefe	-0.16485211
125	0xbeb62827	-0.3557751
126	0x3ea80d25	0.32822528
127	0x3f4175fa	0.7557064
128	0xbe129d1b	-0.14317743
129	0x3ea012bb	0.3126429
130	0xbf024788	-0.508904
131	0x3d3d5eab	0.04623286
132	0xbef71e25	-0.48265186
133	0x3f74d89b	0.95643014
134	0xbea86bb0	-0.3289466
135	0xbce50d5c	-0.027960472
136	0xbf342f41	-0.70384604
137	0x3ea47f71	0.3212848
138	0x3ed24596	0.41068715
139	0xbf0d5d1c	-0.552202
140	0xbe7a6657	-0.24453102
141	0x3f3fffc6	0.74999654
142	0x3dc087a4	0.094008714
143	0x3e3b1a92	0.18271855
144	0xbf0c7d4b	-0.5487868
145	0x3f117ea3	0.5683386
146	0xbd2e5818	-0.04256448
147	0x3ee888c3	0.4541684
148	0x3d5fe678	0.05466315
149	0xbec7ed3d	-0.39048186
150	0x3f8825e3	1.0636562
151	0xbe825c18	-0.25460887
152	0x3e94079f	0.28912064
153	0x3ed1c368	0.40969396
154	0xbf0b4d7d	-0.5441511
155	0xbf09ff48	-0.53905153
156	0x3d7bf7d6	0.06151565
157	0x3bc36d06	0.0059639243
158	0xbf106230	-0.5639982
159	0x3f119013	0.56860465
160	0x3f3c076b	0.7344882
161	0x3e8c98d7	0.27460358
162	0xbf25f283	-0.6482317
163	0x3f23c818	0.63977194
164	0xbf833981	-1.0251924
165	0x3e9d88dd	0.3076848
166	0xbdab0b1d	-0.08351729
167	0x3e80c3d9	0.2514942
168	0x3ef3942e	0.4757399
169	0xbf5c6532	-0.8609191
170	0xbee615cd	-0.44938508
171	0xbf23ff82	-0.6406175
172	0x3f1285ca	0.57235396
173	0x3dd54475	0.10413448
174	0xbd08a4fb	-0.033360463
175	0xbf73679b	-0.95079964
176	0x3ecc02dc	0.39845932
177	0x3f259e86	0.6469501
178	0x3f5f646e	0.8726262
179	0x3f07d9ef	0.53066915
180	0x3f66aa72	0.9010383
181	0xbe2d784d	-0.16940422
182	0x3eeb0a26	0.4590618
183	0x3f40f5df	0.7537517
184	0x3dc7eb39	0.09761662
185	0x3efda2b9	0.4953821
186	0xbf98d9d0	-1.1941471
187	0xbee97d83	-0.4560357
188	0xbe3dc5e0	-0.18532515
189	0x3ef816bf	0.48454854
190	0x3d6b8397	0.05749854
191	0x3e96ac32	0.2942825
192	0xbde39375	-0.111121096
193	0x3f3f20d7	0.74659485
194	0x3e9a757e	0.30167764
195	0xbe9e6af3	-0.3094097
196	0x3ef3c19d	0.47608653
197	0x3f1235fd	0.5711363
198	0xbeef566a	-0.46745616
199	0xbf3be844	-0.73401284
200	0x3f7cc7e5	0.98742515
201	0x3e912a4f	0.2835259
202	0x3f0b8b40	0.54509354
203	0xbf17d675	-0.5931161
204	0x3f314b8d	0.69255906
205	0x3e59ccef	0.21269582
206	0xbe3392e9	-0.1753651
207	0x3ea34bba	0.31893712
208	0xbec1f608	-0.3788302
209	0x3e7486a6	0.2387949
210	0x3e754d82	0.23955348
211	0x3eb10a58	0.34578204
212	0xbe104d91	-0.14092089
213	0xbe06a8e4	-0.13150364
214	0x3e603b1d	0.2189755
215	0xbde2855c	-0.110605925
216	0xbf4604aa	-0.77350867
217	0xbf26242b	-0.6489894
218	0xbf1e645f	-0.61871904
219	0xbf4f2e60	-0.8093014
220	0xbe90b26a	-0.2826112
221	0x3ed2fc38	0.41208053
222	0xbd2dd0b8	-0.042435378
223	0x3e912133	0.28345641
224	0xbee410b1	-0.44543985
225	0xbf5ecef2	-0.87034523
226	0xbe9de560	-0.30839062
227	0xbf35551e	-0.70833004
228	0x3e1c840b	0.15284745
229	0xbeeb8565	-0.4600021
230	0xbe9c015e	-0.30469793
231	0xbf152055	-0.5825246
232	0xbdecb6b7	-0.115582876
233	0x3edc7bdd	0.4306325
234	0xbde991e0	-0.114047766
235	0xbf9559c1	-1.1668016
236	0x3f1eea1b	0.62075967
237	0xbf2c930d	-0.6741188
238	0x3e8a5b80	0.27022934
239	0x3ee769e9	0.4519799
240	0xbe664c4e	-0.22490045
241	0x3ebcfe20	0.36912632
242	0x3f6a4f1a	0.9152695
243	0xbe650cb0	-0.22368121
244	0xbe653f64	-0.22387463
245	0x3f5166a9	0.8179727
246	0x3f02a47e	0.51032245
247	0xbe8d745b	-0.27627835
248	0xbd176417	-0.036960687
249	0xbf876e14	-1.0580468
250	0x3d3098f0	0.043114603
251	0x3f03ea00	0.5152893
252	0x3db692de	0.089147314
253	0xbd09966d	-0.033590723
254	0xbf0f22a7	-0.5591225
255	0x3d163806	0.036674522

edge_embedding_layer_p.edge_embedding_NN.weight f4 [31, 2]
0	0x3e0bcf9f	0.1365342
1	0xbea4f9de	-0.32221884
2	0x3ef79c31	0.48361352
3	0xbf6e8e15	-0.9318555
4	0x3f0159cc	0.50527644
5	0x3ee3fcbb	0.44528756
6	0xbd4d48e5	-0.050118346
7	0xbf0b107a	-0.54322016
8	0x3f024b5b	0.50896233
9	0x3f0672d3	0.5251896
10	0xbedf730c	-0.4364246
11	0x3f0d55d8	0.5520911
12	0x3f318310	0.6934061
13	0xbe9d8f58	-0.30773425
14	0xbebb9386	-0.3663599
15	0x3f84cf10	1.037569
16	0x3e8ef0b5	0.2791802
17	0xbf0a121b	-0.53933877
18	0xbf1b9cf9	-0.60786396
19	0xbf5d3b83	-0.8641893
20	0xbd0067ec	-0.031349108
21	0x3eb0ef64	0.3455764
22	0x3f45c744	0.7725718
23	0x3e81746d	0.25284138
24	0xbf89318b	-1.0718244
25	0xbf5ce055	-0.86279804
26	0xbd4b4bb4	-0.049632743
27	0xbf6b9d17	-0.92036575
28	0x3ea3c850	0.31988764
29	0x3ccd43db	0.02505677
30	0xbda3eed6	-0.08004539
31	0xbeeac300	-0.45851898
32	0x3e807639	0.25090197
33	0xbf39c440	-0.7256508
34	0x3ef78d9c	0.48350227
35	0x3dadad77	0.084803514
36	0xbb8c9ed3	-0.0042913943
37	0xbdeb28dc	-0.11482403
38	0xbecefe4f	-0.40428397
39	0xbeec64d5	-0.4617068
40	0x3f140259	0.5781608
41	0xbfa58aad	-1.2932945
42	0xbe1a101b	-0.15045206
43	0xbf7dbe2b	-0.991183
44	0xbd936785	-0.07197479
45	0xbe8bf190	-0.27332735
46	0x3f1b80e6	0.6074356
47	0xbd5de372	-0.054171987
48	0xbd924b2a	-0.07143243
49	0xbeb6df76	-0.35717362
50	0x3e1e9bb0	0.15489078
51	0x3c66bf89	0.0140837515
52	0xbef200ac	-0.47266138
53	0x3f041f1b	0.51609963
54	0x3b471a3b	0.0030380625
55	0xbd5a298d	-0.053262282
56	0xbec9ea70	-0.39436674
57	0xbe726962	-0.23673013
58	0xbe3f7bb1	-0.18699528
59	0x3da05ba1	0.07829977
60	0xbee2b54a	-0.44278938
61	0xbe5f4686	-0.21804246

edge_embedding_layer_p.edge_feature_NN.weight f4 [32, 32]
0	0x3f5a6de1	0.8532391
1	0xbeaebebf	-0.34129903
2	0x3f61b160	0.8816128
3	0x3ea67b82	0.32516104
4	0xbd9c3925	-0.07628087
5	0xbefda9bf	-0.49543568
6	0xbf4a2954	-0.7896931
7	0x3deebc1d	0.116569735
8	0xbf053e9d	-0.52048665
9	0x3f7d5f4b	0.9897353
10	0x3dd76680	0.10517597
11	0xbf351cb2	-0.7074691
12	0xbe3300bb	-0.17480747
13	0xbe2bf962	-0.1679435
14	0xbed0bdb6	-0.40769738
15	0x3ef644b1	0.48099282
16	0xbdea546c	-0.114418834
17	0x3edc01a2	0.42969996
18	0xbe329f63	-0.17443614
19	0xbe2d0119	-0.1689495
20	0x3e703d38	0.23460853
21	0xbe9d8c66	-0.30771178
22	0xbc9bee91	-0.019034656
23	0x3e374f25	0.17901285
24	0xbd06f761	-0.032950763
25	0xbf01c2cb	-0.50687855
26	0xbe126b01	-0.14298631
27	0xbf591497	-0.8479704
28	0x3f1e092f	0.61732763
29	0xbea81dbc	-0.32835186
30	0x3e88ae27	0.26695368
31	0xbf82762a	-1.0192311
32	0x3e898020	0.26855564
33	0xbfd260a7	-1.6435746
34	0x3eb63730	0.3558898
35	0xbf9414f5	-1.1568896
36	0x3ebb86df	0.36626336
37	0x3ee03edd	0.4379796
38	0xbec7606c	-0.38940752
39	0xbe15f9a3	-0.1464601
40	0xbfbe5a6f	-1.4871348
41	0xbf14abe0	-0.5807476
42	0xbe62c0ec	-0.22143906
43	0xbf38c926	-0.7218193
44	0xbea2db74	-0.31808054
45	0x3f1a1cb5	0.60200053
46	0x3f24dcf2	0.64399636
47	0x3df8aac0	0.12141943
48	0xbee7f471	-0.45303681
49	0x3f5cad13	0.8620159
50	0xbf9c2b81	-1.2200776
51	0x3ea61dfe	0.32444757
52	0xbe205132	-0.15655974
53	0x3ed3f69e	0.4139909
54	0xbf0617f2	-0.5238029
55	0xbf2589df	-0.646635
56	0x3f4f5541	0.8098946
57	0x3f343bd4	0.7040379
58	0x3e524752	0.20535019
59	0x3f3ebd1c	0.7450731
60	0xbecc8b82	-0.39950186
61	0xbe75dce4	-0.24010044
62	0x3e656f70	0.22405791
63	0xbe4427b2	-0.19155768
64	0xbed69692	-0.4191175
65	0xbfa73112	-1.306185
66	0xbee9c72d	-0.45659772
67	0x3f9da647	1.2316369
68	0xbe1b8542	-0.15187553
69	0xbef5743e	-0.47940248
70	0xbf63d4b2	-0.8899642
71	0x3c5843b3	0.0131997345
72	0x3ee5faf9	0.4491804
73	0x3e583643	0.21114449
74	0x3e0d77fc	0.13815302
75	0x3ebb086c	0.36529863
76	0xbe963c6d	-0.29342976
77	0xbee17625	-0.4403545
78	0xbe69a9f4	-0.22818738
79	0x3f000c8f	0.5001916
80	0x3e304b62	0.17216256
81	0x3806d4b8	3.21462e-05
82	0x3e6d3567	0.23164903
83	0x3d96c102	0.07361032
84	0xbe1b6360	-0.15174627
85	0x3f1d72a0	0.6150303
86	0x3ed2e3cd	0.41189423
87	0xbfa4a5f0	-1.286314
88	0xbf21451a	-0.62996066
89	0xbecc88a8	-0.3994801
90	0xbdab51e4	-0.08365229
91	0x3e123b4a	0.1428043
92	0x3f374d6a	0.716025
93	0xbe8a4872	-0.27008396
94	0x3ec85bb0	0.39132452
95	0x3e5842b0	0.2111919
96	0xbf1a8769	-0.6036287
97	0xbe6a817e	-0.2290096
98	0xbf0a814b	-0.54103535
99	0x3f6cf040	0.9255409
100	0xbf5b40b5	-0.8564561
101	0xbf349d9d	-0.70553
102	0xbf195f65	-0.59911186
103	0xbe376f0c	-0.17913455
104	0x3e63a207	0.22229777
105	0xbd0dd700	-0.034628868
106	0xbe3e11cc	-0.18561476
107	0xbe64f6eb	-0.22359817
108	0xbf14e951	-0.5816851
109	0x3f753552	0.95784485
110	0x3cdaab90	0.026693135
111	0xbef32d0d	-0.4749531
112	0xbfa51b5f	-1.2898978
113	0xbed2b359	-0.41152456
114	0xbef62b82	-0.4808007
115	0x3f79ffdd	0.9765604
116	0x3eba9814	0.3644415
117	0x3ed0a224	0.40748703
118	0xbe5e57c5	-0.21713169
119	0x3c915c43	0.01774419
120	0x3ef50c89	0.47861126
121	0x3e915d5d	0.28391543
122	0x3f116b0c	0.56803966
123	0x3df4c91e	0.119524226
124	0x3e96311c	0.29334342
125	0x3f156634	0.58359075
126	0xbf020420	-0.50787544
127	0xbce7c872	-0.028293822
128	0x3e448a41	0.19193365
129	0xbe9b68db	-0.30353436
130	0x3f15b75d	0.58482915
131	0xbee0261d	-0.43779078
132	0x3f224e66	0.63400877
133	0xbdf87745	-0.12132124
134	0xbe042ee5	-0.12908514
135	0xbf3622e1	-0.7114697
136	0xbec513d7	-0.384917
137	0xbf256a72	-0.6461555
138	0x3e574fc6	0.21026525
139	0x3f2cbbda	0.6747414
140	0xbeec36ff	-0.4613571
141	0xbe836a85	-0.25667205
142	0xbf133e0e	-0.5751656
143	0x3e940169	0.28907326
144	0x3bf14345	0.0073627555
145	0x3f816c36	1.0111148
146	0xbf4527e9	-0.77014023
147	0x3e0639ea	0.1310803
148	0xbff15e9a	-1.8856995
149	0x3cd8be5b	0.026457956
150	0xbe27a23e	-0.16370484
151	0x3e289410	0.16462731
152	0x3f11fd71	0.57027346
153	0xbf3a62c0	-0.7280693
154	0x3e898cc0	0.26865196
155	0x3e8bb06b	0.27283034
156	0x3d94218b	0.0723296
157	0x3e8f5c9b	0.2800034
158	0x3e89f44b	0.26944193
159	0xbe2ffe8a	-0.17186943
160	0x3e14b69f	0.1452279
161	0xbf093e11	-0.5361033
162	0xbda601e8	-0.08105832
163	0x3f83bdcf	1.02923
164	0x3f819415	1.0123316
165	0x3c552396	0.013008973
166	0x3e899027	0.26867792
167	0x3dfaf288	0.122532904
168	0xbdc3afa8	-0.09554988
169	0xbe934584	-0.28763974
170	0xbe9c0a66	-0.30476683
171	0xbecd5cf4	-0.4010998
172	0x3f13b932	0.5770446
173	0x3f0b9d71	0.5453711
174	0xbe3e6b69	-0.18595661
175	0x3ee7f5a1	0.45304587
176	0xbf0339ce	-0.5126008
177	0x3edfb99c	0.43696296
178	0xbeb8ebb5	-0.3611733
179	0xbeb6c6df	-0.35698602
180	0xbf8f96a3	-1.1217846
181	0x3eb18975	0.34675184
182	0x3f2be1ea	0.6714159
183	0xbe32e30d	-0.17469425
184	0x3c57428d	0.013138426
185	0x3f24ed3a	0.6442448
186	0x3e3d05d1	0.1845925
187	0xbe98e1ae	-0.2985968
188	0xbd897a60	-0.06712794
189	0xbe98db83	-0.29854974
190	0xbd8154ff	-0.0631504
191	0x3d65f3c3	0.056140672
192	0xbdaa07d8	-0.08302277
193	0xbf7820b7	-0.9692492
194	0x3e051680	0.12996864
195	0xbeb6a491	-0.3567243
196	0xbf5859f1	-0.8451224
197	0xbf7ca49e	-0.98688686
198	0xbf20a53c	-0.6275213
199	0x3e056219	0.13025703
200	0xbf4bfbcf	-0.79681104
201	0x3e7f38bc	0.24923986
202	0x3f8af929	1.0857288
203	0xbf057ecd	-0.5214661
204	0x3f481594	0.78157926
205	0xbf10bef8	-0.56541395
206	0xbee62569	-0.44950417
207	0x3ee24a51	0.44197324
208	0x3e305202	0.17218783
209	0xbf8d0771	-1.1017896
210	0xbf59099c	-0.8478029
211	0xbe1140ad	-0.14184828
212	0xbf5934ee	-0.8484639
213	0xbed0710f	-0.40711257
214	0xbf10ee8c	-0.56613994
215	0xbfbd01a4	-1.4766126
216	0x3e0a3732	0.13497618
217	0xbfc8c96a	-1.5686467
218	0xbe454843	-0.19265847
219	0x3f3923f5	0.7232049
220	0x3f427abc	0.7596853
221	0x3e1ca7d7	0.15298401
222	0x3e1fa41c	0.15589947
223	0x3efd4b33	0.49471435
224	0xbf3e19e7	-0.74258274
225	0xbec644cc	-0.38724363
226	0x3f406782	0.7515794
227	0xbfaa14dd	-1.3287617
228	0x3fc1de80	1.5146027
229	0xbf2772a0	-0.6540928
230	0x3e9a12f3	0.30092582
231	0x3e7a3a33	0.24436264
232	0x3f64500e	0.89184654
233	0x3d8ab6fe	0.06773184
234	0xbee1d1ef	-0.4410548
235	0xbe7963d9	-0.24354495
236	0xbda798c9	-0.08183438
237	0x3e5ecd17	0.21757923
238	0x3e94fea2	0.2910052
239	0xbe739095	-0.23785622
240	0xbe68f2fd	-0.22748943
241	0xbf21df8a	-0.6323172
242	0xbd1d231e	-0.03836357
243	0xbcdfd8ea	-0.027325112
244	0x3e38e0b3	0.18054466
245	0x3e6b4e90	0.22979188
246	0x3f80b875	1.0056292
247	0x3ee7f46f	0.45303676
248	0xbf40b1ec	-0.7527149
249	0x3ec23c8c	0.3793682
250	0xbee090d2	-0.4386049
251	0x3eba79db	0.36421093
252	0xbf782a5a	-0.96939623
253	0x3c28c833	0.010301637
254	0x3ed70b38	0.42000747
255	0xbfb10c18	-1.3831816

update_node_embedding_layer_g.0.message_layer.weight f4 [32, 64]
0	0xbeaa6491	-0.3327985
1	0x3f4c063f	0.7969703
2	0xbf8bfb22	-1.0936015
3	0xbe626411	-0.22108485
4	0x3f3fef6c	0.74974704
5	0x3bd2d141	0.0064336364
6	0xbe90c1cd	-0.28272858
7	0xbfa2e6ff	-1.2726744
8	0x3d6ad0b3	0.057327937
9	0x3eb48524	0.35257828
10	0x3e3eccee	0.18632862
11	0x3dc98ca0	0.09841275
12	0x3e5c553c	0.2151689
13	0xbe982192	-0.29713112
14	0xbe22c656	-0.15895972
15	0xbede01c8	-0.43360734
16	0x3e8936a1	0.2679949
17	0xbf302943	-0.6881296
18	0xbdb32a25	-0.08748273
19	0xbf0ad76a	-0.54234946
20	0x3fd48b88	1.6605082
21	0xbf30d012	-0.6906749
22	0xbdaf4446	-0.08557944
23	0x3e44f50c	0.19234103
24	0xbcd8b94f	-0.02645555
25	0x3e3e0c72	0.18559435
26	0x3da2408b	0.07922467
27	0xbc15ba75	-0.009138693
28	0xbdcae7fd	-0.099075295
29	0x3e6f5087	0.23370562
30	0x3e137dfb	0.14403526
31	0x3e7bc419	0.24586524
32	0xbf8c8d11	-1.098055
33	0xbed09b88	-0.4074366
34	0x3eb5d08a	0.35510665
35	0x3ec0efe8	0.37683034
36	0xbe4e00ff	-0.20117567
37	0x3f013ca3	0.5048315
38	0x3eaa2c14	0.33236754
39	0xbe644ea7	-0.22295628
40	0x3eef7515	0.46769014
41	0xbf95f3eb	-1.1715063
42	0xbf330d50	-0.6994219
43	0x3d9289ae	0.071551666
44	0x3ebfadb8	0.37437224
45	0x3f066a6b	0.5250613
46	0xbe62b525	-0.22139414
47	0xbd880232	-0.06641044
48	0xbd245e52	-0.040129013
49	0xbdd8e23f	-0.10590028
50	0xbec50fed	-0.38488713
51	0x3d71ec2e	0.05906313
52	0x3d9a7a45	0.07542852
53	0xbe37fe78	-0.17968166
54	0xbef0a7bf	-0.4700298
55	0xbc7942d6	-0.015213689
56	0x3eccdea5	0.40013614
57	0x3f1095aa	0.5647837
58	0xbe41e767	-0.18935929
59	0xbe1e1027	-0.15435849
60	0x3ead7fbf	0.33886525
61	0xbf7011a2	-0.93776906
62	0x3eb659f1	0.35615495
63	0xbef48eef	-0.477653
64	0xbe1c0bc5	-0.15238865
65	0x3dcf945c	0.10135719
66	0x3f149f53	0.5805561
67	0xbe005351	-0.12531783
68	0x3f38b94d	0.72157747
69	0xbeaf8a1f	-0.34285066
70	0x3ebbbd7a	0.36667997
71	0x3f1da7db	0.6158425
72	0x3f0a6740	0.54063797
73	0xbf8c00fa	-1.0937798
74	0x3d442d3a	0.047894694
75	0xbf76db82	-0.9642869
76	0xbe8122ae	-0.2522177
77	0xbefb37e0	-0.49066067
78	0xbf8dbe26	-1.1073654
79	0xbe853c8e	-0.26022762
80	0xbef73af3	-0.48287162
81	0x3db2a14f	0.087221734
82	0xbf4ad486	-0.79230535
83	0x3f8025c0	1.001152
84	0xbf3b7524	-0.7322562
85	0x3f489281	0.7834855
86	0xbed8cff9	-0.4234617
87	0x3e80d947	0.2516577
88	0xbcba5152	-0.022743855
89	0x3e7ce982	0.24698451
90	0x3e384163	0.17993693
91	0x3e5fad79	0.21843518
92	0x3f10ed09	0.56611687
93	0x3f3b01f2	0.73049843
94	0x3e67c19e	0.22632453
95	0xbf12738b	-0.57207555
96	0xbf692e38	-0.9108615
97	0xbf3163e8	-0.6929307
98	0xbf3f5d02	-0.74751294
99	0xbfc928cc	-1.5715575
100	0xbd36c982	-0.044625767
101	0x3f0b666d	0.54453164
102	0xbe847a03	-0.25874338
103	0x3df2d27a	0.118565515
104	0x3e590f3e	0.2119722
105	0x3efd3cb1	0.49460366
106	0xbf398678	-0.7247081
107	0xbf37bf6e	-0.71776474
108	0xbe55ec40	-0.20890903
109	0xbea02515	-0.3127829
110	0xbe779a98	-0.24180067
111	0x36d7430a	6.4153037e-06
112	0xbd4ad7ab	-0.049522083
113	0xbfe2fbbd	-1.7733074
114	0xbf0f535d	-0.5598658
115	0xbf2b73a5	-0.66973335
116	0xbf27216b	-0.65285367
117	0x3f71fc72	0.94525826
118	0x3ed45431	0.41470483
119	0xbe97846e	-0.29593223
120	0xbf3cbbea	-0.73724234
121	0xbe44ca6a	-0.1921784
122	0xbe4a0da3	-0.19731764
123	0x3e86522f	0.26234576
124	0x3f4ee374	0.80815816
125	0xbe9222e5	-0.28542247
126	0x3e010e7d	0.12603183
127	0x3f8ecd42	1.115639
128	0x3e30833b	0.1723756
129	0xbf525e66	-0.8217529
130	0xbe03884a	-0.12844959
131	0x3eed5783	0.4635583
132	0xbf8fa0ac	-1.1220908
133	0x3e8ca56b	0.27469954
134	0xbf3bb07c	-0.7331617
135	0xbe22d314	-0.15900832
136	0x3ea51681	0.32243732
137	0xbeccd1d5	-0.4000384
138	0x3f3c7e66	0.7363037
139	0xbea1e1bd	-0.31617537
140	0xbedf8899	-0.43658903
141	0x3f5ae535	0.8550599
142	0xbee62fbe	-0.449583
143	0xbb961169	-0.004579712
144	0xbe2f04df	-0.17091702
145	0xbf34fc27	-0.70697254
146	0xbf143d95	-0.57906467
147	0xbd874bca	-0.066062525
148	0x3d0c4145	0.034241933
149	0xbec9f87d	-0.39447394
150	0x3ea6037e	0.3242454
151	0xbe952698	-0.29131007
152	0x3f9b28cf	1.2121829
153	0xbe2bec14	-0.16789275
154	0x3f1d4122	0.6142751
155	0xbfb552c7	-1.4165887
156	0xbdb6b59c	-0.08921358
157	0x3f98d177	1.1938924
158	0x3f24626c	0.6421268
159	0x3c8c2ba3	0.017110651
160	0x3f87e965	1.0618101
161	0x3e0bb402	0.13642886
162	0xbea54c9c	-0.3228501
163	0x3ee6cc46	0.45077723
164	0xbf0708f8	-0.5274806
165	0x3f9540b9	1.1660377
166	0x3cc8b4d2	0.024500284
167	0xbeacc67c	-0.33745182
168	0xbe081d58	-0.13292444
169	0xbe47acdb	-0.19499533
170	0xbea55294	-0.32289565
171	0xbeefc26a	-0.46828014
172	0x3efeeb7f	0.49789044
173	0x3b68db76	0.00355312
174	0xbcd6b7e4	-0.026210733
175	0x3f594b3b	0.8488042
176	0x3f64228e	0.89115226
177	0xbe996aa5	-0.29964176
178	0xbf1e98e0	-0.6195202
179	0x3e9a866e	0.30180687
180	0xbf1f80af	-0.6230573
181	0x3ed48926	0.41510886
182	0x3e760668	0.24025881
183	0x3f27825d	0.65433294
184	0xbf46a43b	-0.77594346
185	0x3e182b3e	0.14860246
186	0xbde0e742	-0.10981609
187	0x3f08191f	0.5316333
188	0x3f83af36	1.0287845
189	0x3ec98494	0.39358962
190	0xbdafc28b	-0.08582028
191	0x3f3a1790	0.72692204
192	0x3e1caa7c	0.1529941
193	0x3f269d7f	0.6508407
194	0xbe4bfa95	-0.19919808
195	0xbf3f9682	-0.7483903
196	0x3e05b8bb	0.1305875
197	0xbea213ab	-0.3165563
198	0xbe1e7a69	-0.15476383
199	0x3e7c9df2	0.24669626
200	0xbe10cf1e	-0.14141509
201	0x3e4940f9	0.19653691
202	0xbf04ec26	-0.51922834
203	0xbf26863a	-0.65048563
204	0xbe37bc1b	-0.1794285
205	0x3e66c6c1	0.22536756
206	0xbe380593	-0.17970876
207	0xbecae793	-0.39629802
208	0xbfb240c2	-1.3926013
209	0x3e111937	0.14169775
210	0xbf0d30fb	-0.55152863
211	0xbd916556	-0.070994064
212	0xbf806063	-1.0029415
213	0xbd8b65e5	-0.06806544
214	0x3e603a80	0.21897316
215	0x3ece9e55	0.40355173
216	0xbee7caf5	-0.4527203
217	0x3f7b6365	0.9819854
218	0x3e0e3142	0.13885978
219	0xbf141580	-0.57845306
220	0xbe26e4bb	-0.16298191
221	0x3e94c687	0.29057714
222	0xbdc11ed3	-0.094297074
223	0x3dbed63d	0.093182065
224	0xbd22b847	-0.03972652
225	0xbe9c1004	-0.3048097
226	0x3e8f196d	0.27949086
227	0xbddcdb6b	-0.10784038
228	0xbf1f526d	-0.62235147
229	0x3ef924de	0.4866094
230	0xbf17c684	-0.59287286
231	0xbeb35621	-0.3502665
232	0xbe9dcd1b	-0.30820546
233	0xbd1e10da	-0.03859029
234	0xbf267a4d	-0.65030366
235	0x3f1eab51	0.6198016
236	0xbe0ebf96	-0.13940272
237	0xbf429074	-0.7600167
238	0x3d2d7648	0.04234913
239	0xbebabf1c	-0.3647393
240	0xbe993f83	-0.29931268
241	0x3ed85c04	0.42257702
242	0x3f3a7a57	0.72842926
243	0xbdb06c06	-0.08614354
244	0xbf5f705d	-0.8728083
245	0xbc155740	-0.00911504
246	0xbed7c375	-0.4214131
247	0x3e94e460	0.29080486
248	0xbf7731fd	-0.9656065
249	0xbf0935c4	-0.53597665
250	0x3f1a8dd1	0.60372645
251	0xbd41dbff	-0.047328945
252	0x3ead7897	0.33881065
253	0x3ee0d84a	0.43915015
254	0xbcb9ab58	-0.02266471
255	0xbee69be3	-0.45040807

update_node_embedding_layer_g.0.update_layer.weight f4 [32, 64]
0	0xbf54a966	-0.8307098
1	0x3e938b0d	0.28817025
2	0x3e440a02	0.19144443
3	0x3d092cd9	0.033490036
4	0x3a386944	0.0007034729
5	0xbf078e04	-0.52951074
6	0xbf2dde87	-0.67917675
7	0xbecd0c4b	-0.4004844
8	0xbeb80ac7	-0.35945722
9	0x3f2ec89d	0.6827486
10	0x3ece98fb	0.4035109
11	0xbf1f32ae	-0.62186706
12	0x3d4fe4bd	0.05075525
13	0xbf6fb603	-0.936371
14	0xbed70246	-0.41993922
15	0x3e771f69	0.24133076
16	0x3e0c133a	0.1367921
17	0xbf2151f0	-0.6301565
18	0x3f35788c	0.70887065
19	0xbefdacf4	-0.49546015
20	0xbf1a4524	-0.6026175
21	0x3ec153c2	0.37759215
22	0x3dd658a4	0.104661256
23	0x3f04929d	0.51786214
24	0x3e65d047	0.22442733
25	0xbf133689	-0.5750509
26	0x3c4d7a87	0.01254142
27	0xbe20d8d0	-0.15707707
28	0x3d5d6cd2	0.054058857
29	0x3f0c48ac	0.5479839
30	0xbced68c2	-0.028980616
31	0xbd87e89e	-0.06636165
32	0x3ec17193	0.37781963
33	0xbe853315	-0.26015535
34	0xbec717e6	-0.3888542
35	0xbef44069	-0.4770539
36	0x3f086a77	0.5328745
37	0xbeb11fff	-0.34594724
38	0x3f0d5c73	0.5521919
39	0xbe3ce898	-0.18448102
40	0xbef7b840	-0.4838276
41	0xbf44d2f1	-0.7688437
42	0xbefbcbbb	-0.49178872
43	0x3e673bd6	0.2258142
44	0x3dee041c	0.116218776
45	0x3edd4dd5	0.43223444
46	0xbf214502	-0.6299592
47	0xbec038af	-0.37543246
48	0x3eb43159	0.351939
49	0xbe85083a	-0.2598284
50	0xbf2f5cd3	-0.68501014
51	0xbebbfbb9	-0.36715487
52	0x3eabcf5e	0.33556646
53	0xbf142fd5	-0.57885486
54	0xbf935c46	-1.1512535
55	0xbf66c213	-0.90139884
56	0x3edae222	0.4275065
57	0x3e7fce43	0.24981026
58	0x3dfd9eda	0.12383814
59	0x3e392e63	0.18084101
60	0x3e757138	0.23968971
61	0x3e8478af	0.25873324
62	0x3f35c1bb	0.70998734
63	0x3ea64489	0.32474163
64	0x3eb0168a	0.34392196
65	0xbdfc8357	-0.123297386
66	0xbf346edb	-0.7048165
67	0xbf3cee56	-0.7380117
68	0x3f295ee4	0.66160417
69	0x3f11de93	0.56980246
70	0xbcdd6970	-0.027027816
71	0x3ecdb52f	0.40177295
72	0x3eae0d7c	0.33994663
73	0xbe5d975d	-0.21639772
74	0xbdfdb3ac	-0.12387785
75	0x3eb4232c	0.35183084
76	0xbf2809cd	-0.65639955
77	0xbcd58e18	-0.026068732
78	0x3e57ad14	0.21062118
79	0xbe56f150	-0.20990491
80	0x3e0c169a	0.13680497
81	0x3e1d924b	0.15387838
82	0x3d2ca482	0.042149074
83	0xbf7871f0	-0.97048855
84	0xbef7e384	-0.48415768
85	0x3c30116b	0.01074634
86	0xbc64401e	-0.013931302
87	0x3f194f6f	0.5988683
88	0xbe7f28c1	-0.2491789
89	0x3e179823	0.1480413
90	0xbf1f84da	-0.6231209
91	0x3c140cd9	0.009036266
92	0xbea073b0	-0.31338263
93	0xbf555eb3	-0.83347625
94	0x3e8dcb89	0.27694348
95	0x3e0a305a	0.13495007
96	0x3e0344b4	0.12819177
97	0xbb743b51	-0.00372668
98	0x3e695ad0	0.22788548
99	0x3eb76212	0.3581701
100	0x3ec507d7	0.38482544
101	0xbeaca257	-0.33717605
102	0x3f2fa7b5	0.68615276
103	0x3f17a9c6	0.5924343
104	0xbdfb3e83	-0.122677825
105	0x3e1179d1	0.14206626
106	0x3d876134	0.06610337
107	0xbd055ddb	-0.03256021
108	0x3e22bc59	0.15892161
109	0xbe31e521	-0.17372562
110	0xbe713ae4	-0.23557621
111	0xbbe34be7	-0.0069365385
112	0x3f26c97a	0.6515118
113	0xbf09b396	-0.5378965
114	0x3e376636	0.17910084
115	0x3ecfbdec	0.40574586
116	0x3f2e6a46	0.6813091
117	0xbf0bc8ac	-0.54603076
118	0xbf3f4800	-0.7471924
119	0xbed5c002	-0.41748053
120	0x3f74e902	0.9566804
121	0x3e8b27f5	0.27178922
122	0xbe6aecb9	-0.22941865
123	0xbf264597	-0.64949936
124	0x3e8c50f5	0.27405515
125	0x3e9510f8	0.2911451
126	0x3e00b2cd	0.12568207
127	0xbe657bb4	-0.2241047
128	0x3fa8a667	1.3175782
129	0x3dc62792	0.09675516
130	0x3e10af2d	0.14129324
131	0xbf14c0aa	-0.5810648
132	0xbc6c8664	-0.014436338
133	0xbf0309df	-0.5118694
134	0x3f22a831	0.6353789
135	0xbf03a73a	-0.5142704
136	0xbe5fd74f	-0.21859477
137	0xbde2123d	-0.11038635
138	0x3f405218	0.75125265
139	0x3e1e6458	0.15467966
140	0xbef34d5d	-0.4751996
141	0x3ed8728c	0.42274892
142	0xbf2d613f	-0.6772651
143	0x3eea171b	0.45720753
144	0xbe5d222c	-0.21595067
145	0xba619630	-0.00086054485
146	0xbee0b612	-0.4388891
147	0xbe076abe	-0.13224313
148	0x3e37b5ca	0.17940441
149	0xbdf1eecc	-0.11813125
150	0xbf55ff4e	-0.8359269
151	0xbf1ad362	-0.60478795
152	0xbeda31a8	-0.4261601
153	0x3e854246	0.26027125
154	0x3ec895d8	0.39176822
155	0xbe982953	-0.29719028
156	0xbe9de8d4	-0.30841696
157	0x3e1d35d9	0.15352573
158	0xbf6e1ae4	-0.9300978
159	0xbe9742cc	-0.2954315
160	0xbec32636	-0.3811509
161	0xbf024db1	-0.508998
162	0xbf19df92	-0.60106766
163	0x3f1fe858	0.62463903
164	0x3f4693e1	0.77569395
165	0x3d2dda9e	0.042444818
166	0xbee21ad1	-0.44161084
167	0xbda706ac	-0.081555694
168	0xbed7208d	-0.42017022
169	0xbe8b37b2	-0.2719093
170	0xbd9c1e28	-0.07622939
171	0xbf4df09c	-0.80445266
172	0x3f1aa253	0.6040394
173	0x395a6a64	0.00020829734
174	0x3f3d083d	0.73840696
175	0x3e919cae	0.2843985
176	0x3f0ace62	0.54221165
177	0xbf1da57d	-0.6158064
178	0x3f2026fd	0.6255949
179	0x3ff5c4f3	1.9200729
180	0x3de481f4	0.11157599
181	0xbf0947ff	-0.5362548
182	0xbf6941ce	-0.91116035
183	0x3ec7769a	0.38957673
184	0xbe1197fd	-0.14218135
185	0x3ea5cb9f	0.32381913
186	0xbef67ca7	-0.48141977
187	0xbe5caa31	-0.21549298
188	0xbf2432d1	-0.6414004
189	0x3e9c16a3	0.3048602
190	0xbea451db	-0.320937
191	0xbf1913c5	-0.5979579
192	0xbf953f64	-1.165997
193	0xbe98bb81	-0.29830554
194	0x3f7e3b4d	0.99309236
195	0xbf04aa8b	-0.5182273
196	0x3f20e221	0.62845045
197	0x3ec1ca8f	0.37849852
198	0xbec4ba38	-0.38423324
199	0x3f5f829d	0.87308675
200	0x3f7989bb	0.97475785
201	0xbf619c35	-0.8812898
202	0xbcd1c59f	-0.025606928
203	0x3dfbaaed	0.12288461
204	0x3dfee8e3	0.12446763
205	0xbec1b44c	-0.37832868
206	0x3da48c85	0.080346145
207	0x3f823c63	1.0174679
208	0xbf3a52f1	-0.7278281
209	0x3df6608b	0.12030133
210	0xbe101137	-0.14069067
211	0xbf3a0b8c	-0.7267387
212	0x3e33089d	0.17483754
213	0xbf6f03e7	-0.9336533
214	0xbef5de3e	-0.4802112
215	0x3e64f48f	0.22358917
216	0xbf827d08	-1.0194407
217	0xbee0dbef	-0.43917796
218	0x3e9dda95	0.30830827
219	0xbf90beb8	-1.1308203
220	0xbf4eddc7	-0.80807155
221	0x3eaad7ef	0.3336787
222	0x3f87996d	1.0593697
223	0xbd77517a	-0.060380436
224	0x3dcc810b	0.099855505
225	0x3eedca5b	0.46443447
226	0x3f9afe84	1.2108922
227	0x3f2f4b2c	0.6847408
228	0xbdea13a0	-0.114295244
229	0x3e307a78	0.17234218
230	0xbb0852d6	-0.0020801327
231	0xbe5c9500	-0.21541214
232	0x3ecb5587	0.3971369
233	0xbf08b777	-0.53404945
234	0xbe91f3f5	-0.28506437
235	0x3e813c48	0.25241303
236	0x3f1181c7	0.5683865
237	0xbc94ae0a	-0.018149395
238	0xbeb60ad2	-0.3555513
239	0xbe9a237f	-0.30105206
240	0xbf0d3376	-0.5515665
241	0xbf1092ff	-0.564743
242	0x3f0e6fa5	0.55639106
243	0xbe356c0a	-0.17716995
244	0xbc0feb40	-0.008784115
245	0x3e59ea2b	0.21280734
246	0xbeb38947	-0.35065672
247	0xbf5c20ad	-0.8598736
248	0xbdaa21aa	-0.08307202
249	0x3f0f2aa5	0.55924445
250	0x3f151dc7	0.5824856
251	0xbce7bb69	-0.028287606
252	0xbf33f94f	-0.7030229
253	0x3dc19f8e	0.09454261
254	0xbf856624	-1.0421796
255	0xbf1a9bec	-0.6039417

update_node_embedding_layer_g.1.message_layer.weight f4 [32, 64]
0	0xbf9caad8	-1.2239637
1	0x3e4f6c59	0.20256175
2	0xbcbb9775	-0.022899369
3	0xbea68e00	-0.32530212
4	0xbf1c284d	-0.60998994
5	0x3db26ac1	0.08711768
6	0xbebab28c	-0.36464345
7	0x3f665373	0.89971083
8	0x3ec02564	0.37528527
9	0xbf7068ea	-0.93910086
10	0xbf04f1aa	-0.5193125
11	0x3d349ff4	0.044097856
12	0xbf8ee37b	-1.1163172
13	0xbe4da1fc	-0.20081323
14	0xbf070ec1	-0.5275689
15	0x3ec00dcd	0.3751053
16	0xbba95a2b	-0.0051682196
17	0x3e7794d2	0.24177864
18	0x3f1bc953	0.6085407
19	0x3e2d59d0	0.16928792
20	0xbf5c2f5a	-0.8600975
21	0xbf1daff2	-0.61596596
22	0x3f13aece	0.57688606
23	0x3d822c96	0.0635616
24	0x3f819572	1.0123732
25	0xbf73b232	-0.9519378
26	0x3eb44de2	0.3521567
27	0xbe647fc3	-0.22314362
28	0x3e2af286	0.16694078
29	0xbe7352b2	-0.23762015
30	0x3f0c86b3	0.54893035
31	0xbd791904	-0.060814872
32	0xbeb6e950	-0.35724878
33	0x3e89526c	0.26820695
34	0xbf3e9fe0	-0.744627
35	0xbf3b65f4	-0.73202443
36	0x3ed6bf9e	0.41943067
37	0xbf3a0c5d	-0.72675115
38	0x3e027ba1	0.12742473
39	0xbf13457b	-0.57527894
40	0xbe58d041	-0.21173193
41	0xbda5257c	-0.0806379
42	0xbf37f929	-0.71864563
43	0x3e32cff6	0.17462143
44	0x3ed43ac4	0.41451085
45	0x3df5426e	0.11975561
46	0x3e548af7	0.20756136
47	0x3b8cd8b9	0.0042982963
48	0xbf39a363	-0.72514933
49	0x3dc6b205	0.09701923
50	0x3eef6c3f	0.46762273
51	0xbea441a7	-0.3208134
52	0xbed704de	-0.419959
53	0xbf8f760c	-1.12079
54	0xbf10c23f	-0.56546396
55	0xbf00de92	-0.50339615
56	0xbc13761a	-0.009000326
57	0x3e95ff0a	0.29296142
58	0xbf730f18	-0.94944906
59	0xbf36d569	-0.7141939
60	0xbf35cb97	-0.7101378
61	0x3ed9f5bf	0.42570302
62	0x3ef96f9c	0.48717964
63	0xbf4affcd	-0.7929657
64	0x3f3f6064	0.74756455
65	0x3e9ce88f	0.30646178
66	0x3e3f2a3a	0.18668452
67	0x3ebed1f8	0.37269568
68	0xbf74d4c3	-0.9563715
69	0x3d59f475	0.053211648
70	0x3f38afd6	0.72143304
71	0xbeb7d40f	-0.35903975
72	0xbebb6e4a	-0.3660758
73	0xbf16af45	-0.5886119
74	0x3d97883c	0.073990315
75	0xbe8b8ce7	-0.27255937
76	0xbf2c4424	-0.67291474
77	0xbe475efb	-0.19469826
78	0xbf1bfded	-0.60934335
79	0xbf914d2a	-1.1351674
80	0x3f02aba9	0.5104318
81	0xbdf825df	-0.12116598
82	0x3f6b31e8	0.91873026
83	0x3e2f7d81	0.1713772
84	0x3e771ea8	0.24132788
85	0x3e791e10	0.24327874
86	0xbf3adf20	-0.7299671
87	0xbed3b34b	-0.41347727
88	0x3e9fe6aa	0.3123067
89	0xbf827846	-1.0192955
90	0xbec1d303	-0.37856302
91	0x3e2feace	0.17179415
92	0xbe8145cf	-0.25248572
93	0xbf1df41e	-0.6170062
94	0xbec5dc55	-0.38644662
95	0x3dd53562	0.104105726
96	0x3d6bd7b1	0.057578746
97	0x3f41f439	0.7576328
98	0x3f0e1229	0.5549646
99	0xbefdefb0	-0.4959693
100	0x3e134366	0.14381179
101	0xbe925285	-0.28578582
102	0xbd4a0ba2	-0.0493275
103	0xbead3787	-0.33831427
104	0x3d0843d7	0.033267822
105	0xbed66743	-0.41875657
106	0x3e2f9d56	0.17149863
107	0x3f3f468d	0.74717027
108	0x3e95e201	0.2927399
109	0xbedff243	-0.4373952
110	0x3d2cb350	0.042163193
111	0xbf30f1bd	-0.69118863
112	0xbf8085d8	-1.0040846
113	0x3d246e3a	0.040144183
114	0xbe032673	-0.12807636
115	0xbf1455e7	-0.57943577
116	0x3ee3a812	0.44464165
117	0xbeffcaa8	-0.49959302
118	0xbe9a8f5a	-0.30187494
119	0x3dcab359	0.09897489
120	0xbd540f1b	-0.05177222
121	0xbf94a579	-1.1612998
122	0xbf92b33d	-1.1460949
123	0x3eeefb1d	0.4667596
124	0xbf0fb3b9	-0.5613361
125	0x3eba63e3	0.36404333
126	0xbf02ed30	-0.5114317
127	0xbf3db1fc	-0.7409971
128	0xbf62becc	-0.8857238
129	0xbfdcdfaf	-1.7255763
130	0xbc759e23	-0.014991316
131	0xbe1bbce7	-0.1520878
132	0xbf092760	-0.53575706
133	0x3df37e43	0.11889317
134	0xbe9a844e	-0.30179065
135	0xbe84b251	-0.25917295
136	0x3f8caf0c	1.099092
137	0x3f074bc8	0.5285001
138	0xbee0cca9	-0.43906143
139	0x3f7656ed	0.9622639
140	0xbfa14148	-1.2598047
141	0x3e92e22f	0.2868819
142	0x3d29e1d9	0.04147515
143	0xbebfc236	-0.3745286
144	0xbd2dc702	-0.042426117
145	0x3ec16512	0.37772423
146	0xbf067fd3	-0.52538794
147	0x3e02e7fd	0.12783809
148	0xbf7d8f63	-0.99046916
149	0x3e07d585	0.13265045
150	0xbcf92d07	-0.030416979
151	0xbfb5abde	-1.4193075
152	0x3ed8e4a2	0.42361933
153	0x3e58eb75	0.2118357
154	0x3f2ee7ba	0.68322337
155	0x3ea50b1e	0.32235044
156	0x3eec7212	0.4618078
157	0x39bfb226	0.0003656309
158	0xbea5f9a1	-0.32417014
159	0x3ee3a6d9	0.44463232
160	0x3f0d0437	0.55084556
161	0x3f4621f2	0.77395546
162	0x3ed6ecae	0.41977447
163	0x3e6d5e7f	0.23180579
164	0xbf149613	-0.58041495
165	0xbec4b25d	-0.3841733
166	0xbf61f3ca	-0.8826262
167	0x3e1ab21a	0.15107003
168	0x3f1c3969	0.610251
169	0x3f1069e5	0.5641158
170	0x3e7bc5f9	0.2458724
171	0xbeb6b577	-0.35685322
172	0xbf7413d3	-0.9534275
173	0x3e916c81	0.28403094
174	0x3e025f82	0.12731746
175	0xbe9ccd42	-0.3062535
176	0xbee6fef2	-0.45116383
177	0xbf778de9	-0.9670091
178	0xbeb18c16	-0.3467719
179	0xbef1215b	-0.4709576
180	0x3eb1bdcc	0.34715116
181	0xbed7b1f2	-0.4212795
182	0xbf24cc23	-0.6437399
183	0x3eb455a7	0.35221598
184	0x3f16c28d	0.5889061
185	0x3ebd4bab	0.36971793
186	0x3f3b0836	0.73059404
187	0x3e61862b	0.22023837
188	0x3e179b6b	0.14805381
189	0x3e47f222	0.1952596
190	0x3e43f70b	0.19137208
191	0xbf3c7a92	-0.7362453
192	0x3da440f3	0.080202006
193	0x3e7f8e15	0.24956544
194	0x3f0c7902	0.54872143
195	0xbf9ffa2a	-1.2498219
196	0x3ebe7699	0.37199858
197	0xbeabd5ca	-0.33561546
198	0xbf698072	-0.91211617
199	0xbe0c1458	-0.13679636
200	0x3d576e82	0.052595623
201	0xbdea92fd	-0.11453817
202	0x3d940f9b	0.07229539
203	0xbfa3f203	-1.2808231
204	0x3ec5b3ad	0.38613644
205	0xbd5f1bdf	-0.05446994
206	0xbbeabef7	-0.007163878
207	0xbd816525	-0.0631812
208	0x3f112092	0.56690323
209	0xbf2a5fdd	-0.66552526
210	0x3ef733f4	0.48281825
211	0x3f0feb6f	0.5621862
212	0x3f2b7013	0.66967887
213	0x3f4e0aa6	0.80485
214	0xbf021131	-0.5080748
215	0xbf23b735	-0.63951427
216	0xbd3f3a40	-0.04668641
217	0xbe7198a3	-0.23593383
218	0xbe91b81d	-0.2846078
219	0x3f19c5d5	0.6006749
220	0x3d826fd1	0.063689835
221	0x3dd3e416	0.10346238
222	0xbfd0dada	-1.6316788
223	0x3eb180be	0.34668535
224	0xbfacc93b	-1.3498911
225	0xbf73e1fa	-0.9526669
226	0xbea4f15d	-0.32215396
227	0x3dd97e6f	0.106198184
228	0xbf28f365	-0.6599639
229	0xbf26b750	-0.6512346
230	0x3f66897a	0.9005352
231	0x3ec0793d	0.37592497
232	0x3da61723	0.08109882
233	0xbf44d3b9	-0.76885563
234	0xbf364aa7	-0.7120766
235	0x3f0120fb	0.5044095
236	0xbf34422a	-0.7041346
237	0xbf187352	-0.59550965
238	0xbe8aa954	-0.27082312
239	0xbeed2c6a	-0.46322948
240	0xbf0a54e1	-0.54035765
241	0x3ef13992	0.47114235
242	0xbe7d08ed	-0.24710436
243	0xbf575267	-0.8411011
244	0xbe1ed351	-0.15510298
245	0xbe4e6c3c	-0.20158476
246	0xbe8d5769	-0.2760575
247	0x3e70bf48	0.23510468
248	0xbe51620d	-0.2044756
249	0x3eafdac9	0.34346607
250	0xbf075949	-0.52870613
251	0x3e9ce2ee	0.30641884
252	0x3ecc8047	0.39941618
253	0xbf4277be	-0.7596396
254	0xbdebd1fe	-0.11514662
255	0xbf30d74b	-0.6907851

update_node_embedding_layer_g.1.update_layer.weight f4 [32, 64]
0	0x3eb61fcc	0.35571134
1	0xbf533349	-0.8250013
2	0xbdba7b33	-0.0910553
3	0xbf9cac76	-1.2240131
4	0x3f2df782	0.6795579
5	0x3f8e64de	1.1124532
6	0x3f444ab2	0.76676476
7	0x3dddc6e5	0.10828952
8	0x3e9dc4dc	0.30814254
9	0xbf5eb438	-0.8699374
10	0xbdee988c	-0.1165019
11	0xbf8a5799	-1.0807983
12	0xbe5b4d84	-0.21416289
13	0x3f5ec1a4	0.8701422
14	0xbe2fbbf7	-0.17161547
15	0x3e9c511f	0.3053064
16	0x3eaa72c5	0.33290687
17	0x3dbda0a7	0.09259158
18	0xbdd59e7a	-0.10430618
19	0xbe78354b	-0.2423908
20	0xbe820065	-0.25390926
21	0xbe542f3e	-0.20721146
22	0x3e4be333	0.19910888
23	0x3f7f7504	0.99787927
24	0xbe3afecd	-0.18261261
25	0xbf282f53	-0.6569721
26	0x3e771f05	0.24132927
27	0x3dcbc9c6	0.099505946
28	0x3df2cc7b	0.11855408
29	0xbdde75bb	-0.10862299
30	0x3f3b09a4	0.73061585
31	0xbdd53f08	-0.10412413
32	0x3e91920f	0.28431746
33	0xbf2e8b8a	-0.6818167
34	0x3e5bb352	0.21455124
35	0x3f14c8fd	0.58119184
36	0xbdb98c3c	-0.09059951
37	0xbd2b706e	-0.04185527
38	0x3f30e72d	0.69102746
39	0xbedd453f	-0.43216893
40	0xbe4c3ac1	-0.19944288
41	0xbe9c818d	-0.3056759
42	0xbeadc235	-0.3393723
43	0x3f21dcbe	0.6322745
44	0x3edfdf30	0.43724966
45	0xbf834a3e	-1.0257032
46	0x3e92dda5	0.28684726
47	0xbebffa9c	-0.37495887
48	0x3f4a06c5	0.7891658
49	0x3db892f5	0.09012405
50	0xbf1eb5c7	-0.6199612
51	0xbf09d45d	-0.53839666
52	0x3e87782a	0.26458865
53	0x3c805ab7	0.015668256
54	0xbeaa23e9	-0.33230522
55	0x3ec005fc	0.37504566
56	0xbecd8574	-0.4014088
57	0x3e3e3a2a	0.18576875
58	0xbf422baa	-0.75847876
59	0x3cdec720	0.02719456
60	0x3f7a5db1	0.9779921
61	0xbdb48000	-0.088134766
62	0xbf544f1d	-0.8293322
63	0x3ea703dd	0.32620135
64	0x3e751f2d	0.23937674
65	0x3f2c8fbb	0.67406815
66	0xbd3c5c77	-0.04598662
67	0xbf1423d7	-0.5786719
68	0xbd51beb8	-0.051207274
69	0x3f41a3a8	0.75640345
70	0xbe3ee2f7	-0.18641268
71	0xbdf2809b	-0.11840936
72	0x3fb5821d	1.4180332
73	0xbf5e6a8e	-0.8688134
74	0xbe78ba81	-0.24289896
75	0x3f1815ed	0.59408456
76	0xbe9ab2a7	-0.30214426
77	0xbf92017a	-1.1406701
78	0xbf2ca500	-0.6743927
79	0xbefccd9a	-0.49375612
80	0x3d991ea5	0.07476548
81	0x3ed5edc0	0.4178295
82	0xbd5f10ef	-0.05445951
83	0xbe179070	-0.14801192
84	0xbf016094	-0.5053799
85	0x3edaa479	0.42703608
86	0xbe34e872	-0.17666796
87	0xbe88eca3	-0.2674304
88	0xbea4b7e2	-0.3217154
89	0x3ee94d85	0.45566955
90	0x3f237704	0.6385348
91	0xbf5a8fd0	-0.8537569
92	0x3f09bac7	0.53800625
93	0xbd812844	-0.06306508
94	0x3f8ec439	1.1153632
95	0xbeba1a6b	-0.3634828
96	0x3f3fc2d7	0.74906677
97	0x3e3c65fe	0.18398282
98	0xbe5c9a51	-0.21543242
99	0x3e5c41b7	0.21509443
100	0x3efd4e66	0.49473876
101	0xbe07e417	-0.13270603
102	0x3de3284f	0.11091673
103	0x3f34a453	0.7056324
104	0xbf25e6b7	-0.6480517
105	0x3f07994b	0.5296828
106	0xbe8555a3	-0.26041898
107	0xbeb17127	-0.3465664
108	0xbec94a7a	-0.39314634
109	0x3f3c00c0	0.73438644
110	0x3fa91d0e	1.3211992
111	0xbf39e55e	-0.7261561
112	0x3c2c3b33	0.010512161
113	0xbf86ea9f	-1.0540351
114	0xbe91038b	-0.28323016
115	0xbf5fea18	-0.87466574
116	0x3f186ec7	0.5954403
117	0xbf39ba7a	-0.72550166
118	0xbe7c97fb	-0.24667351
119	0x3f6df788	0.9295583
120	0xbe533205	-0.2062455
121	0x3eab99b8	0.33515716
122	0x3f0e56b8	0.5560107
123	0x3e612ca0	0.2198968
124	0x3e3a2190	0.18176866
125	0xbee3823a	-0.44435292
126	0xbeb2f105	-0.34949508
127	0x3e0325b3	0.1280735
128	0xbf048257	-0.5176138
129	0xbe6c1a99	-0.23057021
130	0x3eab054f	0.33402488
131	0xbf1e8c25	-0.61932594
132	0xbec15b7c	-0.3776511
133	0xbf49e6cc	-0.78867793
134	0x3f39129c	0.7229402
135	0x3e590a8f	0.21195434
136	0x3dcd0e82	0.10012533
137	0x3ef5726d	0.47938862
138	0xbf0f7c3d	-0.5604895
139	0x3eb27cb9	0.3486078
140	0xbf2762f1	-0.6538535
141	0xbf25fe03	-0.64840716
142	0xbe8d55db	-0.27604565
143	0xbe8d5d25	-0.27610126
144	0xbd138d2a	-0.036023296
145	0x3f19371d	0.5984972
146	0x3e1f7465	0.15571745
147	0xbe9ff4fe	-0.31241602
148	0x3e694b35	0.22782595
149	0xbdc5e0d4	-0.09662023
150	0xbf168371	-0.58794314
151	0xbef53b19	-0.4789665
152	0xbe0fd5fe	-0.14046475
153	0xbf0fc426	-0.56158674
154	0xbdcd978a	-0.100386694
155	0xbe118d67	-0.14214097
156	0xbf56b3ad	-0.83867913
157	0xbea07f3f	-0.3134708
158	0xbe04ffaa	-0.12988153
159	0x3e8ecd04	0.2789079
160	0xbd9a8e37	-0.075466566
161	0x3f34d8f4	0.70643544
162	0x3e2bd459	0.16780223
163	0xbd01630b	-0.031588595
164	0x3ebec620	0.37260532
165	0xbe205da3	-0.1566072
166	0xbd0c42a1	-0.03424323
167	0xbf117b83	-0.5682909
168	0xbee926e8	-0.45537496
169	0xbf532448	-0.82477236
170	0xbe02fdb4	-0.12792093
171	0xbdaa42b8	-0.08313507
172	0xbe29b360	-0.16572332
173	0xbe68129d	-0.2266335
174	0x3dba0cb5	0.09084455
175	0xbe408b3c	-0.18803114
176	0x3f924b7f	1.142929
177	0x3d383e0d	0.04498105
178	0x3f490502	0.78523266
179	0x3e8bf76b	0.27337202
180	0xbe8fb4c8	-0.28067613
181	0x3f372397	0.7153868
182	0x3e80d435	0.251619
183	0xbf8a2ff9	-1.079589
184	0xbf0766f2	-0.5289146
185	0xbf94bab2	-1.1619475
186	0xbe0c3de7	-0.13695489
187	0x3c2ea8f5	0.0106604
188	0xbe154bb6	-0.14579663
189	0x3e9900e6	0.29883498
190	0xbe7e7341	-0.24848653
191	0x3e8175de	0.25285238
192	0xbf1316a4	-0.5745642
193	0x3f1464ec	0.57966495
194	0x3d977172	0.07394685
195	0xbdd1c02d	-0.10241733
196	0xbed141fa	-0.4087065
197	0xbf31498a	-0.69252837
198	0x3c7a7172	0.0152858365
199	0x3f693ebb	0.91111344
200	0xbed8ae82	-0.4232064
201	0xbee2edbe	-0.44322008
202	0x3e2dbc99	0.16966476
203	0x3e7abe71	0.2448671
204	0x3f3eea03	0.74575824
205	0xbe5999d3	-0.21250086
206	0xbdbb1426	-0.091347024
207	0x3f3ed451	0.7454272
208	0xbe9a3688	-0.3011973
209	0xbee2a88e	-0.44269222
210	0xbebe882b	-0.37213263
211	0xbdb1d99f	-0.08684086
212	0xbda25865	-0.07927016
213	0xbf3ee34f	-0.74565595
214	0xbf5a5dcd	-0.8529938
215	0xbebff735	-0.37493291
216	0x3f5de8bb	0.86683244
217	0x3d2546bb	0.040350657
218	0x3e9189a7	0.28425333
219	0x3dff62b9	0.12470002
220	0xbf3fb676	-0.7488779
221	0xbedd21d9	-0.43189886
222	0x3cfdaf5a	0.030967403
223	0xbe35772b	-0.1772124
224	0xbd761921	-0.06008256
225	0xbe3ffd8b	-0.18749063
226	0x3e3740f7	0.17895876
227	0x3d639ff8	0.05557248
228	0x3e46960f	0.1939318
229	0xbe8124fb	-0.25223526
230	0x3ec91512	0.39273888
231	0x3d8d9475	0.069130816
232	0x3e18d2cf	0.14924167
233	0x3eedfc49	0.4648154
234	0xbf24c73d	-0.64366513
235	0xbf0d6491	-0.5523158
236	0x3e50172a	0.20321336
237	0xbd712f57	-0.058883037
238	0xbe9086ae	-0.28227752
239	0x3f001e2c	0.5004604
240	0x3e3682e8	0.17823374
241	0x3ec1e356	0.37868756
242	0x3e95bf4d	0.29247513
243	0x3f067e74	0.525367
244	0x3f053f5a	0.5204979
245	0xbf2c05e0	-0.67196465
246	0x3f10160d	0.56283647
247	0xbe090af2	-0.13383082
248	0xbe9dd8a2	-0.3082934
249	0xbdb69881	-0.089158066
250	0xbdc964e6	-0.09833698
251	0xbefebd83	-0.4975396
252	0x3e34ea3b	0.17667477
253	0xbf25af5e	-0.64720714
254	0x3eebbe2e	0.46043533
255	0xbec506b1	-0.38481668
