experiments/GBMLGG_100/train/GBMLGG_100/s2v/network/network20000.pth (torch_old, 87608 bytes, 17 tensors)

node_init_embedding_layer_g.0.weight f4 [32, 2]
-0.75743866 -0.0031959082 0.74491054 -0.9664401 -0.08918942 0.40834355 1.0275494 -0.02508307
-0.47108474 0.40865898 0.5245247 0.03258426 0.70590365 0.036258068 0.06310939 0.9427865
-0.43795994 0.2902983 1.3432003 0.21300507 -0.17753184 -0.060414936 0.8338929 -1.1115712
0.20950176 -0.66825706 -0.080192216 0.14229566 -1.056304 -0.09425077 0.2236994 0.32969263
-0.54825604 0.6498213 0.14522259 0.03456632 -0.2404518 -0.5728278 -0.76399535 0.41192445
0.022531193 -0.48847345 -0.575764 -0.08394438 -0.19685085 -0.06735158 -0.7112181 -0.004680259
0.5594553 -1.2859915 0.2990345 0.18667918 0.5209853 -0.11889841 -1.2447382 0.20052128
0.17100501 0.08019344 0.0710558 -0.07688548 0.6302374 0.3249122 -0.058822937 -0.0068356516
00000000: 80e7 41bf 7172 51bb 75b2 3e3f 9e68 77bf
00000010: f1a8 b6bd 6812 d13e bd86 833f 037b cdbc
00000020: 0532 f1be c03b d13e 4047 063f 1377 053d
00000030: 1ab6 343f 5783 143d 7f3f 813d 755a 713f
00000040: 493c e0be fba1 943e fded ab3f 001e 5a3e
00000050: e8ca 35be a775 77bd 017a 553f f747 8ebf
00000060: a187 563e e512 2bbf d13b a4bd f4b5 113e
00000070: f834 87bf 8c06 c1bd 7511 653e 79cd a83e
00000080: 825a 0cbf b05a 263f 3bb5 143e 6a95 0d3d
00000090: ff38 76be d8a4 12bf 3395 43bf c3e7 d23e
000000a0: 5693 b83c 3119 fabe 4565 13bf 08eb abbd
000000b0: 4593 49be a0ef 89bd 6412 36bf dc5c 99bb
000000c0: 7638 0f3f 5f9b a4bf 0d1b 993e d428 3f3e
000000d0: 4b5f 053f 0281 f3bd 9553 9fbf 7355 4d3e
000000e0: f01b 2f3e 753c a43d b485 913d 2276 9dbd
000000f0: 3d57 213f e45a a63e 52f0 70bd 9afd dfbb

node_init_embedding_layer_p.0.weight f4 [32, 1]
-0.23542835 -0.27778438 0.22353978 -0.4236863 -0.056074504 -0.05794674 0.08438439 1.1442034
-0.33931577 -0.23223357 -0.38809833 -0.17536838 -0.43497062 0.09732105 0.070780635 0.9734875
0.28131032 0.52172595 -0.56300247 0.23472963 0.26911384 0.091096856 -0.69230026 -0.04508317
0.2071569 -0.55381507 0.7321925 0.7916728 0.5204532 -0.3681091 0.15811945 -0.038321722
00000000: 2114 71be c139 8ebe 9de7 643e 69ed d8be
00000010: 61ae 65bd 9059 6dbd b9d1 ac3d 4275 923f
00000020: ccba adbe a3ce 6dbe d3b4 c6be c593 33be
00000030: 78b4 debe 4250 c73d 70f5 903d 7a36 793f
00000040: e807 903e d58f 053f ee20 10bf f75c 703e
00000050: 4ac9 893e fd90 ba3d 973a 31bf 21a9 38bd
00000060: f020 543e d3c6 0dbf f870 3b3f 12ab 4a3f
00000070: 6c3c 053f cc78 bcbe 11ea 213e 3df7 1cbd

edge_embedding_layer_g.edge_embedding_NN.weight f4 [31, 1]
-0.47274733 0.38736525 -0.4683493 -0.6533548 0.34220722 -0.41619417 0.20242578 -0.005706541
-0.5228042 -0.17243387 0.29818696 0.2419092 -0.7517091 -0.5373524 0.43506637 -0.30385587
0.43432948 -0.20886357 -0.5960719 0.24697481 -0.00936628 -0.44719622 0.40873274 -0.14047045
-0.16190597 -0.32040024 0.07856341 0.7255238 -0.5410727 -0.6745824 0.418855
00000000: f00b f2be bd54 c63e 7bcb efbe 4342 27bf
00000010: c935 af3e 6717 d5be b448 4f3e effd babb
00000020: 7fd6 05bf 8192 30be f6ab 983e 0cb7 773e
00000030: 0270 40bf ed8f 09bf 05c1 de3e ff92 9bbe
00000040: 6f60 de3e 55e0 55be 2b98 18bf f7e6 7c3e
00000050: 0775 19bc e7f6 e4be 6b45 d13e 7cd7 0fbe
00000060: aeca 25be 800b a4be dae5 a03d eebb 393f
00000070: be83 0abf 6fb1 2cbf 2a74 d63e

edge_embedding_layer_g.edge_feature_NN.weight f4 [32, 32]
-0.19650789 0.75530326 -1.2839496 1.138182 -0.63428974 0.48238435 0.059351955 0.035198823
-0.15225194 -0.050590158 -0.5870066 -0.46082276 0.24721947 -0.899665 0.56257373 0.40407526
-0.29631597 -0.17378186 0.13119252 -0.95954657 0.55934113 -0.79175496 -0.0050351582 0.23894376
0.52919954 -0.65700793 -0.33741605 -0.5110453 -0.68185157 -0.11887052 -0.2276225 0.1855435
0.08680761 0.101480074 0.12588072 0.03508139 0.10836048 -0.9576194 -0.2007721 0.5863681
-0.025783334 0.5105505 0.5364467 0.77145445 -0.10511441 -0.27765444 -0.3740774 0.5045967
-0.9496133 -1.0604659 0.011471116 -0.0021789218 0.68359685 0.09382478 -0.44386613 0.0753512
-0.00012010492 0.16898853 0.40639514 0.09211893 -0.0824397 -0.3598504 -0.92197865 0.20033064
0.74965817 -1.1512817 -0.43097833 -0.1982571 -0.62137806 -0.1675413 0.06855259 0.3516781
0.39200044 -0.3730031 -0.8543161 0.15480815 0.41156635 0.55610836 -0.002324507 -0.6458401
0.4064183 -0.6044065 -0.25180876 0.3382397 0.12266128 -0.042376474 -0.4206865 -0.77774847
-0.6264384 -0.064874545 0.440996 0.72178406 0.20467691 -0.34601268 0.6411656 -0.19032398
-0.02590814 -0.44740516 -0.48930287 -0.52077955 -0.49926236 -0.7222905 1.2300247 -0.22967228
0.17812866 -0.11601375 0.567181 -0.60970867 0.6081127 -0.07084803 -0.10715153 -0.20236209
-0.4613201 0.6531968 0.24799833 -0.4226759 -0.58949375 -0.14647056 0.069400646 -0.3637478
-0.053012438 0.17248128 0.5572126 -0.80035377 -0.16485211 -0.3557751 0.34969756 0.7351456
-0.14317743 0.30622563 -0.508904 0.04623286 -0.48312244 0.95643014 -0.32583344 -0.027960472
-0.70384604 0.3212848 0.39837646 -0.55272424 -0.24453102 0.74999654 0.09043249 0.18271855
-0.5617856 0.5683386 -0.04256448 0.45422858 0.05466315 -0.39048186 1.0611887 -0.25460887
0.28912064 0.40969396 -0.5366679 -0.5431354 0.06151565 0.0059639243 -0.5691506 0.556186
0.7344882 0.26734906 -0.6482317 0.63977194 -1.0309458 0.3076848 -0.08892586 0.2514942
0.4757399 -0.8609191 -0.4564936 -0.64330596 0.57235396 0.10413448 -0.040933028 -0.95079964
0.38599065 0.6469501 0.8726262 0.5269764 0.9010383 -0.16940422 0.4521813 0.7537517
0.09761662 0.4953821 -1.2027423 -0.4640723 -0.18532515 0.48454854 0.04893537 0.31114745
-0.111121096 0.6816126 0.30167764 -0.3094097 0.4130811 0.5711363 -0.52437943 -0.73401284
0.98742515 0.2835259 0.47886387 -0.6573584 0.69255906 0.21269582 -0.2368877 0.31893712
-0.43861106 0.2387949 0.23955348 0.28333113 -0.14092089 -0.13150364 0.15936159 -0.110605925
-0.77350867 -0.6489894 -0.65691274 -0.87014353 -0.2826112 0.41208053 -0.10499649 0.24591957
-0.44543985 -0.87034523 -0.30839062 -0.70833004 0.15284745 -0.4600021 -0.30469793 -0.5825246
-0.115582876 0.4306325 -0.114047766 -1.1668016 0.62075967 -0.6741188 0.27022934 0.4519799
-0.22490045 0.36912632 0.9152695 -0.22368121 -0.22387463 0.8179727 0.51032245 -0.27627835
-0.036960687 -1.0580468 0.043114603 0.5152893 0.089147314 -0.033590723 -0.5591225 0.036674522
00000000: 5d39 49be 8e5b 413f 7658 a4bf f3af 913f
00000010: d060 22bf 15fb f63e 091b 733d a42c 103d
00000020: efe7 1bbe a037 4fbd 1146 16bf f6f0 ebbe
00000030: 1a27 7d3e 7250 66bf d504 103f f4e2 ce3e
00000040: bab6 97be dff3 31be 5557 063e d8a4 75bf
00000050: fb30 0f3f 74b0 4abf f8fd a4bb acad 743e
00000060: 9f79 073f ac31 28bf ccc1 acbe ddd3 02bf
00000070: d38d 2ebf 6372 f3bd df15 69be 1eff 3d3e
00000080: 30c8 b13d c9d4 cf3d e0e6 003e 81b1 0f3d
00000090: 19ec dd3d 8c26 75bf 3497 4dbe 381c 163f
000000a0: 9237 d3bc 70b3 023f 9254 093f 0a7e 453f
000000b0: 3946 d7bd b928 8ebe 1387 bfbe 402d 013f
000000c0: db19 73bf 59bd 87bf 59f1 3b3c 3ecc 0ebb
000000d0: 3400 2f3f 3527 c03d 6c42 e3be bb51 9a3d
000000e0: d7e0 fbb8 540b 2d3e 0613 d03e d9a8 bc3d
000000f0: 25d6 a8bd 503e b8be cb06 6cbf 7a23 4d3e
00000100: 99e9 3f3f 335d 93bf 31a9 dcbe e903 4bbe
00000110: a212 1fbf f28f 2bbe 4d65 8c3d 270f b43e
00000120: 48b4 c83e 43fa bebe 76b4 5abf 0786 1e3e
00000130: d3b8 d23e 1e5d 0e3f c256 18bb c755 25bf
00000140: 0f16 d03e 62ba 1abf 14ed 80be c12d ad3e
00000150: d635 fb3d f492 2dbd 3964 d7be 861a 47bf
00000160: 445e 20bf f2dc 84bd 3aca e13e d7c6 383f
00000170: d396 513e 9328 b1be 6e23 243f 4ae4 42be
00000180: 4f3d d4bc 4a12 e5be e885 fabe cf51 05bf
00000190: 519f ffbe 08e8 38bf 7371 9d3f 362f 6bbe
000001a0: 5c67 363e 9e98 edbd c632 113f de15 1cbf
000001b0: 46ad 1b3f c618 91bd 4372 dbbd 0238 4fbe
000001c0: 2632 ecbe e837 273f 46f3 7d3e fa68 d8be
000001d0: 10e9 16bf 61fc 15be ed21 8e3d 273d babe
000001e0: 9223 59bd ef9e 303e 7ca5 0e3f fce3 4cbf
000001f0: fece 28be 2728 b6be 8f0b b33e 8132 3c3f
00000200: 1b9d 12be 9bc9 9c3e 8847 02bf ab5e 3d3d
00000210: d35b f7be 9bd8 743f a4d3 a6be 5c0d e5bc
00000220: 412f 34bf 717f a43e 00f8 cb3e 567f 0dbf
00000230: 5766 7abe c6ff 3f3f ab34 b93d 921a 3b3e
00000240: 2ed1 0fbf a37e 113f 1858 2ebd a690 e83e
00000250: 78e6 5f3d 3ded c7be 08d5 873f 185c 82be
00000260: 9f07 943e 68c3 d13e 1163 09bf ec0a 0bbf
00000270: d6f7 7b3d 066d c33b dbb3 11bf 3562 0e3f
00000280: 6b07 3c3f fae1 883e 83f2 25bf 18c8 233f
00000290: 08f6 83bf dd88 9d3e c31e b6bd d9c3 803e
000002a0: 2e94 f33e 3265 5cbf 87b9 e9be b3af 24bf
000002b0: ca85 123f 7544 d53d 64a9 27bd 9b67 73bf
000002c0: 91a0 c53e 869e 253f 6e64 5f3f ede7 063f
000002d0: 72aa 663f 4d78 2dbe 4f84 e73e dff5 403f
000002e0: 39eb c73d b9a2 fd3e 76f3 99bf e29a edbe
000002f0: e0c5 3dbe bf16 f83e 7470 483d b84e 9f3e
00000300: 7593 e3bd 2a7e 2e3f 7e75 9a3e f36a 9ebe
00000310: 5e7f d33e fd35 123f bb3d 06bf 44e8 3bbf
00000320: e5c7 7c3f 4f2a 913e a52d f53e a448 28bf
00000330: 8d4b 313f efcc 593e b092 72be ba4b a33e
00000340: a191 e0be a686 743e 824d 753e c710 913e
00000350: 914d 10be e4a8 06be af2f 233e 5c85 e2bd
00000360: aa04 46bf 2b24 26bf 6f2b 28bf bac1 5ebf
00000370: 6ab2 90be 38fc d23e 6608 d7bd 57d2 7b3e
00000380: b110 e4be f2ce 5ebf 60e5 9dbe 1e55 35bf
00000390: 0b84 1c3e 6585 ebbe 5e01 9cbe 5520 15bf
000003a0: b7b6 ecbd dd7b dc3e e091 e9bd c159 95bf
000003b0: 1bea 1e3f 0d93 2cbf 805b 8a3e e969 e73e
000003c0: 4e4c 66be 20fe bc3e 1a4f 6a3f b00c 65be
000003d0: 643f 65be a966 513f 7ea4 023f 5b74 8dbe
000003e0: 1764 17bd 146e 87bf f098 303d 00ea 033f
000003f0: de92 b63d 6d96 09bd a722 0fbf 0638 163d

edge_embedding_layer_p.edge_embedding_NN.weight f4 [31, 2]
0.17018048 -0.30515912 0.49325806 -0.97494656 0.44496706 0.42477176 -0.050118346 -0.54322016
0.5136474 0.50715095 -0.4364246 0.5644174 0.6929043 -0.31367213 -0.37797806 1.0259277
0.27214113 -0.5938702 -0.60786396 -0.8641893 -0.06325264 0.2988708 0.7929502 0.23110044
-1.0718244 -0.86279804 -0.049632743 -0.92036575 0.2831721 0.024789099 -0.08004539 -0.45851898
0.31061158 -0.6881025 0.47853783 0.0858669 -0.0042913943 -0.11482403 -0.40428397 -0.4617068
0.60642856 -1.326922 -0.15045206 -0.991183 -0.07197479 -0.27332735 0.64238745 -0.008458125
-0.07143243 -0.35717362 0.19714446 0.0149670495 -0.47266138 0.4996003 0.0030380625 -0.053262282
-0.39436674 -0.23673013 -0.18699528 0.045043655 -0.44278938 -0.21804246
00000000: cb43 2e3e d13d 9cbe 528c fc3e 1996 79bf
00000010: b9d2 e33e af7b d93e e548 4dbd 7a10 0bbf
00000020: 657e 033f a5d4 013f 0c73 dfbe a97d 103f
00000030: 2d62 313f a299 a0be 5786 c1be 9951 833f
00000040: 1556 8b3e e107 18bf f99c 1bbf 833b 5dbf
00000050: 9a8a 81bd 9805 993e c9fe 4a3f 98a5 6c3e
00000060: 8b31 89bf 55e0 5cbf b44b 4bbd 179d 6bbf
00000070: effb 903e 8212 cb3c d6ee a3bd 00c3 eabe
00000080: 7b08 9f3e 7c27 30bf e902 f53e fcda af3d
00000090: d39e 8cbb dc28 ebbd 4ffe cebe d564 ecbe
000000a0: e73e 1b3f 95d8 a9bf 1b10 1abe 2bbe 7dbf
000000b0: 8567 93bd 90f1 8bbe 8173 243f f393 0abc
000000c0: 2a4b 92bd 76df b6be 3de0 493e 5b38 753c
000000d0: ac00 f2be 9ccb ff3e 3b1a 473b 8d29 5abd
000000e0: 70ea c9be 6269 72be b17b 3fbe b27f 383d
000000f0: 4ab5 e2be 8646 5fbe

edge_embedding_layer_p.edge_feature_NN.weight f4 [32, 32]
0.8532391 -0.34129903 0.8816128 0.32516104 -0.07628087 -0.49543568 -0.7896931 0.116569735
-0.52048665 0.9897353 0.10517597 -0.7074691 -0.17480747 -0.1679435 -0.40769738 0.48099282
-0.114418834 0.42969996 -0.17443614 -0.1689495 0.23460853 -0.30771178 -0.019034656 0.17901285
-0.032950763 -0.50687855 -0.14298631 -0.8479704 0.61732763 -0.32835186 0.26695368 -1.0192311
0.1707494 -2.042722 0.41260847 -1.1568896 0.41967815 0.46010503 -0.3306977 -0.11319105
-1.8484976 -0.5807476 -0.18549703 -0.6538276 -0.31808054 0.60200053 0.70863944 0.12141943
-0.9901524 0.9275511 -1.2200776 0.32444757 -0.77495193 0.4139909 -0.5238029 -0.56602097
0.8098946 0.7539052 0.22295853 0.7450731 -0.39950186 -0.1828444 0.22405791 -0.1865163
-0.3052326 -1.1835027 -0.4576807 1.2316369 -0.15381487 -0.48365045 -1.055532 0.0096970415
0.57017535 0.21114449 0.13194397 0.36260092 -0.29342976 -0.4403545 -0.2057571 0.5001916
0.30828056 0.0071083796 0.23164903 0.07361032 -0.030646663 0.6150303 0.41189423 -1.4709927
-0.62996066 -0.31639174 -0.08321593 0.1428043 0.716025 -0.29216862 0.39132452 0.2215832
-0.6036287 -0.2290096 -0.54103535 0.9255409 -0.8564561 -0.70553 -0.59911186 -0.17913455
0.22229777 -0.034628868 -0.18561476 -0.22359817 -0.5816851 0.95784485 0.026693135 -0.4749531
-1.2898978 -0.41152456 -0.4808007 0.9765604 0.3644415 0.40748703 -0.21713169 0.01774419
0.47861126 0.28391543 0.56803966 0.119524226 0.29334342 0.58359075 -0.50787544 -0.028293822
0.11523326 -0.40016207 0.5784557 -0.43779078 0.6266645 -0.12013991 -0.15991147 -0.6900811
-0.46256906 -0.6461555 0.22860543 0.65616435 -0.4613571 -0.25667205 -0.5782611 0.28907326
-0.07356084 0.9894312 -0.77014023 0.1310803 -1.9926498 0.026457956 -0.16370484 0.14116876
0.57027346 -0.74259704 0.25978065 0.27283034 0.0723296 0.2818606 0.26944193 -0.13735853
0.050613858 -0.6465354 -0.09976528 1.02923 0.99248844 -0.016360117 0.24503542 0.10600889
-0.16473584 -0.28763974 -0.315786 -0.41700697 0.5770446 0.5453711 -0.18834282 0.45304587
-0.621793 0.41646594 -0.3611733 -0.35698602 -1.2769041 0.34675184 0.6714159 -0.19634688
0.013138426 0.6248236 0.16048591 -0.2985968 -0.06712794 -0.32816884 -0.0631504 0.018470254
0.13554302 -0.74348664 0.0869978 -0.3567243 -0.8888665 -1.0312233 -0.7855816 0.085899286
-0.576715 0.24923986 1.0376494 -0.56880337 0.78157926 -0.56541395 -0.4689558 0.44197324
0.42259663 -1.140529 -0.8478029 -0.14184828 -0.6245433 -0.40711257 -0.56613994 -1.671262
0.13497618 -1.5322886 -0.23362322 0.7232049 0.7596853 0.0902849 0.15589947 0.4832167
-0.69489366 -0.34589368 0.8058046 -1.3287617 1.5647628 -0.6740235 0.34768626 0.26386377
0.9128402 0.06773184 -0.40727872 -0.18165813 -0.08183438 0.21757923 0.3461671 -0.23785622
-0.18749733 -0.5676723 -0.03836357 -0.027325112 0.2178708 0.22979188 1.0056292 0.5255368
-0.7527149 0.41880748 -0.46101928 0.36421093 -0.96939623 0.008852841 0.42000747 -1.3712655
00000000: e16d 5a3f bfbe aebe 60b1 613f 827b a63e
00000010: 2539 9cbd bfa9 fdbe 5429 4abf 1dbc ee3d
00000020: 9d3e 05bf 4b5f 7d3f 8066 d73d b21c 35bf
00000030: bb00 33be 62f9 2bbe b6bd d0be b144 f63e
00000040: 6c54 eabd a201 dc3e 639f 32be 1901 2dbe
00000050: 383d 703e 668c 9dbe 91ee 9bbc 254f 373e
00000060: 61f7 06bd cbc2 01bf 016b 12be 9714 59bf
00000070: 2f09 1e3f bc1d a8be 27ae 883e 2a76 82bf
00000080: eed8 2e3e f5bb 02c0 6b41 d33e f514 94bf
00000090: 0ee0 d63e e392 eb3e 3551 a9be b6d0 e7bd
000000a0: 929b ecbf e0ab 14bf eff2 3dbe 3f61 27bf
000000b0: 74db a2be b51c 1a3f 6569 353f c0aa f83d
000000c0: a17a 7dbf fd73 6d3f 812b 9cbf fe1d a63e
000000d0: 4063 46bf 9ef6 d33e f217 06bf c0e6 10bf
000000e0: 4155 4f3f eeff 403f 3e4f 643e 1cbd 3e3f
000000f0: 828b ccbe 903b 3bbe 706f 653e 21fe 3ebe
00000100: 7347 9cbe 047d 97bf 2055 eabe 47a6 9d3f
00000110: a581 1dbe 08a1 f7be ac1b 87bf 57e0 1e3c
00000120: 03f7 113f 4336 583e 521c 073e d4a6 b93e
00000130: 6d3c 96be 2576 e1be fdb1 52be 8f0c 003f
00000140: f3d6 9d3e 69ed e83b 6735 6d3e 02c1 963d
00000150: b60e fbbc a072 1d3f cde3 d23e 7d49 bcbf
00000160: 1a45 21bf 19fe a1be 1d6d aabd 4a3b 123e
00000170: 6a4d 373f 2097 95be b05b c83e b5e6 623e
00000180: 6987 1abf 7e81 6abe 4b81 0abf 40f0 6c3f
00000190: b540 5bbf 9d9d 34bf 655f 19bf 0c6f 37be
000001a0: 07a2 633e 00d7 0dbd cc11 3ebe ebf6 64be
000001b0: 51e9 14bf 5235 753f 90ab da3c 0d2d f3be
000001c0: 5f1b a5bf 59b3 d2be 822b f6be ddff 793f
000001d0: 1498 ba3e 24a2 d03e c557 5ebe 435c 913c
000001e0: 890c f53e 5d5d 913e 0c6b 113f 1ec9 f43d
000001f0: 1c31 963e 3466 153f 2004 02bf 72c8 e7bc
00000200: 6aff eb3d 0be2 ccbe ac15 143f 1d26 e0be
00000210: 166d 203f ea0b f6bd d5bf 23be 28a9 30bf
00000220: dad5 ecbe 726a 25bf 8b17 6a3e 63fa 273f
00000230: ff36 ecbe 856a 83be eb08 14bf 6901 943e
00000240: 11a7 96bd 5d4b 7d3f e927 45bf ea39 063e
00000250: 260f ffbf 5bbe d83c 3ea2 27be 8b8e 103e
00000260: 71fd 113f d71a 3ebf f801 853e 6bb0 8b3e
00000270: 8b21 943d 0850 903e 4bf4 893e b7a7 0cbe
00000280: 7a50 4f3d 5883 25bf bd51 ccbd cfbd 833f
00000290: b913 7e3f a705 86bc 91ea 7a3e 301b d93d
000002a0: 83b0 28be 8445 93be b4ae a1be f081 d5be
000002b0: 32b9 133f 719d 0b3f f1dc 40be a1f5 e73e
000002c0: d32d 1fbf 063b d53e b5eb b8be dfc6 b6be
000002d0: 9871 a3bf 7589 b13e eae1 2b3f 280f 49be
000002e0: 8d42 573c 70f4 1f3f 6b56 243e aee1 98be
000002f0: 607a 89bd bf05 a8be ff54 81bd ee4e 973c
00000300: cacb 0a3e 2455 3ebf e72b b23d 91a4 b6be
00000310: c18c 63bf 20ff 83bf e01b 49bf f7eb af3d
00000320: 98a3 13bf bc38 7f3e b2d1 843f 199d 11bf
00000330: 9415 483f f8be 10bf fa1a f0be 514a e23e
00000340: 965e d83e dbfc 91bf 9c09 59bf ad40 11be
00000350: 12e2 1fbf 0f71 d0be 8cee 10bf eaeb d5bf
00000360: 3237 0a3e 0822 c4bf ed3a 6fbe f523 393f
00000370: bc7a 423f 4ae7 b83d 1ca4 1f3e 2e68 f73e
00000380: 8de4 31bf fa18 b1be 3649 4e3f dd14 aabf
00000390: 264a c83f ce8c 2cbf ef03 b23e 2719 873e
000003a0: e5af 693f feb6 8a3d d686 d0be 9704 3abe
000003b0: c998 a7bd 17cd 5e3e d03c b13e 9590 73be
000003c0: 4dff 3fbe f952 11bf 1e23 1dbd ead8 dfbc
000003d0: 8619 5f3e 904e 6b3e 75b8 803f 9489 063f
000003e0: ecb1 40bf ef6d d63e b80a ecbe db79 ba3e
000003f0: 5a2a 78bf 820b 113c 380b d73e a185 afbf

update_node_embedding_layer_g.0.message_layer.weight f4 [32, 64]
-0.3327985 0.7969703 -1.0936015 -0.22108485 0.74974704 0.0064336364 -0.28272858 -1.2726744
0.057327937 0.35257828 0.18632862 0.09841275 0.2151689 -0.29713112 -0.15895972 -0.43360734
0.2679949 -0.6881296 -0.08748273 -0.54234946 1.6605082 -0.6906749 -0.08557944 0.19234103
-0.02645555 0.18559435 0.07922467 -0.009138693 -0.099075295 0.23370562 0.14403526 0.24586524
-1.098055 -0.4074366 0.35510665 0.37683034 -0.20117567 0.5048315 0.33236754 -0.22295628
0.46769014 -1.1715063 -0.6994219 0.071551666 0.37437224 0.5250613 -0.22139414 -0.06641044
-0.040129013 -0.10590028 -0.38488713 0.05906313 0.07542852 -0.17968166 -0.4700298 -0.015213689
0.40013614 0.5647837 -0.18935929 -0.15435849 0.33886525 -0.93776906 0.35615495 -0.477653
-0.15238865 0.10135719 0.57866216 -0.12531783 0.72157747 -0.34285066 0.36185175 0.6077702
0.54063797 -1.0937798 0.047894694 -0.9642869 -0.2522177 -0.4690001 -1.0873703 -0.26725948
-0.4849864 0.08106178 -0.79230535 0.9888404 -0.7355737 0.7889491 -0.4234617 0.2516577
-0.024375508 0.24698451 0.1744159 0.21101582 0.5599795 0.73049843 0.22851013 -0.57207555
-0.9108615 -0.6929307 -0.73919386 -1.6572434 -0.1932862 0.54453164 -0.25897166 0.118565515
0.13435641 0.47422567 -0.7452693 -0.71776474 -0.20890903 -0.31943816 -0.24180067 6.4153037e-06
-0.18186931 -1.9367827 -0.5598658 -0.66973335 -0.71740174 0.94525826 0.41470483 -0.29593223
-0.73724234 -0.21653177 -0.19731764 0.26234576 0.80815816 -0.28561935 0.12603183 1.078785
0.1723756 -0.8217529 -0.16473058 0.4635583 -1.1220908 0.27469954 -0.76717263 -0.19751215
0.32243732 -0.4000384 0.7363037 -0.31617537 -0.43658903 0.8134533 -0.4912443 -0.0429667
-0.20905805 -0.7441383 -0.57906467 -0.1014333 -0.0022065816 -0.43017817 0.3242454 -0.29131007
1.1733168 -0.16789275 0.5756815 -1.4541931 -0.12760203 1.1938924 0.6045303 0.017110651
1.021407 0.13249661 -0.3228501 0.44565463 -0.5246063 1.1519264 0.044009592 -0.33745182
-0.13980041 -0.24683926 -0.3299458 -0.46828014 0.49789044 0.00355312 -0.026210733 0.85563785
0.8806784 -0.30018023 -0.627399 0.30180687 -0.6230573 0.4161256 0.24025881 0.65433294
-0.77594346 0.13681038 -0.10981609 0.5316333 1.0326737 0.39358962 -0.08582028 0.6951961
0.1529941 0.6508407 -0.19919808 -0.7483903 0.1305875 -0.3165563 -0.15476383 0.24669626
-0.14141509 0.19653691 -0.51922834 -0.65048563 -0.1794285 0.22536756 -0.17970876 -0.39629802
-1.3926013 0.14169775 -0.55152863 -0.070994064 -1.0029415 -0.06806544 0.21897316 0.40355173
-0.4527203 0.9819854 0.13885978 -0.57845306 -0.16298191 0.29057714 -0.094297074 0.093182065
-0.03972652 -0.3048097 0.27949086 -0.10784038 -0.62235147 0.4866094 -0.59287286 -0.3502665
-0.30820546 -0.03859029 -0.65030366 0.6198016 -0.13940272 -0.7600167 0.04234913 -0.3647393
-0.29931268 0.42257702 0.72842926 -0.08614354 -0.8728083 -0.00911504 -0.4214131 0.29080486
-0.9656065 -0.53597665 0.60372645 -0.047328945 0.33881065 0.43915015 -0.02266471 -0.45040807
00000000: 9164 aabe 3f06 4c3f 22fb 8bbf 1164 62be
00000010: 6cef 3f3f 41d1 d23b cdc1 90be ffe6 a2bf
00000020: b3d0 6a3d 2485 b43e eecc 3e3e a08c c93d
00000030: 3c55 5c3e 9221 98be 56c6 22be c801 debe
00000040: a136 893e 4329 30bf 252a b3bd 6ad7 0abf
00000050: 888b d43f 12d0 30bf 4644 afbd 0cf5 443e
00000060: 4fb9 d8bc 720c 3e3e 8b40 a23d 75ba 15bc
00000070: fde7 cabd 8750 6f3e fb7d 133e 19c4 7b3e
00000080: 118d 8cbf 889b d0be 8ad0 b53e e8ef c03e
00000090: ff00 4ebe a33c 013f 142c aa3e a74e 64be
000000a0: 1575 ef3e ebf3 95bf 500d 33bf ae89 923d
000000b0: b8ad bf3e 6b6a 063f 25b5 62be 3202 88bd
000000c0: 525e 24bd 3fe2 d8bd ed0f c5be 2eec 713d
000000d0: 457a 9a3d 78fe 37be bfa7 f0be d642 79bc
000000e0: a5de cc3e aa95 103f 67e7 41be 2710 1ebe
000000f0: bf7f ad3e a211 70bf f159 b63e ef8e f4be
00000100: c50b 1cbe 5c94 cf3d 3423 143f 5153 00be
00000110: 4db9 383f 1f8a afbe a244 b93e d496 1b3f
00000120: 4067 0a3f fa00 8cbf 3a2d 443d 82db 76bf
00000130: ae22 81be c820 f0be f32e 8bbf 3cd6 88be
00000140: 2350 f8be b803 a63d 86d4 4abf a524 7d3f
00000150: 8f4e 3cbf 91f8 493f f9cf d8be 47d9 803e
00000160: 25af c7bc 82e9 7c3e 159a 323e 8814 583e
00000170: d15a 0f3f f201 3b3f 8ffe 693e 8b73 12bf
00000180: 382e 69bf e863 31bf cf3b 3dbf 8d20 d4bf
00000190: d1ec 45be 6d66 0b3f ef97 84be 7ad2 f23d
000001a0: ba94 093e b5cd f23e f8c9 3ebf 6ebf 37bf
000001b0: 40ec 55be 668d a3be 989a 77be 0a43 d736
000001c0: f33b 3abe 7fe8 f7bf 5d53 0fbf a573 2bbf
000001d0: a4a7 37bf 72fc 713f 3154 d43e 6e84 97be
000001e0: eabb 3cbf 81ba 5dbe a30d 4abe 2f52 863e
000001f0: 74e3 4e3f b33c 92be 7d0e 013e a015 8a3f
00000200: 3b83 303e 665e 52bf 22af 28be 8357 ed3e
00000210: aca0 8fbf 6ba5 8c3e 6d65 44bf a040 4abe
00000220: 8116 a53e d5d1 ccbe 667e 3c3f bde1 a1be
00000230: 9988 dfbe 7a3e 503f 5f84 fbbe dafd 2fbd
00000240: 5013 56be d97f 3ebf 953d 14bf 43bc cfbd
00000250: 4c9c 10bb 5040 dcbe 7e03 a63e 9826 95be
00000260: 3f2f 963f 14ec 2bbe dd5f 133f 0023 babf
00000270: 1baa 02be 77d1 983f 7fc2 1a3f a32b 8c3c
00000280: 77bd 823f 31ad 073e 9c4c a5be d82c e43e
00000290: 994c 06bf 5372 933f 6743 343d 7cc6 acbe
000002a0: d727 0fbe 6ec3 7cbe a8ee a8be 6ac2 efbe
000002b0: 7feb fe3e 76db 683b e4b7 d6bc 150b 5b3f
000002c0: 2474 613f 39b1 99be 399d 20bf 6e86 9a3e
000002d0: af80 1fbf 6a0e d53e 6806 763e 5d82 273f
000002e0: 3ba4 46bf 0518 0c3e 42e7 e0bd 1f19 083f
000002f0: a72e 843f 9484 c93e 8bc2 afbd 5ff8 313f
00000300: 7caa 1c3e 7f9d 263f 95fa 4bbe 8296 3fbf
00000310: bbb8 053e ab13 a2be 697a 1ebe f29d 7c3e
00000320: 1ecf 10be f940 493e 26ec 04bf 3a86 26bf
00000330: 1bbc 37be c1c6 663e 9305 38be 93e7 cabe
00000340: c240 b2bf 3719 113e fb30 0dbf 5665 91bd
00000350: 6360 80bf e565 8bbd 803a 603e 559e ce3e
00000360: f5ca e7be 6563 7b3f 4231 0e3e 8015 14bf
00000370: bbe4 26be 87c6 943e d31e c1bd 3dd6 be3d
00000380: 47b8 22bd 0410 9cbe 6d19 8f3e 6bdb dcbd
00000390: 6d52 1fbf de24 f93e 84c6 17bf 2156 b3be
000003a0: 1bcd 9dbe da10 1ebd 4d7a 26bf 51ab 1e3f
000003b0: 96bf 0ebe 7490 42bf 4876 2d3d 1cbf babe
000003c0: 833f 99be 045c d83e 577a 3a3f 066c b0bd
000003d0: 5d70 5fbf 4057 15bc 75c3 d7be 60e4 943e
000003e0: fd31 77bf c435 09bf d18d 1a3f ffdb 41bd
000003f0: 9778 ad3e 4ad8 e03e 58ab b9bc e39b e6be

update_node_embedding_layer_g.0.update_layer.weight f4 [32, 64]
-0.8307098 0.28817025 0.19144443 0.033490036 0.0007034729 -0.52951074 -0.67917675 -0.4004844
-0.35945722 0.6827486 0.4035109 -0.62186706 0.05075525 -0.936371 -0.41993922 0.24133076
0.1367921 -0.6301565 0.70887065 -0.49546015 -0.6026175 0.37759215 0.104661256 0.51786214
0.22442733 -0.5750509 0.01254142 -0.15707707 0.054058857 0.5479839 -0.028980616 -0.06636165
0.37781963 -0.26015535 -0.3888542 -0.4770539 0.5328745 -0.34594724 0.5521919 -0.18448102
-0.4838276 -0.7688437 -0.49178872 0.2258142 0.116218776 0.43223444 -0.6299592 -0.37543246
0.351939 -0.2598284 -0.68501014 -0.36715487 0.33556646 -0.57885486 -1.1512535 -0.90139884
0.4275065 0.24981026 0.12383814 0.18084101 0.23968971 0.25873324 0.70998734 0.32474163
0.34392196 -0.123297386 -0.7048165 -0.7380117 0.66160417 0.56980246 -0.027027816 0.40177295
0.33994663 -0.21639772 -0.12387785 0.35183084 -0.65639955 -0.026068732 0.21062118 -0.20990491
0.13680497 0.15387838 0.042149074 -0.97048855 -0.48415768 0.01074634 -0.013931302 0.5988683
-0.2491789 0.1480413 -0.6231209 0.009036266 -0.31338263 -0.83347625 0.27694348 0.13495007
0.12819177 -0.00372668 0.22788548 0.3581701 0.38482544 -0.33717605 0.68615276 0.5924343
-0.122677825 0.14206626 0.06610337 -0.03256021 0.15892161 -0.17372562 -0.23557621 -0.0069365385
0.6515118 -0.5378965 0.17910084 0.40574586 0.6813091 -0.54603076 -0.7471924 -0.41748053
0.9566804 0.27178922 -0.22941865 -0.64949936 0.27405515 0.2911451 0.12568207 -0.2241047
1.3175782 0.09675516 0.14129324 -0.5810648 -0.014436338 -0.5118694 0.6353789 -0.5142704
-0.21859477 -0.11038635 0.75125265 0.15467966 -0.4751996 0.42274892 -0.6772651 0.45720753
-0.21595067 -0.00086054485 -0.4388891 -0.13224313 0.17940441 -0.11813125 -0.8359269 -0.60478795
-0.4261601 0.26027125 0.39176822 -0.29719028 -0.30841696 0.15352573 -0.9300978 -0.2954315
-0.3811509 -0.508998 -0.60106766 0.62463903 0.77569395 0.042444818 -0.44161084 -0.081555694
-0.42017022 -0.2719093 -0.07622939 -0.80445266 0.6040394 0.00020829734 0.73840696 0.2843985
0.54221165 -0.6158064 0.6255949 1.9200729 0.11157599 -0.5362548 -0.91116035 0.38957673
-0.14218135 0.32381913 -0.48141977 -0.21549298 -0.6414004 0.3048602 -0.320937 -0.5979579
-1.165997 -0.2977954 1.0125475 -0.5362757 0.64238626 0.3420466 -0.3894061 0.89051163
0.9979842 -0.87434125 -0.025606928 0.12328986 0.12446763 -0.3592147 0.080346145 1.033286
-0.705751 0.09257254 -0.14069067 -0.7062174 0.17483754 -0.9336533 -0.4802112 0.22358917
-1.0194407 -0.42803437 0.29265743 -1.1106105 -0.78763527 0.32276723 1.071764 -0.049698934
0.099855505 0.48876628 1.2320782 0.6847408 -0.08598902 0.17878914 -0.0020801327 -0.20199318
0.3971369 -0.50615764 -0.28211555 0.2616872 0.5683865 -0.018149395 -0.3555513 -0.30105206
-0.5515665 -0.564743 0.55639106 -0.17916629 -0.008784115 0.18460079 -0.32157198 -0.8598736
-0.08862626 0.55924445 0.5668069 -0.028287606 -0.7030229 0.09454261 -0.961794 -0.6039417
00000000: 66a9 54bf 0d8b 933e 020a 443e d92c 093d
00000010: 4469 383a 048e 07bf 87de 2dbf 4b0c cdbe
00000020: c70a b8be 9dc8 2e3f fb98 ce3e ae32 1fbf
00000030: bde4 4f3d 03b6 6fbf 4602 d7be 691f 773e
00000040: 3a13 0c3e f051 21bf 8c78 353f f4ac fdbe
00000050: 2445 1abf c253 c13e a458 d63d 9d92 043f
00000060: 47d0 653e 8936 13bf 877a 4d3c d0d8 20be
00000070: d26c 5d3d ac48 0c3f c268 edbc 9ee8 87bd
00000080: 9371 c13e 1533 85be e617 c7be 6940 f4be
00000090: 776a 083f ff1f b1be 735c 0d3f 98e8 3cbe
000000a0: 40b8 f7be f1d2 44bf bbcb fbbe d63b 673e
000000b0: 1c04 ee3d d54d dd3e 0245 21bf af38 c0be
000000c0: 5931 b43e 3a08 85be d35c 2fbf b9fb bbbe
000000d0: 5ecf ab3e d52f 14bf 465c 93bf 13c2 66bf
000000e0: 22e2 da3e 43ce 7f3e da9e fd3d 632e 393e
000000f0: 3871 753e af78 843e bbc1 353f 8944 a63e
00000100: 8a16 b03e 5783 fcbd db6e 34bf 56ee 3cbf
00000110: e45e 293f 93de 113f 7069 ddbc 2fb5 cd3e
00000120: 7c0d ae3e 5d97 5dbe acb3 fdbd 2c23 b43e
00000130: cd09 28bf 188e d5bc 14ad 573e 50f1 56be
00000140: 9a16 0c3e 4b92 1d3e 82a4 2c3d f071 78bf
00000150: 84e3 f7be 6b11 303c 1e40 64bc 6f4f 193f
00000160: c128 7fbe 2398 173e da84 1fbf d90c 143c
00000170: b073 a0be b35e 55bf 89cb 8d3e 5a30 0a3e
00000180: b444 033e 513b 74bb d05a 693e 1262 b73e
00000190: d707 c53e 57a2 acbe b5a7 2f3f c6a9 173f
000001a0: 833e fbbd d179 113e 3461 873d db5d 05bd
000001b0: 59bc 223e 21e5 31be e43a 71be e74b e3bb
000001c0: 7ac9 263f 96b3 09bf 3666 373e ecbd cf3e
000001d0: 466a 2e3f acc8 0bbf 0048 3fbf 02c0 d5be
000001e0: 02e9 743f f527 8b3e b9ec 6abe 9745 26bf
000001f0: f550 8c3e f810 953e cdb2 003e b47b 65be
00000200: 67a6 a83f 9227 c63d 2daf 103e aac0 14bf
00000210: 6486 6cbc df09 03bf 31a8 223f 3aa7 03bf
00000220: 4fd7 5fbe 3d12 e2bd 1852 403f 5864 1e3e
00000230: 5d4d f3be 8c72 d83e 3f61 2dbf 1b17 ea3e
00000240: 2c22 5dbe 3096 61ba 12b6 e0be be6a 07be
00000250: cab5 373e ccee f1bd 4eff 55bf 62d3 1abf
00000260: a831 dabe 4642 853e d895 c83e 5329 98be
00000270: d4e8 9dbe d935 1d3e e41a 6ebf cc42 97be
00000280: 3626 c3be b14d 02bf 92df 19bf 58e8 1f3f
00000290: e193 463f 9eda 2d3d d11a e2be ac06 a7bd
000002a0: 8d20 d7be b237 8bbe 281e 9cbd 9cf0 4dbf
000002b0: 53a2 1a3f 646a 5a39 3d08 3d3f ae9c 913e
000002c0: 62ce 0a3f 7da5 1dbf fd26 203f f3c4 f53f
000002d0: f481 e43d ff47 09bf ce41 69bf 9a76 c73e
000002e0: fd97 11be 9fcb a53e a77c f6be 31aa 5cbe
000002f0: d132 24bf a316 9c3e db51 a4be c513 19bf
00000300: 643f 95bf a378 98be 289b 813f 5d49 09bf
00000310: 6d73 243f bb20 af3e 3d60 c7be 92f8 633f
00000320: e47b 7f3f d4d4 5fbf 9fc5 d1bc 657f fc3d
00000330: e3e8 fe3d fdea b7be 858c a43d b742 843f
00000340: 19ac 34bf ac96 bd3d 3711 10be aaca 34bf
00000350: 9d08 333e e703 6fbf 3ede f5be 8ff4 643e
00000360: 087d 82bf 5227 dbbe 32d7 953e 7c28 8ebf
00000370: 77a2 49bf bf41 a53e 902f 893f 1c91 4bbd
00000380: 0b81 cc3d 933f fa3e bdb4 9d3f 2c4b 2f3f
00000390: 031b b0bd 8014 373e d652 08bb 4dd7 4ebe
000003a0: 8755 cb3e 8c93 01bf 7371 90be ddfb 853e
000003b0: c781 113f 0aae 94bc d20a b6be 7f23 9abe
000003c0: 7633 0dbf ff92 10bf a56f 0e3f 5e77 37be
000003d0: 40eb 0fbc fd07 3d3e 15a5 a4be ad20 5cbf
000003e0: af81 b5bd a52a 0f3f 421a 113f 69bb e7bc
000003f0: 4ff9 33bf 8e9f c13d 2238 76bf ec9b 1abf

update_node_embedding_layer_g.1.message_layer.weight f4 [32, 64]
-1.4764925 0.22043629 0.05616481 -0.23947272 -0.5600552 0.1274838 -0.33118403 1.0128682
0.37528527 -0.9394801 -0.48183125 0.080232 -1.1184765 -0.19731303 -0.506071 0.014880539
-0.15938717 0.27064157 0.59346485 0.214723 -0.85296345 -0.61596596 0.4524328 0.19063611
0.965068 -1.1947384 0.30897003 -0.25675213 0.18741834 -0.23762015 0.49059054 -0.018429944
-0.3838086 0.29658815 -0.7362851 -0.7208671 0.45204145 -0.7579649 0.098754115 -0.57527894
-0.19082293 -0.048999127 -0.69681346 0.17462143 0.41451085 0.1525199 0.20756136 -0.0047404435
-0.7185491 0.09572947 0.44676894 -0.3208134 -0.42706287 -1.1242976 -0.56546396 -0.50339615
-0.009000326 0.3017723 -0.94944906 -0.7141939 -0.72638255 0.42666546 0.48717964 -0.7565728
0.7479723 0.19516732 0.12921543 0.7268066 -0.9560606 0.054415748 0.706621 -0.2874495
-0.3660758 -0.5885061 0.11267843 -0.26999947 -0.67291474 -0.15842937 -0.5847064 -1.1779844
0.88942826 -0.0696144 0.87040836 0.07593148 0.24227731 0.24327874 -0.7509238 -0.122011214
0.27793533 -1.1850696 -0.4618811 0.5105105 -0.2097903 -0.6170062 -0.4390544 0.079516344
0.057578746 0.8336891 0.5351418 -0.6418919 0.13308476 -0.32768753 -0.019242616 -0.33831427
-0.023954961 -0.43425587 0.1487072 0.74717027 0.2927399 -0.47609034 0.042163193 -0.608962
-1.0518085 -0.01903286 -0.10016722 -0.57943577 0.4051069 -0.43157303 -0.30187494 0.09897489
-0.05177222 -1.1904889 -1.1460949 0.4667596 -0.46400094 0.36559942 -0.5114317 -0.7518786
-0.93438894 -2.125951 -0.018556777 -0.42576286 -0.53575706 0.1665781 -0.28793827 -0.46137714
1.099092 0.5229918 -0.51840705 0.884214 -1.2598047 0.30500102 0.01646515 -0.51735497
-0.1256212 0.4038051 -0.55211186 0.093806475 -0.9713661 0.13265045 -0.100003675 -1.5917819
0.3905001 0.16691834 0.7219438 0.23910743 0.46930403 0.0003656309 -0.36378187 0.46600518
0.5498362 0.7207959 0.4174845 0.15531068 -0.66795284 -0.45968938 -0.93834037 0.15107003
0.53011686 0.52887434 0.17833129 -0.35685322 -0.9534275 0.2618243 0.12731746 -0.37499148
-0.5305111 -1.0569885 -0.4223778 -0.4709576 0.30133548 -0.48565555 -0.6437399 0.35221598
0.5889061 0.3044231 0.73059404 0.22023837 0.07838396 0.19523796 0.19137208 -0.7831222
0.18364292 0.49552035 0.49594772 -1.1912229 0.35226786 -0.21641047 -0.8310374 0.04193736
0.052595623 -0.111624345 0.014771336 -1.3410432 0.38613644 0.16291155 0.08488226 0.026376648
1.3849152 -0.92761064 0.6395008 0.46074274 0.66967887 0.80485 -0.37970755 -0.48963192
-0.074188896 0.25888616 -0.14295033 1.0743984 -0.0841009 0.10346238 -1.5998095 0.13699453
-1.4266946 -1.0823222 -0.18519832 0.122371644 -0.63103586 -0.60111624 0.8654881 0.37592497
0.13604534 -0.69311506 -0.6334384 0.5044095 -0.7041346 -0.5206546 -0.27082312 -0.486347
-0.5255685 0.49519494 -0.23238239 -0.8411011 -0.10159633 -0.20020036 -0.2760575 0.23510468
-0.2044756 0.40602496 -0.52870613 0.30641884 0.405344 -0.7214909 -0.11514662 -0.61886984
00000000: b5fd bcbf 0dba 613e 120d 663d 5638 75be
00000010: c75f 0fbf 1d8b 023e f490 a9be aaa5 813f
00000020: 6425 c03e c581 70bf 96b2 f6be ad50 a43d
00000030: 3d2a 8fbf 6d0c 4abe de8d 01bf 81cd 733c
00000040: 6436 23be 8891 8a3e 50ed 173f 59e0 5b3e
00000050: d05b 5abf f2af 1dbf 46a5 e73e 1d36 433e
00000060: b20e 773f 30ed 98bf 5231 9e3e 0475 83be
00000070: 98ea 3f3e b252 73be af2e fb3e 65fa 96bc
00000080: 9082 c4be 67da 973e 2e7d 3cbf bf8a 38bf
00000090: fa71 e73e fd09 42bf 993f ca3d 7b45 13bf
000000a0: 1667 43be 4fb3 48bd 5e62 32bf f6cf 323e
000000b0: c43a d43e 2d2e 1c3e f78a 543e b955 9bbb
000000c0: d5f2 37bf d00d c43d e6be e43e a741 a4be
000000d0: fca7 dabe fce8 8fbf 3fc2 10bf 92de 00bf
000000e0: 1a76 13bc e681 9a3e 180f 73bf 69d5 36bf
000000f0: 35f4 39bf e573 da3e 9c6f f93e c1ae 41bf
00000100: 1d7b 3f3f f1d9 473e 0d51 043e ff0f 3a3f
00000110: 63c0 74bf 0ce3 5e3d 1de5 343f 952c 93be
00000120: 4a6e bbbe 56a8 16bf f3c3 e63d 5f3d 8abe
00000130: 2444 2cbf 4f3b 22be 52af 15bf 31c8 96bf
00000140: 92b1 633f ff91 8ebd 15d3 5e3f f781 9b3d
00000150: 8b17 783e 101e 793e 8b3c 40bf 04e1 f9bd
00000160: 8a4d 8e3e 5cb0 97bf ae7b ecbe d1b0 023f
00000170: 45d3 56be 1ef4 1dbf bdcb e0be 77d9 a23d
00000180: b1d7 6b3d a66c 553f 0eff 083f 0753 24bf
00000190: 5f47 083e a9c6 a7be b1a2 9dbc 8737 adbe
000001a0: 323d c4bc c956 debe b346 183e 8d46 3f3f
000001b0: 01e2 953e 1dc2 f3be 50b3 2c3d efe4 1bbf
000001c0: a9a1 86bf cdea 9bbc 7924 cdbd e755 14bf
000001d0: 2c6a cf3e 24f7 dcbe 5a8f 9abe 59b3 ca3d
000001e0: 1b0f 54bd f161 98bf 3db3 92bf 1dfb ee3e
000001f0: 8891 edbe d92f bb3e 30ed 02bf 1e7b 40bf
00000200: 1d34 6fbf 950f 08c0 6204 98bc 97fd d9be
00000210: 6027 09bf 7393 2a3e a56c 93be a039 ecbe
00000220: 0caf 8c3f cae2 053f 53b6 04bf d95b 623f
00000230: 4841 a1bf 1829 9c3e ece1 863c 6071 04bf
00000240: d8a2 00be 8bbf ce3e 3457 0dbf 9c1d c03d
00000250: 73ab 78bf 85d5 073e bace ccbd 82bf cbbf
00000260: a1ef c73e a4ec 2a3e 4fd1 383f 94d8 743e
00000270: 9e48 f03e 26b2 bf39 9e41 babe 3b98 ee3e
00000280: 11c2 0c3f 1586 383f 87c0 d53e c309 1f3e
00000290: f5fe 2abf 685c ebbe 1337 70bf 1ab2 1a3e
000002a0: bdb5 073f 4f64 073f 7a9c 363e 77b5 b6be
000002b0: d313 74bf d60d 863e 825f 023e e2fe bfbe
000002c0: 93cf 07bf 664b 87bf e741 d8be 5b21 f1be
000002d0: a548 9a3e d8a7 f8be 23cc 24bf a755 b43e
000002e0: 8dc2 163f 58dd 9b3e 3608 3b3f 2b86 613e
000002f0: c587 a03d 76ec 473e 0bf7 433e b27a 48bf
00000300: e40c 3c3e d8b4 fd3e dcec fd3e fe79 98bf
00000310: 745c b43e b59a 5dbe debe 54bf 82c6 2b3d
00000320: 826e 573d 4e9b e4bd 7903 723c 4ea7 abbf
00000330: adb3 c53e 49d2 263e c0d6 ad3d d713 d83c
00000340: e744 b13f e477 6dbf 53b6 233f 79e6 eb3e
00000350: 1370 2b3f a60a 4e3f 0769 c2be 09b1 fabe
00000360: 59f0 97bd ba8c 843e 9261 12be e385 893f
00000370: 183d acbd 16e4 d33d 8fc6 ccbf 4b48 0c3e
00000380: ee9d b6bf 8989 8abf a1a4 3dbe fc9d fa3d
00000390: 918b 21bf c1e2 19bf a190 5d3f 3d79 c03e
000003a0: 784f 0b3e fd6f 31bf 0529 22bf fb20 013f
000003b0: 2a42 34bf 9f49 05bf 54a9 8abe 7902 f9be
000003c0: a88b 06bf 318a fd3e a6f5 6dbe 6752 57bf
000003d0: bd11 d0bd 5301 4dbe 6957 8dbe 48bf 703e
000003e0: 0d62 51be 81e2 cf3e 4959 07bf eee2 9c3e
000003f0: 4089 cf3e a1b3 38bf fed1 ebbd 416e 1ebf

update_node_embedding_layer_g.1.update_layer.weight f4 [32, 64]
0.35571134 -0.8250013 -0.0910553 -1.2473581 0.6795579 1.1124532 0.79357886 0.17725909
0.30814254 -0.8707355 -0.20244561 -1.0518107 -0.2065418 0.8933567 -0.17533067 0.3053064
0.33861157 0.13799809 -0.10430618 -0.21321927 -0.121595696 -0.20721146 0.08873203 0.9812626
-0.18261261 -0.6569721 0.24132927 0.091590606 0.11855408 -0.10862299 0.7369778 -0.10412413
0.35902712 -0.51857793 0.41575703 0.5256241 0.0787648 -0.04185527 0.85309863 -0.3848255
-0.22172809 -0.3056759 -0.34290728 0.6322745 0.4458344 -1.0076504 0.5017373 -0.38052595
1.0640868 0.117196545 -0.6199612 -0.53839666 0.22936541 0.08116035 -0.4867013 0.6112448
-0.40129563 0.18388246 -0.72737586 0.02719456 0.9779921 -0.02791992 -0.67966735 0.32806468
0.23937674 0.67406815 -0.04598662 -0.5456189 -0.051207274 0.75640345 -0.12166625 -0.10406481
1.4612298 -0.86878175 -0.31763047 0.5422809 -0.3259687 -1.1296263 -0.6845168 -0.4949405
0.07085568 0.44682214 -0.05445951 -0.15611985 -0.47930616 0.42703608 -0.11237297 -0.19942394
-0.3217154 0.45566955 0.6385348 -0.87496686 0.5261804 -0.06306508 1.1154034 -0.3634828
0.7678769 0.12085378 -0.216721 0.014334616 0.27127668 -0.13270603 -0.028182182 0.7056324
-0.6249892 0.5296828 -0.26041898 -0.3465664 -0.4780666 0.7779079 1.3211992 -0.765585
-0.01856592 -1.1852473 -0.28323016 -0.87466574 0.575261 -0.6534644 -0.3088912 0.98059547
-0.2062455 0.3766372 0.5035013 0.2198968 0.18176866 -0.47845653 -0.46416846 0.059629176
-0.5176138 -0.23057021 0.33402488 -0.6584502 -0.3776511 -0.78867793 0.81525755 0.10587216
0.10012533 0.47938862 -0.7008501 0.239625 -0.69556934 -0.5498055 -0.33347547 -0.27610126
0.18009596 0.76234275 0.15571745 -0.13591407 0.25161675 -0.09662023 -0.9266974 -0.50517637
-0.14046475 -0.56158674 -0.100386694 -0.2637657 -0.92266524 -0.33325684 -0.021633176 0.2789079
-0.12550022 0.59948564 0.21554326 0.1172027 0.33024752 -0.1566072 -0.15904836 -0.5942517
-0.52564776 -0.82477236 -0.12792093 -0.08313507 -0.36919197 -0.29095706 0.09084455 -0.2960002
1.3294063 0.10220235 0.78523266 0.27337202 -0.33632758 0.71810675 0.251619 -1.193321
-0.5289146 -1.101062 -0.19764313 0.0106604 -0.14579663 0.31990594 -0.25534934 0.1878015
-0.5745642 0.57966495 0.07394685 -0.08976779 -0.4087065 -0.69252837 0.010028854 0.8149213
-0.37361586 -0.4432992 0.120435774 0.17389867 0.6979871 -0.22313619 -0.13069274 0.72686756
-0.3319266 -0.42188793 -0.37213263 -0.06546447 -0.072106 -0.74565595 -0.910059 -0.42291325
0.86683244 0.040350657 0.28425333 0.073259406 -0.83221006 -0.42903987 0.02467256 -0.1772124
-0.07019112 -0.12957117 0.14593484 0.5660307 0.28808522 -0.25223526 0.41161186 0.028861385
0.15238075 0.4648154 -0.6973871 -0.5523158 0.30110008 -0.10277717 -0.32548964 0.4706692
0.11146157 0.56930774 0.2916303 0.525367 0.4670584 -0.66358185 0.62495834 -0.18487845
-0.39302275 -0.061599113 -0.09097252 -0.4975396 0.053678803 -0.66147 0.449615 -0.3974304
00000000: cc1f b63e 4933 53bf 337b babd 6ea9 9fbf
00000010: 82f7 2d3f de64 8e3f fc27 4b3f 6883 353e
00000020: dcc4 9d3e 86e8 5ebf e74d 4fbe bca1 86bf
00000030: b27f 53be 06b3 643f e289 33be 1f51 9c3e
00000040: 7f5e ad3e 5f4f 0d3e 7a9e d5bd 2756 5abe
00000050: 2a07 f9bd 3e2f 54be 23b9 b53d 0734 7b3f
00000060: cdfe 3abe 532f 28bf 051f 773e db93 bb3d
00000070: 7bcc f23d bb75 debd 94aa 3c3f 083f d5bd
00000080: 67d2 b73e 86c1 04bf 1bde d43e 4d8f 063f
00000090: 714f a13d 6e70 2bbd ac64 5a3f d907 c5be
000000a0: b00c 63be 8d81 9cbe 8b91 afbe bedc 213f
000000b0: 6844 e43e b0fa 80bf db71 003f 4cd4 c2be
000000c0: ff33 883f be04 f03d c7b5 1ebf 5dd4 09bf
000000d0: c4de 6a3e 6637 a63d ea30 f9be 8a7a 1c3f
000000e0: 9f76 cdbe af4b 3c3e 4e35 3abf 20c7 de3c
000000f0: b15d 7a3f 51b8 e4bc aefe 2dbf 18f8 a73e
00000100: 2d1f 753e bb8f 2c3f 775c 3cbd aead 0bbf
00000110: b8be 51bd a8a3 413f 282c f9bd ee1f d5bd
00000120: 9409 bb3f 7b68 5ebf 76a0 a2be ecd2 0a3f
00000130: 5fe5 a6be 9897 90bf 7e3c 2fbf d768 fdbe
00000140: c81c 913d dfc5 e43e ef10 5fbd e2dd 1fbe
00000150: 9e67 f5be 79a4 da3e cd23 e6bd ca35 4cbe
00000160: e2b7 a4be 854d e93e 0477 233f d4fd 5fbf
00000170: c2b3 063f 4428 81bd 8ac5 8e3f 6b1a babe
00000180: 9593 443f 3082 f73d 1cec 5dbe bddb 6a3c
00000190: c7e4 8a3e 17e4 07be 52de e6bc 53a4 343f
000001a0: 4bff 1fbf 4b99 073f a355 85be 2771 b1be
000001b0: 25c5 f4be f924 473f 0e1d a93f 61fd 43bf
000001c0: 8e17 98bc 2fb6 97bf 8b03 91be 18ea 5fbf
000001d0: 4e44 133f 7149 27bf fd26 9ebe 4e08 7b3f
000001e0: 0532 53be 97d6 c03e 76e5 003f a02c 613e
000001f0: 9021 3a3e 41f8 f4be 7da7 edbe b93d 743d
00000200: 5782 04bf 991a 6cbe 4f05 ab3e 3190 28bf
00000210: 7c5b c1be cce6 49bf b8b4 503f 81d3 d83d
00000220: 820e cd3d 6d72 f53e ea6a 33bf 4260 753e
00000230: d510 32bf 0ec0 0cbf 4cbd aabe 255d 8dbe
00000240: 136b 383e e528 433f 6574 1f3e 0f2d 0bbe
00000250: e9d3 803e d4e0 c5bd 0a3c 6dbf 3d53 01bf
00000260: fed5 0fbe 26c4 0fbf 8a97 cdbd 4c0c 87be
00000270: ca33 6cbf a4a0 aabe 0f38 b1bc 04cd 8e3e
00000280: 2183 00be e477 193f 5fb7 5c3e f807 f03d
00000290: 3416 a93e a35d 20be 93dd 22be e120 18bf
000002a0: da90 06bf 4824 53bf b4fd 02be b842 aabd
000002b0: bb06 bdbe 53f8 94be b50c ba3d 578d 97be
000002c0: fc29 aa3f 774f d13d 0205 493f 6bf7 8b3e
000002d0: 2133 acbe d8d5 373f 35d4 803e bebe 98bf
000002e0: f266 07bf 9aef 8cbf f662 4abe f5a8 2e3c
000002f0: b64b 15be b6ca a33e 26bd 82be 094f 403e
00000300: a416 13bf ec64 143f 7271 973d 2dd8 b7bd
00000310: fa41 d1be 8a49 31bf 1050 243c af9e 503f
00000320: 944a bfbe 1df8 e2be 08a7 f63d 7e12 323e
00000330: 48af 323f d07d 64be 51d4 05be fe13 3a3f
00000340: 49f2 a9be b201 d8be 2b88 bebe 3c12 86bd
00000350: 4fac 93bd 4fe3 3ebf a0f9 68bf 1688 d8be
00000360: bbe8 5d3f bb46 253d a789 913e 0709 963d
00000370: b80b 55bf 1dab dbbe 1c1e ca3c 2b77 35be
00000380: 5dc0 8fbd 4eae 04be f16f 153e 63e7 103f
00000390: e87f 933e fb24 81be cabe d23e b66e ec3c
000003a0: b309 1c3e 49fc ed3e f687 32bf 9164 0dbf
000003b0: ca29 9a3e d67c d2bd 94a6 a6be 8efb f03e
000003c0: f745 e43d 27be 113f 9150 953e 747e 063f
000003d0: 4722 ef3e 80e0 29bf 45fd 1f3f c750 3dbe
000003e0: 473a c9be 5a4f 7cbd cd4f babd 83bd febe
000003f0: 4ede 5b3d 1956 29bf f033 e63e ff7b cbbe

update_node_embedding_layer_p.0.message_layer.weight f4 [32, 64]
-0.23381652 -0.53228384 -0.23795156 1.3026408 0.22260523 0.76118124 -0.6111709 0.9519462
-0.28968292 0.49767452 0.12523971 0.25410703 -0.33085024 0.31908712 0.061033398 -0.13826214
-0.03695448 -0.084726095 -0.22315063 -0.042549282 -0.43442306 -0.28842446 -0.33574307 -0.041047115
-0.20160148 -0.5956541 0.924789 -0.06624359 0.40551543 0.084189944 -0.04254213 1.0323895
1.096363 0.5756848 -0.05065819 -0.40216798 0.39356592 -0.16983369 0.44492164 0.42348653
0.630313 0.77825844 -0.4489934 -0.02570221 0.16382302 -0.2017113 -0.46409148 -0.65375555
-1.294159 -0.12251914 0.2329263 -0.5157456 -1.2932261 -0.08448396 -0.095797494 1.3354158
-0.58071476 -0.009939655 -0.3110575 -0.5226998 -0.1678015 1.5284969 -0.85059255 0.6409332
-0.43713346 -0.74217916 0.93677264 0.518446 -0.0013210698 0.34943748 0.37773106 -0.102502406
-0.050662693 0.38314244 -0.1493286 0.030004095 -0.35312578 -0.10092598 0.06912121 0.010051843
-0.681061 -0.7269078 -0.04563007 -0.042190004 -0.6054064 -0.012884248 0.38125458 -0.26997972
-1.6018753 0.06197798 0.38411397 -0.54703873 -0.35196003 -0.24311663 -0.73819214 0.33053744
0.2121093 -0.043526176 -0.6650786 -0.046387255 0.9547143 0.6440598 -0.8760274 0.251242
0.03585374 -0.37301058 1.1979644 -0.63344723 0.2725862 -0.3429424 -0.58768 -0.76295
0.24435166 -0.18089522 0.20776558 -0.87778723 0.4018248 0.1942088 -0.026423233 -1.2251974
-0.6476622 0.21878712 -0.8877381 -0.26518843 -0.38770354 -1.3862977 0.32691705 0.39186785
0.2109356 -0.58939576 -0.47541195 -0.35725224 -0.9096917 0.6449859 0.00727793 -0.6876159
-0.7397799 0.06090138 -0.08110663 -0.1944895 -0.015256904 -0.03844623 -0.5447246 0.44486374
-0.0025403663 -0.5145409 0.74279106 -0.186009 0.20022875 -0.088053346 -0.55796564 -0.27813447
-1.1379284 0.010837237 -0.36390254 -0.16618283 -0.070356905 0.39076012 0.42194656 0.1375339
0.11404494 0.2588523 -0.28063133 -0.07292184 0.91765934 0.5375126 0.23765871 -0.67725873
-1.2211635 -0.40608442 1.5060304 0.760433 -0.13691367 0.045616914 -0.23501262 1.3040271
0.37791684 -0.1963801 0.174908 -0.016983047 -0.13357088 -0.47141513 -0.55268854 -0.12142705
-0.844386 -0.10309473 0.57323223 0.12246039 0.19762579 -0.08041223 -0.10889232 -0.116804495
0.3453999 -0.3899995 0.19632861 -0.791556 -0.39459282 -0.24304155 0.29235595 -0.17675926
-1.0596888 0.35490412 0.6950359 -0.22963169 0.4764617 0.05822023 -0.27003244 0.49495682
-0.68485 0.70699686 -0.41211444 0.07206299 -0.87645525 0.19079396 -0.092805766 -0.71383375
-0.057939634 0.14449559 -0.08293758 0.5924413 -0.24251054 0.45918813 -0.24736202 -0.16106874
0.87549955 0.11471402 0.39248422 -0.07404889 -0.08782113 0.11040121 -0.18214932 -0.4025644
0.2074524 0.4590637 0.35113126 0.042959448 -0.59119874 -0.026902314 -0.114894606 -0.45372704
-0.056695893 -0.20107283 -0.7115112 -0.38124758 0.060872115 0.08952241 -0.053382438 0.10134108
-0.056763742 -0.70880526 -0.077562936 0.86155 -0.39594093 -0.0008083049 0.29282865 -1.0977266
00000000: 996d 6fbe c143 08bf 93a9 73be efbc a63f
00000010: a0f2 633e c6dc 423f b275 1cbf bfb2 733f
00000020: 5251 94be 32cf fe3e d73e 003e 511a 823e
00000030: 3465 a9be 635f a33e 28fe 793d 9794 0dbe
00000040: 955d 17bd e084 adbd 9981 64be 2848 2ebd
00000050: b36c debe 5fac 93be 84e6 abbe 0521 28bd
00000060: 9e70 4ebe c97c 18bf f9be 6c3f b8aa 87bd
00000070: b89f cf3e c76b ac3d a840 2ebd 5725 843f
00000080: 9f55 8c3f 1460 133f f67e 4fbd f6e8 cdbe
00000090: 7981 c93e e2e8 2dbe c5cc e33e 3ad3 d83e
000000a0: 315c 213f f23b 473f 77e2 e5be 718d d2bc
000000b0: 39c1 273e 688d 4ebe 669d edbe 865c 27bf
000000c0: 01a7 a5bf 51eb fabd 3b84 6e3e e707 04bf
000000d0: 6f88 a5bf ed05 adbd 7a31 c4bd e8ee aa3f
000000e0: b9a9 14bf efd9 22bc ee42 9fbe a7cf 05bf
000000f0: 28d4 2bbe c9a5 c33f 6fc0 59bf 3314 243f
00000100: f5cf dfbe 74ff 3dbf 55d0 6f3f e1b8 043f
00000110: bf27 adba 78e9 b23e f765 c13e c8ec d1bd
00000120: af83 4fbd 3f2b c43e 99e9 18be 26cb f53c
00000130: e7cc b4be 48b2 cebd 6c8f 8d3d 7cb0 243c
00000140: 045a 2ebf a116 3abf 99e6 3abd 6dcf 2cbd
00000150: eafb 1abf 7418 53bc cd33 c33e c83a 8abe
00000160: 400a cdbf 9fdc 7d3d 96aa c43e bb0a 0cbf
00000170: 1b34 b4be 91f3 78be 29fa 3cbf 343c a93e
00000180: 2e33 593e 8148 32bd 9742 2abf 9000 3ebd
00000190: 2868 743f 1ae1 243f 5543 60bf cba2 803e
000001a0: 5fdb 123d 3efb bebe e656 993f 9929 22bf
000001b0: 6b90 8b3e 2596 afbe 3272 16bf b150 43bf
000001c0: 5237 7a3e 993c 39be 80c0 543e aab6 60bf
000001d0: fbbb cd3e acde 463e 8975 d8bc 45d3 9cbf
000001e0: 31cd 25bf bb09 603e ce42 63bf c7c6 87be
000001f0: 1481 c6be 3472 b1bf ac61 a73e e7a2 c83e
00000200: 80ff 573e a4e2 16bf 3269 f3be c4e9 b6be
00000210: 8ee1 68bf cc1d 253f b47b ee3b 9807 30bf
00000220: 3762 3dbf ba73 793d 3c1b a6bd 4128 47be
00000230: 18f8 79bc cb79 1dbd 1273 0bbf 2ec5 e33e
00000240: 467c 26bb f4b8 03bf 8e27 3e3f 2579 3ebe
00000250: c408 4d3e 5055 b4bd d6d6 0ebf a467 8ebe
00000260: a3a7 91bf ab8e 313c 6f51 babe d52b 2abe
00000270: 4817 90bd b611 c83e 6109 d83e b0d5 0c3e
00000280: 6590 e93d 4a88 843e e9ae 8fbe 0c58 95bd
00000290: b9eb 6a3f 6d9a 093f ce5c 733e d460 2dbf
000002a0: 164f 9cbf 4cea cfbe 9bc5 c03f bdab 423f
000002b0: 1933 0cbe cdd8 3a3d 26a7 70be 5cea a63f
000002c0: 517e c13e dd17 49be 151b 333e 0820 8bbc
000002d0: cec6 08be 535d f1be ff7c 0dbf bfae f8bd
000002e0: ae29 58bf 5423 d3bd 59bf 123f 83cc fa3d
000002f0: 6a5e 4a3e 2baf a4bd f002 dfbd 3237 efbd
00000300: 41d8 b03e 04ae c7be 5e0a 493e 6aa3 4abf
00000310: 1208 cabe e2df 78be aeaf 953e 6100 35be
00000320: e2a3 87bf feb5 b53e dfed 313f 9224 6bbe
00000330: caf2 f33e 5678 6e3d b141 8abe fb6a fd3e
00000340: 5452 2fbf bffd 343f aa00 d3be c395 933d
00000350: 5f5f 60bf 7e5f 433e f310 bebd cfbd 36bf
00000360: 1c52 6dbd a7f6 133e 2edb a9bd 3caa 173f
00000370: af54 78be b51a eb3e 784c 7dbe 34ef 24be
00000380: bd20 603f 2fef ea3d b1f3 c83e f2a6 97bd
00000390: 91db b3bd 081a e23d 5a85 3abe ec1c cebe
000003a0: 676e 543e 660a eb3e 7ac7 b33e 3ff6 2f3d
000003b0: cd58 17bf 3e62 dcbc dd4d ebbd e94e e8be
000003c0: f439 68bd 09e6 4dbe 9925 36bf e232 c3be
000003d0: 0a55 793d 8657 b73d 8ba7 5abd ea8b cf3d
000003e0: 1981 68bd 4374 35bf 51d9 9ebd 8a8e 5c3f
000003f0: c5b8 cabe 6ce4 53ba a3ed 953e 4e82 8cbf
