experiments/GBMLGG_100/train/GBMLGG_100/s2v/network/network24000.pth (torch_old, 87608 bytes, 17 tensors)

node_init_embedding_layer_g.0.weight f4 [32, 2]
00000000: 80e7 41bf 7172 51bb c2a6 393f 8c02 7ebf
00000010: ca60 dbbd ccf7 d33e 59b1 803f 820e 6ebc
00000020: 0532 f1be b0f2 db3e 32ef 023f 04d0 033d
00000030: 9450 313f 572c b43c 5ffb 8e3d 0e61 683f
00000040: 493c e0be 9a27 883e ba49 ad3f 0d63 453e
00000050: e8ca 35be a775 77bd 9af2 523f be91 8fbf
00000060: 2bc9 6c3e e164 42bf 5a25 d8bd 2ed2 1d3d
00000070: f834 87bf 8c06 c1bd dab2 5d3e 8771 aa3e
00000080: 825a 0cbf 5640 243f d5bd 9b3d 61f5 bc3c
00000090: ff38 76be d8a4 12bf 3395 43bf 44ce dc3e
000000a0: 5693 b83c 3119 fabe 4565 13bf 08eb abbd
000000b0: 4593 49be a0ef 89bd 6412 36bf dc5c 99bb
000000c0: ea28 133f 8500 a5bf e787 803e b74f 353e
000000d0: 7f75 003f c968 febd 9553 9fbf 1f39 573e
000000e0: bfea 303e e186 7f3d 012e ee3b b8b0 02be
000000f0: 1eba 073f 77f6 833e 52f0 70bd 9afd dfbb
-0.75743866 -0.0031959082 0.7252008 -0.99222636 -0.107118204 0.41399992 1.0054122 -0.014529826
-0.47108474 0.42958593 0.51146233 0.0321808 0.6926358 0.0219938 0.06981539 0.90773094
-0.43795994 0.26592714 1.3538125 0.19276066 -0.17753184 -0.060414936 0.8240143 -1.1216352
0.23123614 -0.7593518 -0.10553999 0.03853052 -1.056304 -0.09425077 0.21650258 0.3328974
-0.54825604 0.6416067 0.07604567 0.023066225 -0.2404518 -0.5728278 -0.76399535 0.43126118
0.022531193 -0.48847345 -0.575764 -0.08394438 -0.19685085 -0.06735158 -0.7112181 -0.004680259
0.57484305 -1.2890784 0.25103685 0.1770619 0.50179285 -0.1242233 -1.2447382 0.21017884
0.17277049 0.06238449 0.0072686677 -0.12762725 0.5301837 0.25773975 -0.058822937 -0.0068356516

node_init_embedding_layer_p.0.weight f4 [32, 1]
00000000: 2114 71be c139 8ebe 3565 503e 69ed d8be
00000010: 61ae 65bd 9059 6dbd 7fb7 563d d19d 8e3f
00000020: ccba adbe a3ce 6dbe d3b4 c6be c593 33be
00000030: 78b4 debe 6dab 853d 321e b03c 1fcb 6f3f
00000040: dd24 743e 3063 003f ee20 10bf 05e6 413e
00000050: 2355 773e b600 8a3d 973a 31bf 21a9 38bd
00000060: 2c61 3d3e d3c6 0dbf 61d6 373f 9554 473f
00000070: cdec 043f cc78 bcbe d9bc d63d 3df7 1cbd
-0.23542835 -0.27778438 0.20351107 -0.4236863 -0.056074504 -0.05794674 0.05242109 1.1141912
-0.33931577 -0.23223357 -0.38809833 -0.17536838 -0.43497062 0.065268375 0.021498773 0.93669313
0.23842187 0.5015135 -0.56300247 0.18935402 0.24153571 0.06738417 -0.69230026 -0.04508317
0.184941 -0.55381507 0.7181149 0.77863437 0.5192383 -0.3681091 0.104852386 -0.038321722

edge_embedding_layer_g.edge_embedding_NN.weight f4 [31, 1]
00000000: f00b f2be 4521 b73e 7bcb efbe 4342 27bf
00000010: 5e31 b13e 6717 d5be f09b 553e effd babb
00000020: 7fd6 05bf 8192 30be d466 8a3e 146c 853e
00000030: 0270 40bf ed8f 09bf 1157 d53e ff92 9bbe
00000040: 1fe5 c03e 55e0 55be 2b98 18bf c931 7d3e
00000050: 0775 19bc e7f6 e4be 72ff cc3e 7cd7 0fbe
00000060: aeca 25be 800b a4be 880b 883d 3ed9 383f
00000070: be83 0abf 6fb1 2cbf fe72 de3e
-0.47274733 0.3576757 -0.4683493 -0.6533548 0.34607977 -0.41619417 0.20860267 -0.005706541
-0.5228042 -0.17243387 0.27031577 0.2605902 -0.7517091 -0.5373524 0.4166799 -0.30385587
0.37674806 -0.20886357 -0.5960719 0.24726023 -0.00936628 -0.44719622 0.4003864 -0.14047045
-0.16190597 -0.32040024 0.066428244 0.72206485 -0.5410727 -0.6745824 0.43447107

edge_embedding_layer_g.edge_feature_NN.weight f4 [32, 32]
00000000: 5d39 49be dc85 353f 7658 a4bf f3af 913f
00000010: 3b6f 2ebf 15fb f63e 26db 423c a42c 103d
00000020: efe7 1bbe a037 4fbd 31fd 20bf f1e9 00bf
00000030: 1a27 7d3e 7250 66bf 574c 043f f4e2 ce3e
00000040: db9d afbe dff3 31be 5557 063e 09a0 80bf
00000050: fb30 0f3f 74b0 4abf a8a3 55bd acad 743e
00000060: 9f79 073f ac31 28bf 7519 bebe 0574 0ebf
00000070: d38d 2ebf 6372 f3bd 4000 8cbe 8164 243e
00000080: 30c8 b13d 2e04 9f3d e0e6 003e 81b1 0f3d
00000090: ddcd ae3d 8c26 75bf 76b5 60be 381c 163f
000000a0: 9237 d3bc 70b3 023f e5d4 013f df3b 403f
000000b0: 3946 d7bd b928 8ebe 9d40 cbbe 402d 013f
000000c0: faea 7abf 59bd 87bf 59f1 3b3c eb91 a7bc
000000d0: 3400 2f3f 3527 c03d 4b20 efbe bb51 9a3d
000000e0: d7e0 fbb8 540b 2d3e 83cb bc3e 7306 853d
000000f0: 25d6 a8bd 503e b8be fdff 72bf 00a4 5e3e
00000100: 99e9 3f3f 9a68 97bf 31a9 dcbe e903 4bbe
00000110: 4e98 27bf f28f 2bbe 0c37 253d 270f b43e
00000120: 48b4 c83e 43fa bebe c8a6 62bf cfb5 f93d
00000130: d3b8 d23e 1e5d 0e3f 4b48 0fbd c755 25bf
00000140: 6bd9 c03e 62ba 1abf 14ed 80be 6b34 9c3e
00000150: d635 fb3d f492 2dbd 5acd e7be 861a 47bf
00000160: 445e 20bf f2dc 84bd e126 d73e 73a3 303f
00000170: d396 513e 9328 b1be 2703 1c3f 22f5 59be
00000180: 4f3d d4bc d760 d9be e885 fabe cf51 05bf
00000190: 23f2 f2be 08e8 38bf 4832 9f3f 362f 6bbe
000001a0: 5c67 363e 9e98 edbd d670 153f 0f71 15bf
000001b0: 46ad 1b3f c618 91bd a898 b6bd 0238 4fbe
000001c0: 8835 e5be e837 273f 46f3 7d3e 1daa cabe
000001d0: 10e9 16bf 61fc 15be 9faf b73d 273d babe
000001e0: 9223 59bd ef9e 303e e51b 0b3f 3aad 48bf
000001f0: fece 28be 2728 b6be 5b72 b83e 5b98 3b3f
00000200: 1b9d 12be 6a4d 973e 8847 02bf ab5e 3d3d
00000210: cd32 fabe 9bd8 743f de32 a6be 5c0d e5bc
00000220: 412f 34bf 717f a43e 8d7f c13e 1d83 0ebf
00000230: 5766 7abe c6ff 3f3f b45b a73d 921a 3b3e
00000240: 2fd7 12bf a37e 113f 1858 2ebd 46a6 e43e
00000250: 78e6 5f3d 3ded c7be 2bf9 863f 185c 82be
00000260: 9f07 943e 68c3 d13e 8336 03bf e65f 0dbf
00000270: d6f7 7b3d 066d c33b 479b 14bf f9e5 0d3f
00000280: 6b07 3c3f a898 453e 83f2 25bf 18c8 233f
00000290: fa6d 8dbf dd88 9d3e 8bdd 24be d9c3 803e
000002a0: 2e94 f33e 3265 5cbf cff3 08bf 57ea 36bf
000002b0: ca85 123f 7544 d53d 7ba2 ebbd 9b67 73bf
000002c0: 0299 9c3e 869e 253f 6e64 5f3f d783 e93e
000002d0: 72aa 663f 4d78 2dbe 2333 c13e dff5 403f
000002e0: 39eb c73d b9a2 fd3e 79c2 a2bf b2a3 0abf
000002f0: e0c5 3dbe bf16 f83e 505f f8bc 6d9c 863e
00000300: 7593 e3bd 395e 233f 7e75 9a3e f36a 9ebe
00000310: 35ec bc3e fd35 123f 3bd7 0ebf 44e8 3bbf
00000320: e5c7 7c3f 4f2a 913e e3ad db3e 497c 32bf
00000330: 8d4b 313f efcc 593e 4159 8fbe ba4b a33e
00000340: de45 f9be a686 743e 824d 753e e44f 7a3e
00000350: 914d 10be e4a8 06be 125b eb3d 5c85 e2bd
00000360: aa04 46bf 2b24 26bf 4cf0 39bf acba 6abf
00000370: 6ab2 90be 38fc d23e 7d90 1abe 01c5 813e
00000380: b110 e4be f2ce 5ebf 60e5 9dbe 1e55 35bf
00000390: 0b84 1c3e 6585 ebbe 5e01 9cbe 5520 15bf
000003a0: b7b6 ecbd dd7b dc3e e091 e9bd c159 95bf
000003b0: 1bea 1e3f 0d93 2cbf 805b 8a3e e969 e73e
000003c0: 4e4c 66be 20fe bc3e 1a4f 6a3f b00c 65be
000003d0: 643f 65be a966 513f 7ea4 023f 5b74 8dbe
000003e0: 1764 17bd 146e 87bf f098 303d 00ea 033f
000003f0: de92 b63d 6d96 09bd a722 0fbf 0638 163d
-0.19650789 0.7090738 -1.2839496 1.138182 -0.68138474 0.48238435 0.011893069 0.035198823
-0.15225194 -0.050590158 -0.6288634 -0.50356966 0.24721947 -0.899665 0.51678985 0.40407526
-0.34300122 -0.17378186 0.13119252 -1.0048839 0.55934113 -0.79175496 -0.052158028 0.23894376
0.52919954 -0.65700793 -0.37128797 -0.5564578 -0.68185157 -0.11887052 -0.2734394 0.16053964
0.08680761 0.07764469 0.12588072 0.03508139 0.08535359 -0.9576194 -0.21944222 0.5863681
-0.025783334 0.5105505 0.50715476 0.75091356 -0.10511441 -0.27765444 -0.39697734 0.5045967
-0.98014796 -1.0604659 0.011471116 -0.020455321 0.68359685 0.09382478 -0.46704325 0.0753512
-0.00012010492 0.16898853 0.36874017 0.06495371 -0.0824397 -0.3598504 -0.9492186 0.21742249
0.74965817 -1.1828797 -0.43097833 -0.1982571 -0.65466774 -0.1675413 0.0403357 0.3516781
0.39200044 -0.3730031 -0.8853574 0.1219288 0.41156635 0.55610836 -0.034981053 -0.6458401
0.37665877 -0.6044065 -0.25180876 0.30508742 0.12266128 -0.042376474 -0.45273858 -0.77774847
-0.6264384 -0.064874545 0.4202185 0.68999404 0.20467691 -0.34601268 0.6094231 -0.21284917
-0.02590814 -0.42456695 -0.48930287 -0.52077955 -0.4745036 -0.7222905 1.243722 -0.22967228
0.17812866 -0.11601375 0.583753 -0.5837564 0.6081127 -0.07084803 -0.089158356 -0.20236209
-0.44767404 0.6531968 0.24799833 -0.3958291 -0.58949375 -0.14647056 0.08969044 -0.3637478
-0.053012438 0.17248128 0.5433944 -0.7838932 -0.16485211 -0.3557751 0.36024746 0.7327935
-0.14317743 0.2955125 -0.508904 0.04623286 -0.48866883 0.95643014 -0.32460684 -0.027960472
-0.70384604 0.3212848 0.37792626 -0.55668813 -0.24453102 0.74999654 0.08171788 0.18271855
-0.57359594 0.5683386 -0.04256448 0.44658107 0.05466315 -0.39048186 1.054479 -0.25460887
0.28912064 0.40969396 -0.51255053 -0.55224454 0.06151565 0.0059639243 -0.58049434 0.55429035
0.7344882 0.19296515 -0.6482317 0.63977194 -1.1049187 0.3076848 -0.16100137 0.2514942
0.4757399 -0.8609191 -0.5349702 -0.71451324 0.57235396 0.10413448 -0.115056 -0.95079964
0.30585486 0.6469501 0.8726262 0.45608398 0.9010383 -0.16940422 0.37734327 0.7537517
0.09761662 0.4953821 -1.2715598 -0.5415603 -0.18532515 0.48454854 -0.030318886 0.26291218
-0.111121096 0.6381565 0.30167764 -0.3094097 0.36898962 0.5711363 -0.55797166 -0.73401284
0.98742515 0.2835259 0.42906103 -0.69720894 0.69255906 0.21269582 -0.27997783 0.31893712
-0.48686117 0.2387949 0.23955348 0.24444538 -0.14092089 -0.13150364 0.1149198 -0.110605925
-0.77350867 -0.6489894 -0.7263229 -0.9169109 -0.2826112 0.41208053 -0.1509418 0.25345615
-0.44543985 -0.87034523 -0.30839062 -0.70833004 0.15284745 -0.4600021 -0.30469793 -0.5825246
-0.115582876 0.4306325 -0.114047766 -1.1668016 0.62075967 -0.6741188 0.27022934 0.4519799
-0.22490045 0.36912632 0.9152695 -0.22368121 -0.22387463 0.8179727 0.51032245 -0.27627835
-0.036960687 -1.0580468 0.043114603 0.5152893 0.089147314 -0.033590723 -0.5591225 0.036674522

edge_embedding_layer_p.edge_embedding_NN.weight f4 [31, 2]
00000000: 7b6d 363e 6360 cbbe f87c f53e 7b44 8bbf
00000010: 7ad2 ec3e dda0 c83e e548 4dbd 7a10 0bbf
00000020: 1ff5 033f a821 f93e 0c73 dfbe 5451 0c3f
00000030: 0f29 233f 9cc3 d1be 4443 b5be 1811 833f
00000040: 948d 933e 2e5b 23bf f99c 1bbf 833b 5dbf
00000050: b0ab 3bbe 7274 933e 2595 4f3f 9847 553e
00000060: 8b31 89bf 55e0 5cbf b44b 4bbd 179d 6bbf
00000070: 18ad 8c3e 52a5 bbbc d6ee a3bd 00c3 eabe
00000080: 9258 a63e b257 3ebf ed70 fd3e 9ef0 973d
00000090: d39e 8cbb dc28 ebbd 4ffe cebe d564 ecbe
000000a0: b95c 1e3f a4da b0bf 1b10 1abe 2bbe 7dbf
000000b0: 8567 93bd 90f1 8bbe 91f0 393f e076 f7bb
000000c0: 2a4b 92bd 76df b6be bcb3 213e b48f 28bc
000000d0: ac00 f2be 1299 033f 3b1a 473b 8d29 5abd
000000e0: 70ea c9be 6269 72be b17b 3fbe 4f78 23bb
000000f0: 4ab5 e2be 8646 5fbe
0.17815201 -0.39721975 0.47946906 -1.0880274 0.4625433 0.3918523 -0.050118346 -0.54322016
0.515459 0.4865849 -0.4364246 0.54811597 0.63734525 -0.4096955 -0.35402882 1.0239592
0.28818953 -0.63811004 -0.60786396 -0.8641893 -0.18327212 0.28799778 0.8108695 0.20828092
-1.0718244 -0.86279804 -0.049632743 -0.92036575 0.2747581 -0.02290598 -0.08004539 -0.45851898
0.3248945 -0.7435256 0.49500218 0.07418941 -0.0042913943 -0.11482403 -0.40428397 -0.4617068
0.61860234 -1.3816724 -0.15045206 -0.991183 -0.07197479 -0.27332735 0.726327 -0.007552013
-0.07143243 -0.35717362 0.1579122 -0.010288168 -0.47266138 0.5140544 0.0030380625 -0.053262282
-0.39436674 -0.23673013 -0.18699528 -0.0024943536 -0.44278938 -0.21804246

edge_embedding_layer_p.edge_feature_NN.weight f4 [32, 32]
00000000: e16d 5a3f bfbe aebe 60b1 613f 827b a63e
00000010: 2539 9cbd bfa9 fdbe 5429 4abf 1dbc ee3d
00000020: 9d3e 05bf 4b5f 7d3f 8066 d73d b21c 35bf
00000030: bb00 33be 62f9 2bbe b6bd d0be b144 f63e
00000040: 6c54 eabd a201 dc3e 639f 32be 1901 2dbe
00000050: 383d 703e 668c 9dbe 91ee 9bbc 254f 373e
00000060: 61f7 06bd cbc2 01bf 016b 12be 9714 59bf
00000070: 2f09 1e3f bc1d a8be 27ae 883e 2a76 82bf
00000080: df10 343e 9790 0dc0 0850 e03e f514 94bf
00000090: 1f2e e23e 5c28 ea3e d0df 87be abff ebbd
000000a0: b49e fcbf e0ab 14bf dc38 41be 1cd6 1abf
000000b0: 74db a2be b51c 1a3f 052d 423f c0aa f83d
000000c0: 2293 97bf 9bb8 7a3f 812b 9cbf fe1d a63e
000000d0: 698b 8cbf 9ef6 d33e f217 06bf 482d fcbe
000000e0: 4155 4f3f bbd4 4a3f 2277 5e3e 1cbd 3e3f
000000f0: 828b ccbe 1842 25be 706f 653e cdca 5abe
00000100: 85b4 07bf de66 b4bf 28eb fcbe 47a6 9d3f
00000110: 2ffc 43be 6a24 06bf 1922 abbf c9ac eebc
00000120: 7125 ac3e 4336 583e 99b8 ba3d b414 a53e
00000130: 6d3c 96be 2576 e1be 2856 6ebe 8f0c 003f
00000140: 19dc a53d f3de b6bc 6735 6d3e 02c1 963d
00000150: 41c9 89be a072 1d3f cde3 d23e c187 d9bf
00000160: 1a45 21bf be11 8fbe 89b5 f3bd 4a3b 123e
00000170: 6a4d 373f 7f79 abbe b05b c83e 281d 4b3e
00000180: 6987 1abf 7e81 6abe 4b81 0abf 40f0 6c3f
00000190: b540 5bbf 9d9d 34bf 655f 19bf 0c6f 37be
000001a0: 07a2 633e 00d7 0dbd cc11 3ebe ebf6 64be
000001b0: 51e9 14bf 5235 753f 90ab da3c 0d2d f3be
000001c0: 5f1b a5bf 59b3 d2be 822b f6be ddff 793f
000001d0: 1498 ba3e 24a2 d03e c557 5ebe 435c 913c
000001e0: 890c f53e 5d5d 913e 0c6b 113f 1ec9 f43d
000001f0: 1c31 963e 3466 153f 2004 02bf 72c8 e7bc
00000200: 9daf fa3d 96b7 e0be 7248 163f 1d26 e0be
00000210: e7fd 213f 0f9a 1abe 7cd0 0ebe 3027 34bf
00000220: 22ff f2be 726a 25bf b55e 4c3e ea04 2c3f
00000230: ff36 ecbe 856a 83be a2c3 09bf 6901 943e
00000240: 4965 cfbd dfac 803f e927 45bf ea39 063e
00000250: 4a64 02c0 5bbe d83c 3ea2 27be c229 2a3e
00000260: 71fd 113f 3992 39bf 2482 633e 6bb0 8b3e
00000270: 8b21 943d a4f8 7a3e 4bf4 893e e13a d9bd
00000280: e694 bf3d 919c 2cbf bd79 b1bd cfbd 833f
00000290: c074 803f c106 11bd d516 913e c2bb c53d
000002a0: c78c 20be 8445 93be a0f2 a8be 5b00 c5be
000002b0: 32b9 133f 719d 0b3f 8934 0cbe a1f5 e73e
000002c0: e055 22bf 1338 e33e b5eb b8be dfc6 b6be
000002d0: 2511 a7bf 7589 b13e eae1 2b3f 533c 20be
000002e0: 8d42 573c d8bd 263f 6f4b 143e aee1 98be
000002f0: 607a 89bd 6573 b4be ff54 81bd 306b cc3b
00000300: f674 08be 37c5 7bbf f58b 8f3d 91a4 b6be
00000310: 4236 68bf 0d2d 86bf 1144 95bf 5385 903d
00000320: d145 54bf bc38 7f3e 8f54 823f ba87 19bf
00000330: 9415 483f f8be 10bf c6b2 0ebf 514a e23e
00000340: 7ab5 313e 9800 95bf 9c09 59bf ad40 11be
00000350: a35a 60bf 0f71 d0be 8cee 10bf 8b89 00c0
00000360: 3237 0a3e 0d72 c7bf 5d01 7cbe f523 393f
00000370: bc7a 423f a269 2f3d 1ca4 1f3e d532 f03e
00000380: 6f47 41bf 0dd7 e1be 264f 5c3f dd14 aabf
00000390: f417 cf3f e3ac 1fbf b1a6 b23e a75c ac3e
000003a0: 637b 4d3f feb6 8a3d b52a b1be 7bc5 11be
000003b0: c998 a7bd 17cd 5e3e 38c8 b93e 9590 73be
000003c0: b930 91be 0157 08bf 1e23 1dbd ead8 dfbc
000003d0: acf7 d63d 904e 6b3e 75b8 803f 4cfc 0c3f
000003e0: ecb1 40bf 3519 d53e 765a d4be db79 ba3e
000003f0: 5a2a 78bf 3d1a 783d 380b d73e 10a5 aebf
0.8532391 -0.34129903 0.8816128 0.32516104 -0.07628087 -0.49543568 -0.7896931 0.116569735
-0.52048665 0.9897353 0.10517597 -0.7074691 -0.17480747 -0.1679435 -0.40769738 0.48099282
-0.114418834 0.42969996 -0.17443614 -0.1689495 0.23460853 -0.30771178 -0.019034656 0.17901285
-0.032950763 -0.50687855 -0.14298631 -0.8479704 0.61732763 -0.32835186 0.26695368 -1.0192311
0.17584561 -2.21195 0.4381106 -1.1568896 0.44175813 0.45733917 -0.26537943 -0.11523374
-1.9735932 -0.5807476 -0.18869346 -0.60482955 -0.31808054 0.60200053 0.75849944 0.12141943
-1.1841776 0.97937936 -1.2200776 0.32444757 -1.0980045 0.4139909 -0.5238029 -0.49253297
0.8098946 0.7923085 0.21725133 0.7450731 -0.39950186 -0.16138494 0.22405791 -0.21366425
-0.53009826 -1.4093893 -0.4939816 1.2316369 -0.19139169 -0.52399313 -1.3369781 -0.029135125
0.33622316 0.21114449 0.091172405 0.32242358 -0.29342976 -0.4403545 -0.23275054 0.5001916
0.08098621 -0.022323107 0.23164903 0.07361032 -0.26911357 0.6150303 0.41189423 -1.6994554
-0.62996066 -0.27943224 -0.118998595 0.1428043 0.716025 -0.33491132 0.39132452 0.19835341
-0.6036287 -0.2290096 -0.54103535 0.9255409 -0.8564561 -0.70553 -0.59911186 -0.17913455
0.22229777 -0.034628868 -0.18561476 -0.22359817 -0.5816851 0.95784485 0.026693135 -0.4749531
-1.2898978 -0.41152456 -0.4808007 0.9765604 0.3644415 0.40748703 -0.21713169 0.01774419
0.47861126 0.28391543 0.56803966 0.119524226 0.29334342 0.58359075 -0.50787544 -0.028293822
0.12240527 -0.43890065 0.5870429 -0.43779078 0.6327805 -0.15097831 -0.13946718 -0.70372295
-0.47460276 -0.6461555 0.19958003 0.67195 -0.4613571 -0.25667205 -0.53814137 0.28907326
-0.101267405 1.0052756 -0.77014023 0.1310803 -2.0373712 0.026457956 -0.16370484 0.16617492
0.57027346 -0.72488743 0.22217613 0.27283034 0.0723296 0.24508911 0.26944193 -0.106069334
0.09354572 -0.674264 -0.08665798 1.02923 1.0035629 -0.03540683 0.28337732 0.096549526
-0.15678702 -0.28763974 -0.32997608 -0.38476834 0.5770446 0.5453711 -0.13691916 0.45304587
-0.63412285 0.4437872 -0.3611733 -0.35698602 -1.3052107 0.34675184 0.6714159 -0.15648012
0.013138426 0.6513343 0.144819 -0.2985968 -0.06712794 -0.3524429 -0.0631504 0.0062383637
-0.13325867 -0.983478 0.070091166 -0.3567243 -0.9070779 -1.0482498 -1.1661397 0.070566796
-0.8291903 0.24923986 1.0182055 -0.5997273 0.78157926 -0.56541395 -0.55741537 0.44197324
0.17354384 -1.1640806 -0.8478029 -0.14184828 -0.876383 -0.40711257 -0.56613994 -2.008395
0.13497618 -1.558168 -0.24609895 0.7232049 0.7596853 0.04282535 0.15589947 0.46913782
-0.75499624 -0.44109383 0.8605827 -1.3287617 1.6179185 -0.6237318 0.348928 0.33664438
0.802664 0.06773184 -0.34602895 -0.14235489 -0.08183438 0.21757923 0.36285567 -0.23785622
-0.28357485 -0.5325776 -0.03836357 -0.027325112 0.104964584 0.22979188 1.0056292 0.55072474
-0.7527149 0.41620794 -0.41475266 0.36421093 -0.96939623 0.060571898 0.42000747 -1.3644123

update_node_embedding_layer_g.0.message_layer.weight f4 [32, 64]
00000000: 9164 aabe 3f06 4c3f 22fb 8bbf 1164 62be
00000010: 6cef 3f3f 41d1 d23b cdc1 90be ffe6 a2bf
00000020: b3d0 6a3d 2485 b43e eecc 3e3e a08c c93d
00000030: 3c55 5c3e 9221 98be 56c6 22be c801 debe
00000040: a136 893e 4329 30bf 252a b3bd 6ad7 0abf
00000050: 888b d43f 12d0 30bf 4644 afbd 0cf5 443e
00000060: 4fb9 d8bc 720c 3e3e 8b40 a23d 75ba 15bc
00000070: fde7 cabd 8750 6f3e fb7d 133e 19c4 7b3e
00000080: 118d 8cbf 889b d0be 8ad0 b53e e8ef c03e
00000090: ff00 4ebe a33c 013f 142c aa3e a74e 64be
000000a0: 1575 ef3e ebf3 95bf 500d 33bf ae89 923d
000000b0: b8ad bf3e 6b6a 063f 25b5 62be 3202 88bd
000000c0: 525e 24bd 3fe2 d8bd ed0f c5be 2eec 713d
000000d0: 457a 9a3d 78fe 37be bfa7 f0be d642 79bc
000000e0: a5de cc3e aa95 103f 67e7 41be 2710 1ebe
000000f0: bf7f ad3e a211 70bf f159 b63e ef8e f4be
00000100: c50b 1cbe 5c94 cf3d 3a08 203f 5153 00be
00000110: 4db9 383f 1f8a afbe e9fc c23e bc98 253f
00000120: 4067 0a3f fa00 8cbf 3a2d 443d 82db 76bf
00000130: ae22 81be c4fa cabe b2ec 7fbf 294d 6abe
00000140: 6618 debe cda1 ff3d 86d4 4abf 64c9 813f
00000150: be68 30bf a9bb 503f f9cf d8be 47d9 803e
00000160: bf50 b63c 82e9 7c3e ffb7 5e3e 388d 803e
00000170: c6d2 193f f201 3b3f 4d66 913e 8b73 12bf
00000180: 382e 69bf e863 31bf decb 3dbf 366c efbf
00000190: 4a2f c8be 495e 0a3f ef97 84be 7ad2 f23d
000001a0: 0079 033d 6380 fa3e e9c3 33bf 6ebf 37bf
000001b0: 40ec 55be 1de3 96be d4db 8bbe 0a43 d736
000001c0: f33b 3abe f479 0cc0 5d53 0fbf a573 2bbf
000001d0: a4a7 37bf 72fc 713f 3154 d43e 6e84 97be
000001e0: eabb 3cbf 9bc0 41be a30d 4abe 2f52 863e
000001f0: 74e3 4e3f 9bc5 c3be 7d0e 013e 7051 863f
00000200: 3b83 303e 665e 52bf 107b 5fbe 8357 ed3e
00000210: aca0 8fbf 6ba5 8c3e 7821 51bf ff0b 83be
00000220: 8116 a53e d5d1 ccbe 667e 3c3f bde1 a1be
00000230: 9988 dfbe f360 453f bfa4 07bf f819 cdbd
00000240: 9296 87be 0eda 4cbf 953d 14bf 061d 21be
00000250: 35a5 62bd 7caf f3be 7e03 a63e 9826 95be
00000260: 8400 8f3f 14ec 2bbe d884 043f 667d c1bf
00000270: ecdd 3cbe 77d1 983f ca25 0d3f a32b 8c3c
00000280: 10d0 7a3f f1aa dd3d 9c4c a5be 027d d33e
00000290: 5190 0dbf e9d5 8e3f e066 153d 7cc6 acbe
000002a0: 01e6 2fbe a240 d4be f255 babe 6ac2 efbe
000002b0: 7feb fe3e 76db 683b e4b7 d6bc ec42 563f
000002c0: 40a4 5a3f 3883 a9be 6e73 26bf 6e86 9a3e
000002d0: af80 1fbf 1b65 c73e 6806 763e 5d82 273f
000002e0: 3ba4 46bf 4874 cd3d 42e7 e0bd 1f19 083f
000002f0: ddcd 803f 9484 c93e 4d53 52bd cbf8 213f
00000300: 7caa 1c3e 7f9d 263f 95fa 4bbe 8296 3fbf
00000310: bbb8 053e ab13 a2be 697a 1ebe f29d 7c3e
00000320: 1ecf 10be f940 493e 26ec 04bf 3a86 26bf
00000330: 1bbc 37be c1c6 663e 9305 38be 93e7 cabe
00000340: c240 b2bf 3719 113e fb30 0dbf 5665 91bd
00000350: 6360 80bf e565 8bbd 803a 603e 559e ce3e
00000360: f5ca e7be 6563 7b3f 4231 0e3e 8015 14bf
00000370: bbe4 26be 87c6 943e d31e c1bd 3dd6 be3d
00000380: 47b8 22bd 0410 9cbe 6d19 8f3e 6bdb dcbd
00000390: 6d52 1fbf de24 f93e 84c6 17bf 2156 b3be
000003a0: 1bcd 9dbe da10 1ebd 4d7a 26bf 51ab 1e3f
000003b0: 96bf 0ebe 7490 42bf 4876 2d3d 1cbf babe
000003c0: 833f 99be 045c d83e 577a 3a3f 066c b0bd
000003d0: 5d70 5fbf 4057 15bc 75c3 d7be 60e4 943e
000003e0: fd31 77bf c435 09bf d18d 1a3f ffdb 41bd
000003f0: 9778 ad3e 4ad8 e03e 58ab b9bc e39b e6be
-0.3327985 0.7969703 -1.0936015 -0.22108485 0.74974704 0.0064336364 -0.28272858 -1.2726744
0.057327937 0.35257828 0.18632862 0.09841275 0.2151689 -0.29713112 -0.15895972 -0.43360734
0.2679949 -0.6881296 -0.08748273 -0.54234946 1.6605082 -0.6906749 -0.08557944 0.19234103
-0.02645555 0.18559435 0.07922467 -0.009138693 -0.099075295 0.23370562 0.14403526 0.24586524
-1.098055 -0.4074366 0.35510665 0.37683034 -0.20117567 0.5048315 0.33236754 -0.22295628
0.46769014 -1.1715063 -0.6994219 0.071551666 0.37437224 0.5250613 -0.22139414 -0.06641044
-0.040129013 -0.10590028 -0.38488713 0.05906313 0.07542852 -0.17968166 -0.4700298 -0.015213689
0.40013614 0.5647837 -0.18935929 -0.15435849 0.33886525 -0.93776906 0.35615495 -0.477653
-0.15238865 0.10135719 0.6251255 -0.12531783 0.72157747 -0.34285066 0.3808358 0.6468618
0.54063797 -1.0937798 0.047894694 -0.9642869 -0.2522177 -0.39644444 -0.99970543 -0.22880997
-0.4337799 0.12482033 -0.79230535 1.0139585 -0.68909824 0.81536347 -0.4234617 0.2516577
0.0222553 0.24698451 0.21749876 0.2510774 0.6008724 0.73049843 0.28398362 -0.57207555
-0.9108615 -0.6929307 -0.741392 -1.8704898 -0.3909858 0.5405012 -0.25897166 0.118565515
0.032097816 0.48926076 -0.7022081 -0.71776474 -0.20890903 -0.2947015 -0.27316153 6.4153037e-06
-0.18186931 -2.1949434 -0.5598658 -0.66973335 -0.71740174 0.94525826 0.41470483 -0.29593223
-0.73724234 -0.1892113 -0.19731764 0.26234576 0.80815816 -0.38236699 0.12603183 1.0493603
0.1723756 -0.8217529 -0.21824288 0.4635583 -1.1220908 0.27469954 -0.81691694 -0.2559509
0.32243732 -0.4000384 0.7363037 -0.31617537 -0.43658903 0.7710106 -0.5298576 -0.10014719
-0.26482064 -0.80020225 -0.57906467 -0.15733728 -0.055333335 -0.4759482 0.3242454 -0.29131007
1.1172032 -0.16789275 0.51765203 -1.5116394 -0.18444031 1.1938924 0.55135787 0.017110651
0.9797373 0.1082362 -0.3228501 0.4130631 -0.55298334 1.115903 0.036475062 -0.33745182
-0.17177583 -0.4145556 -0.36393696 -0.46828014 0.49789044 0.00355312 -0.026210733 0.83695865
0.85406876 -0.33107924 -0.6501988 0.30180687 -0.6230573 0.38944325 0.24025881 0.65433294
-0.77594346 0.100319445 -0.10981609 0.5316333 1.0062824 0.39358962 -0.051348973 0.6327025
0.1529941 0.6508407 -0.19919808 -0.7483903 0.1305875 -0.3165563 -0.15476383 0.24669626
-0.14141509 0.19653691 -0.51922834 -0.65048563 -0.1794285 0.22536756 -0.17970876 -0.39629802
-1.3926013 0.14169775 -0.55152863 -0.070994064 -1.0029415 -0.06806544 0.21897316 0.40355173
-0.4527203 0.9819854 0.13885978 -0.57845306 -0.16298191 0.29057714 -0.094297074 0.093182065
-0.03972652 -0.3048097 0.27949086 -0.10784038 -0.62235147 0.4866094 -0.59287286 -0.3502665
-0.30820546 -0.03859029 -0.65030366 0.6198016 -0.13940272 -0.7600167 0.04234913 -0.3647393
-0.29931268 0.42257702 0.72842926 -0.08614354 -0.8728083 -0.00911504 -0.4214131 0.29080486
-0.9656065 -0.53597665 0.60372645 -0.047328945 0.33881065 0.43915015 -0.02266471 -0.45040807

update_node_embedding_layer_g.0.update_layer.weight f4 [32, 64]
00000000: 66a9 54bf 0d8b 933e 020a 443e d92c 093d
00000010: 4469 383a 048e 07bf 87de 2dbf 4b0c cdbe
00000020: c70a b8be 9dc8 2e3f fb98 ce3e ae32 1fbf
00000030: bde4 4f3d 03b6 6fbf 4602 d7be 691f 773e
00000040: 3a13 0c3e f051 21bf 8c78 353f f4ac fdbe
00000050: 2445 1abf c253 c13e a458 d63d 9d92 043f
00000060: 47d0 653e 8936 13bf 877a 4d3c d0d8 20be
00000070: d26c 5d3d ac48 0c3f c268 edbc 9ee8 87bd
00000080: 9371 c13e 1533 85be e617 c7be 6940 f4be
00000090: 776a 083f ff1f b1be 735c 0d3f 98e8 3cbe
000000a0: 40b8 f7be f1d2 44bf bbcb fbbe d63b 673e
000000b0: 1c04 ee3d d54d dd3e 0245 21bf af38 c0be
000000c0: 5931 b43e 3a08 85be d35c 2fbf b9fb bbbe
000000d0: 5ecf ab3e d52f 14bf 465c 93bf 13c2 66bf
000000e0: 22e2 da3e 43ce 7f3e da9e fd3d 632e 393e
000000f0: 3871 753e af78 843e bbc1 353f 8944 a63e
00000100: 8a16 b03e 5783 fcbd 428f 3cbf 56ee 3cbf
00000110: 103e 213f d8bc 093f 4f9c 70bd 3e74 bd3e
00000120: 73cd 9d3e f317 7ebe acb3 fdbd 2c23 b43e
00000130: cd09 28bf 6099 6cbd 14ad 573e 3073 77be
00000140: a62a d73d 2e28 fa3d 82a4 2c3d 3349 80bf
00000150: 84e3 f7be 6b11 303c 1e40 64bc 6f4f 193f
00000160: c128 7fbe bf2c ee3d da84 1fbf bf18 babc
00000170: 60b2 b0be b35e 55bf 5b18 7b3e 5a30 0a3e
00000180: b444 033e 513b 74bb 50d6 483e 1262 b73e
00000190: d707 c53e 57a2 acbe b5a7 2f3f c6a9 173f
000001a0: 833e fbbd d179 113e 7dc0 0c3d 898c 83bd
000001b0: 59bc 223e 21e5 31be e43a 71be e74b e3bb
000001c0: 7ac9 263f 96b3 09bf 3666 373e ecbd cf3e
000001d0: 466a 2e3f cae8 13bf 3068 47bf 02c0 d5be
000001e0: 62c8 6c3f f527 8b3e b9ec 6abe 9745 26bf
000001f0: f550 8c3e f810 953e cdb2 003e b47b 65be
00000200: 67a6 a83f 9227 c63d 2daf 103e aac0 14bf
00000210: 6486 6cbc df09 03bf 31a8 223f 3aa7 03bf
00000220: 4fd7 5fbe 3d12 e2bd 1852 403f 5864 1e3e
00000230: 5d4d f3be 8c72 d83e 3f61 2dbf 1b17 ea3e
00000240: 2c22 5dbe 3096 61ba 12b6 e0be be6a 07be
00000250: cab5 373e ccee f1bd 4eff 55bf 62d3 1abf
00000260: a831 dabe 4642 853e d895 c83e 5329 98be
00000270: d4e8 9dbe d935 1d3e e41a 6ebf cc42 97be
00000280: 3626 c3be b14d 02bf 92df 19bf 58e8 1f3f
00000290: e193 463f 9eda 2d3d d11a e2be ac06 a7bd
000002a0: 8d20 d7be b237 8bbe 281e 9cbd 9cf0 4dbf
000002b0: 53a2 1a3f 646a 5a39 3d08 3d3f ae9c 913e
000002c0: 62ce 0a3f 7da5 1dbf fd26 203f f3c4 f53f
000002d0: f481 e43d ff47 09bf ce41 69bf 9a76 c73e
000002e0: fd97 11be 9fcb a53e a77c f6be 31aa 5cbe
000002f0: d132 24bf a316 9c3e db51 a4be c513 19bf
00000300: 643f 95bf ad5e 85be 190d 883f 04bc f8be
00000310: 96b9 2f3f 1393 d23e 673b a7be e4d8 6f3f
00000320: 04c8 853f 58b2 51bf 9fc5 d1bc 7db6 253e
00000330: e3e8 fe3d af5d a2be 858c a43d 6198 893f
00000340: 3332 28bf 00cd 843d 3711 10be b1dd 27bf
00000350: 9d08 333e e703 6fbf 3ede f5be 8ff4 643e
00000360: 21ee 81bf 359f c8be 5c91 ae3e a72f 88bf
00000370: 9872 41bf 68c1 b53e 964d 8e3f 1c91 4bbd
00000380: 0b81 cc3d 2211 023f 4495 9c3f 2c4b 2f3f
00000390: 031b b0bd 6178 473e d652 08bb 50b5 87be
000003a0: 8755 cb3e 5f37 00bf 7f83 82be 11a6 933e
000003b0: c781 113f 0aae 94bc d20a b6be f9cc bfbe
000003c0: 7633 0dbf ff92 10bf a56f 0e3f 3b03 84be
000003d0: 40eb 0fbc 5d21 2f3e 8e9d 8dbe ad20 5cbf
000003e0: b719 71bd a52a 0f3f 33bc 033f 69bb e7bc
000003f0: 4ff9 33bf 8e9f c13d 2238 76bf ec9b 1abf
-0.8307098 0.28817025 0.19144443 0.033490036 0.0007034729 -0.52951074 -0.67917675 -0.4004844
-0.35945722 0.6827486 0.4035109 -0.62186706 0.05075525 -0.936371 -0.41993922 0.24133076
0.1367921 -0.6301565 0.70887065 -0.49546015 -0.6026175 0.37759215 0.104661256 0.51786214
0.22442733 -0.5750509 0.01254142 -0.15707707 0.054058857 0.5479839 -0.028980616 -0.06636165
0.37781963 -0.26015535 -0.3888542 -0.4770539 0.5328745 -0.34594724 0.5521919 -0.18448102
-0.4838276 -0.7688437 -0.49178872 0.2258142 0.116218776 0.43223444 -0.6299592 -0.37543246
0.351939 -0.2598284 -0.68501014 -0.36715487 0.33556646 -0.57885486 -1.1512535 -0.90139884
0.4275065 0.24981026 0.12383814 0.18084101 0.23968971 0.25873324 0.70998734 0.32474163
0.34392196 -0.123297386 -0.73656094 -0.7380117 0.62985325 0.5380378 -0.058742817 0.37002748
0.30820808 -0.24813823 -0.12387785 0.35183084 -0.65639955 -0.057763457 0.21062118 -0.24165034
0.105061814 0.12214695 0.042149074 -1.0022339 -0.48415768 0.01074634 -0.013931302 0.5988683
-0.2491789 0.116296284 -0.6231209 -0.022716878 -0.3451109 -0.83347625 0.2452101 0.13495007
0.12819177 -0.00372668 0.19613004 0.3581701 0.38482544 -0.33717605 0.68615276 0.5924343
-0.122677825 0.14206626 0.03436326 -0.06423289 0.15892161 -0.17372562 -0.23557621 -0.0069365385
0.6515118 -0.5378965 0.17910084 0.40574586 0.6813091 -0.5777708 -0.7789335 -0.41748053
0.9249326 0.27178922 -0.22941865 -0.64949936 0.27405515 0.2911451 0.12568207 -0.2241047
1.3175782 0.09675516 0.14129324 -0.5810648 -0.014436338 -0.5118694 0.6353789 -0.5142704
-0.21859477 -0.11038635 0.75125265 0.15467966 -0.4751996 0.42274892 -0.6772651 0.45720753
-0.21595067 -0.00086054485 -0.4388891 -0.13224313 0.17940441 -0.11813125 -0.8359269 -0.60478795
-0.4261601 0.26027125 0.39176822 -0.29719028 -0.30841696 0.15352573 -0.9300978 -0.2954315
-0.3811509 -0.508998 -0.60106766 0.62463903 0.77569395 0.042444818 -0.44161084 -0.081555694
-0.42017022 -0.2719093 -0.07622939 -0.80445266 0.6040394 0.00020829734 0.73840696 0.2843985
0.54221165 -0.6158064 0.6255949 1.9200729 0.11157599 -0.5362548 -0.91116035 0.38957673
-0.14218135 0.32381913 -0.48141977 -0.21549298 -0.6414004 0.3048602 -0.320937 -0.5979579
-1.165997 -0.26048794 1.0628997 -0.48580945 0.68642557 0.41127834 -0.32662508 0.93690324
1.0451665 -0.81912756 -0.025606928 0.16182895 0.12446763 -0.317121 0.080346145 1.0749627
-0.657016 0.06484413 -0.14069067 -0.6557265 0.17483754 -0.9336533 -0.4802112 0.22358917
-1.0150796 -0.39183965 0.34095275 -1.0639542 -0.7556548 0.3549912 1.1117427 -0.049698934
0.099855505 0.5080739 1.2233052 0.6847408 -0.08598902 0.19479515 -0.0020801327 -0.26505518
0.3971369 -0.5008449 -0.2549095 0.28837636 0.5683865 -0.018149395 -0.3555513 -0.3746107
-0.5515665 -0.564743 0.55639106 -0.25783715 -0.008784115 0.17102571 -0.27659267 -0.8598736
-0.058862414 0.55924445 0.51459044 -0.028287606 -0.7030229 0.09454261 -0.961794 -0.6039417

update_node_embedding_layer_g.1.message_layer.weight f4 [32, 64]
00000000: f67d c6bf 0338 e6bc bcad f13d 864c a6be
00000010: cc62 0fbf 1d8b 023e aefa a5be 6e7d 8f3f
00000020: 64f3 fa3e 8620 71bf 4230 d5be e4d9 093e
00000030: 3d2a 8fbf 02a4 4abe 2506 04bf 42f6 a8be
00000040: ecc4 84be 2510 913e 2e89 0c3f ce31 913e
00000050: d3e0 60bf 785b 53bf 46a5 e73e b68b cf3d
00000060: d7a4 713f 6a74 a2bf 6599 833e 0641 8fbe
00000070: af0f 3c3e 5be2 cbbe fde7 fc3e 14c6 0a3c
00000080: 4ca8 bfbe 50e1 a13e 30bc 3cbf 2aee 36bf
00000090: d88b e93e 8801 41bf 67a2 003e 7b45 13bf
000000a0: 172d 2dbe 551f 8fbd a102 33bf f6cf 323e
000000b0: c43a d43e d415 153e df01 3b3e 6c66 f53b
000000c0: 2c67 34bf d770 bc3d 494b eb3e a741 a4be
000000d0: fca7 dabe 6855 8ebf 3fc2 10bf 92de 00bf
000000e0: 1a76 13bc 6c63 8e3e 180f 73bf 69d5 36bf
000000f0: 8fec 39bf 3f24 f53e e8cd e93e 315e 3fbf
00000100: 3506 3a3f 0832 f23d d5fd 833e 90b0 563f
00000110: 5e32 71bf 0ce3 5e3d 30e0 253f 0687 03be
00000120: f512 babe 3992 16bf 77c4 0d3e 41d3 aebe
00000130: 2444 2cbf 30ec 4dbe f33c 02bf fc3b afbf
00000140: b2b8 933f 007f dbbd 6a69 693f 94c3 823d
00000150: fb51 893e ffad 703e 8b3c 40bf d566 98bd
00000160: f7f0 873e 9b20 8ebf 8ff7 e0be 4e35 6e3f
00000170: a26b 63be b8d2 bcbe 1e7c eebe 8ccb 933c
00000180: b1d7 6b3d 48c4 5a3f 9468 0a3f 04a5 6ebf
00000190: 3968 4fbd 478a 9ebe 2aa6 9d3a 8737 adbe
000001a0: e268 2cbe b908 c5be 365e 123e 8d46 3f3f
000001b0: 01e2 953e 1e37 ddbe 1fd0 963d 50eb 16bf
000001c0: a680 88bf aa92 83be 8f4a cabd e755 14bf
000001d0: 2c6a cf3e 4885 d4be 5a8f 9abe 59b3 ca3d
000001e0: 1b0f 54bd d8fb 96bf 3db3 92bf 1dfb ee3e
000001f0: 2cee dfbe 90d6 a23e 30ed 02bf 0fd9 32bf
00000200: 6c15 8abf 72a7 36c0 8f1d 9bbd dcee 27bf
00000210: 6027 09bf 7393 2a3e 9585 8dbe 2380 2dbf
00000220: 6e9a 963f a11e 063f 443c 0fbf 39db 513f
00000230: 4841 a1bf 046b a33e cfca adbd 676e 4abf
00000240: b031 15be 7471 d03e 42b6 0cbf d2e2 313d
00000250: df9b 86bf 8f8d 063e bace ccbd 5bd8 e2bf
00000260: 5327 a33e 0f3c df3d 1cc6 4d3f d482 553e
00000270: 05d0 ed3e 4424 a9bd f47c dcbe 5002 f33e
00000280: e27b 0e3f 4661 3c3f fa9d d53e f1a3 6f3d
00000290: 3c7e 3dbf b720 f5be 0843 72bf 1ab2 1a3e
000002a0: e5fb bc3e b1d5 fb3e 5d9c f23d 77b5 b6be
000002b0: d313 74bf 97c2 843e 825f 023e 0b5b b8be
000002c0: e644 0bbf 5757 87bf 7974 d6be 5b21 f1be
000002d0: a548 9a3e c955 f3be 23cc 24bf a755 b43e
000002e0: 8dc2 163f 8fa0 7d3e 3608 3b3f 2b86 613e
000002f0: dc2d c53d b804 703e cb5c 513e 9e9a 4ebf
00000300: 9e42 373e d802 263f 47c7 b03e 91e7 91bf
00000310: d82c a23e b59a 5dbe 6381 6dbf fddc 573d
00000320: 5a3a a4bd 06b7 d0bd a3b7 98bc 5478 a3bf
00000330: adb3 c53e a9c8 ed3d ca75 543d 4cf1 173e
00000340: 9843 bc3f 6758 97bf ea71 273f fee9 e23e
00000350: b5df 493f 2693 303f 0769 c2be ad18 a5be
00000360: c133 2cbe 117e 843e 66eb f0bd ee00 a33f
00000370: 261c ffbd cb68 613e 489d dabf e949 10be
00000380: e1fc bfbf b435 a0bf 412f 35be d679 f23d
00000390: a525 1fbf 23b9 2bbf 8aec 373f 3d79 c03e
000003a0: d084 113e e210 33bf c388 0fbf fb20 013f
000003b0: 2a42 34bf d4ad 13bf 6422 75be e579 23bf
000003c0: 7248 18bf 5305 e43e 05e9 b5be 6752 57bf
000003d0: bd11 d0bd 2959 a6be 6957 8dbe 48bf 703e
000003e0: 0d62 51be 1b9e dd3e 4959 07bf eee2 9c3e
000003f0: 44a9 903e 4309 1bbf abc4 68bd 5b9e 1abf
-1.550719 -0.02810288 0.11800715 -0.32480258 -0.5601013 0.1274838 -0.32417816 1.1210153
0.49013817 -0.9419025 -0.4163838 0.13462025 -1.1184765 -0.19789127 -0.51571876 -0.3300038
-0.2593149 0.2833263 0.5489682 0.2835831 -0.87843055 -0.82561445 0.4524328 0.101340696
0.9439215 -1.2691777 0.25702968 -0.27979296 0.18365358 -0.39821133 0.49395743 0.008470077
-0.37433088 0.31617212 -0.7372465 -0.7145716 0.45614505 -0.7539296 0.12561952 -0.57527894
-0.16911732 -0.06988398 -0.69925886 0.17462143 0.41451085 0.14559108 0.18262433 0.0074890163
-0.7046993 0.0920121 0.45955876 -0.3208134 -0.42706287 -1.1119814 -0.56546396 -0.50339615
-0.009000326 0.27810228 -0.94944906 -0.7141939 -0.72626585 0.47879216 0.45664907 -0.747531
0.7266572 0.11825949 0.25779596 0.83863163 -0.9421748 0.054415748 0.6479521 -0.12844476
-0.36342588 -0.5881687 0.13844477 -0.3414555 -0.67291474 -0.2010963 -0.5087425 -1.3690181
1.154074 -0.10717583 0.91176474 0.0638496 0.2682036 0.23503874 -0.7509238 -0.07441489
0.2655103 -1.11037 -0.43938872 0.93050086 -0.22209027 -0.36879516 -0.4657907 0.018041395
0.057578746 0.8545575 0.54065824 -0.93220544 -0.050636504 -0.30964872 0.001202767 -0.33831427
-0.16836885 -0.38483217 0.14293751 0.74717027 0.2927399 -0.43206114 0.07363915 -0.5895281
-1.066426 -0.25697833 -0.09877502 -0.57943577 0.4051069 -0.41507936 -0.30187494 0.09897489
-0.05177222 -1.1795607 -1.1460949 0.4667596 -0.43736398 0.31804323 -0.5114317 -0.69862455
-1.0787787 -2.85397 -0.07573997 -0.65598845 -0.53575706 0.1665781 -0.27640978 -0.67773646
1.1765878 0.52390486 -0.55951333 0.8197513 -1.2598047 0.31917584 -0.08485948 -0.7907471
-0.14569736 0.40711558 -0.54965603 0.043429203 -1.0516318 0.13139938 -0.100003675 -1.7722276
0.3186594 0.10900127 0.80380416 0.20850688 0.4644777 -0.0825887 -0.43064082 0.47462702
0.5565778 0.7358593 0.4172209 0.058505956 -0.74020743 -0.47876522 -0.9463353 0.15107003
0.3691093 0.4918647 0.1184623 -0.35685322 -0.9534275 0.2592971 0.12731746 -0.3600696
-0.54402006 -1.0573529 -0.41885737 -0.4709576 0.30133548 -0.47526386 -0.6437399 0.35221598
0.5889061 0.2476828 0.73059404 0.22023837 0.096278876 0.234393 0.20445554 -0.8070468
0.17896506 0.6484809 0.34527037 -1.1398793 0.31674838 -0.21641047 -0.92775553 0.052700985
-0.08018942 -0.10191159 -0.018642252 -1.2771096 0.38613644 0.116105385 0.051870145 0.14838141
1.4708128 -1.1823853 0.65408194 0.44319147 0.78856975 0.6897453 -0.37970755 -0.3224539
-0.16816618 0.2587743 -0.11763649 1.2734659 -0.12456541 0.22012632 -1.7079248 -0.14090694
-1.4999048 -1.2516389 -0.17693807 0.118396446 -0.62166816 -0.6707937 0.71845305 0.37592497
0.1421082 -0.69947636 -0.56068057 0.5044095 -0.7041346 -0.57687116 -0.239389 -0.6385787
-0.5948554 0.44535312 -0.35529342 -0.8411011 -0.10159633 -0.324899 -0.2760575 0.23510468
-0.2044756 0.43284687 -0.52870613 0.30641884 0.2825414 -0.6056101 -0.056828182 -0.6039788

update_node_embedding_layer_g.1.update_layer.weight f4 [32, 64]
00000000: cc1f b63e 4933 53bf 337b babd fb3f 9dbf
00000010: 82f7 2d3f 5e52 8e3f 8cc9 2d3f 7a88 99bc
00000020: dcc4 9d3e f4d0 60bf 19c1 acbe 9bbd 70bf
00000030: c267 c1be 50e2 4a3f 2b55 8fbe dac5 b83e
00000040: ad5d 683e 913b b13b 7a9e d5bd 4b85 c5be
00000050: b94f 42be 6c77 8dbd 4dc7 46be c9de 593f
00000060: cdfe 3abe 532f 28bf 051f 773e caa5 7dbd
00000070: 7bcc f23d bb75 debd 1f1a 1a3f 083f d5bd
00000080: 67e7 533e 5249 efbe b2b5 3d3f f380 ca3e
00000090: 8d48 a53c c90a 2cbd babc 503f 74e5 9e3c
000000a0: 5167 8bbe 8d81 9cbe a6de 80be 0249 693f
000000b0: f54a ea3e c8db 88bf 6015 1a3f b535 e5be
000000c0: f00b a93f fc76 ca3d c7b5 1ebf ac8e eebe
000000d0: bae0 b33d bf1f 813e 58e8 1cbf bff0 093f
000000e0: 641e a6be 50b8 953d d960 50bf 20c7 de3c
000000f0: b15d 7a3f e640 5a3d d37c 43bf 98c7 943e
00000100: 2d1f 753e bb8f 2c3f 775c 3cbd 59b2 e5be
00000110: 3199 84bd 34e1 443f 9040 e2bc 7dd2 31bc
00000120: b40e bb3f 31b6 6fbf a025 8ebe 502e 203f
00000130: da26 6abe a4ba 87bf 788a 27bf 419d 09bf
00000140: 5d23 053e 9659 e23e ef10 5fbd 7c86 8cbd
00000150: 26fa debe 5b2e d93e 375b 06bf c54f dfbd
00000160: e2b7 a4be 854d e93e 0477 233f ebcc 64bf
00000170: c506 db3e 4428 81bd 8c7c 9a3f 6b1a babe
00000180: ca9b 473f e448 bdbc 1881 6ebe 2f45 92be
00000190: 60e0 a33e 17e4 07be 1623 55be 53a4 343f
000001a0: 9cb3 30bf 4b99 073f a355 85be e59d 64be
000001b0: 4e83 1cbf 5fa3 6d3f d2db a93f 6a9b 4dbf
000001c0: 4f74 a6bd 51aa afbf 8b03 91be 18ea 5fbf
000001d0: adb4 233f fa0e 5dbf 224b 95be df73 383f
000001e0: 0532 53be d809 ef3e 76cf fd3e a02c 613e
000001f0: 9021 3a3e 8bdf efbe 4bb7 fbbe f484 693d
00000200: 5782 04bf 991a 6cbe 4f05 ab3e a23d 3dbf
00000210: 7c5b c1be 2a78 3fbf bacd 463f dd73 833d
00000220: 820e cd3d e67d fe3e 9d1e 38bf aa37 613e
00000230: d4cb 40bf 1ffe 15bf ef21 aebe 255d 8dbe
00000240: 8e26 c53d 274d 3b3f 6574 1f3e 1e75 30be
00000250: 14b7 ad3d 042c 72be e822 40bf 5527 08bf
00000260: fed5 0fbe 26c4 0fbf 8a97 cdbd 15cd 88be
00000270: ca8c 67bf a4a0 aabe 866f 7ebd 04cd 8e3e
00000280: 26c3 0abe 8634 9f3e bbc9 bf3e 39b8 ba3e
00000290: 070f 673e a35d 20be f843 fcbe 379b 52be
000002a0: ef30 09bf 4824 53bf b4fd 02be b842 aabd
000002b0: 0ee4 e9be d806 afbe b50c ba3d 712c e4be
000002c0: cd84 c93f 4aa2 603e 0205 493f 6bf7 8b3e
000002d0: ae7d d9be 1cd6 443f 0698 383e 4d83 9cbf
000002e0: f266 07bf 42c7 6fbf 3102 34be f5a8 2e3c
000002f0: b64b 15be 97fe d03e c809 8ebe 66ac 363e
00000300: a416 13bf ec64 143f 7271 973d c0ac e8bd
00000310: abc6 c9be 85b9 2dbf ed43 403c 2944 5e3f
00000320: 714b 8bbe de38 d6be 592e c23d 2ee3 0a3e
00000330: 428f 2a3f 267f 7cbe f4a7 13be 6427 3e3f
00000340: 1986 dfbe 65fa 0abf 2b88 bebe c005 1ebe
00000350: ba12 d0bd bae7 40bf c8b5 71bf b3e8 cdbe
00000360: bbe8 5d3f bb46 253d a789 913e 40d7 9a3d
00000370: 519d 50bf 1aa6 dbbe 1765 5b3c 2b77 35be
00000380: 161e 2fbd b069 11be e32f 673e e91a 273f
00000390: a46c c13e fb24 81be c7c6 ce3e 87a7 b23d
000003a0: 2cab 0c3e 49fc ed3e 5cd2 23bf bb89 31bf
000003b0: 05c0 ac3e 4420 8dbd 5474 43be 9c2d ec3e
000003c0: 5f88 273e d9a7 333f dd47 953e 747e 063f
000003d0: 0701 ff3e 0d8d 41bf c98a 133f fb39 38be
000003e0: 6d8d abbe 40ae b4bd 7c51 e9bd 83bd febe
000003f0: 310d 993d 435e 18bf 5e40 0b3f 4c22 dabe
0.35571134 -0.8250013 -0.0910553 -1.228515 0.6795579 1.1118886 0.6788566 -0.018741835
0.30814254 -0.8781884 -0.33741072 -0.94039315 -0.37774473 0.79251575 -0.27994666 0.3608845
0.22691984 0.005408712 -0.10430618 -0.38578257 -0.18975724 -0.069075435 -0.19411965 0.8510557
-0.18261261 -0.6569721 0.24132927 -0.061925687 0.11855408 -0.10862299 0.6019611 -0.10412413
0.20693742 -0.46735626 0.7410537 0.39551505 0.020176196 -0.042002473 0.81537974 0.019396521
-0.27227262 -0.3056759 -0.25169867 0.91127026 0.45760313 -1.0692072 0.60188866 -0.44767538
1.3206768 0.09885976 -0.6199612 -0.46593225 0.087830976 0.25219533 -0.6129203 0.53882974
-0.3244506 0.073105454 -0.8139778 0.02719456 0.9779921 0.05328455 -0.7636234 0.29058528
0.23937674 0.67406815 -0.04598662 -0.4486263 -0.064745314 0.7690613 -0.027618676 -0.010853407
1.4613862 -0.9363738 -0.2776308 0.6257067 -0.22866383 -1.0603833 -0.6544566 -0.53755575
0.13001771 0.44208974 -0.05445951 -0.06861588 -0.43550223 0.4241818 -0.5248293 -0.10903887
-0.3217154 0.45566955 0.6385348 -0.8937518 0.42778602 -0.06306508 1.2069259 -0.3634828
0.7797209 -0.023106046 -0.23291433 -0.28568408 0.32007122 -0.13270603 -0.20814165 0.7056324
-0.6902406 0.5296828 -0.26041898 -0.22325857 -0.61137855 0.9282741 1.3270209 -0.8031527
-0.08127653 -1.3723851 -0.28323016 -0.87466574 0.63947564 -0.8635098 -0.29158884 0.72051805
-0.2062455 0.46687198 0.49572343 0.2198968 0.18176866 -0.46850237 -0.4916328 0.05701156
-0.5176138 -0.23057021 0.33402488 -0.7392217 -0.3776511 -0.7479273 0.77657664 0.064185835
0.10012533 0.49705428 -0.7192171 0.2199389 -0.7531102 -0.58590883 -0.34010264 -0.27610126
0.09626494 0.731646 0.15571745 -0.17232177 0.08482185 -0.23649603 -0.7505326 -0.53185016
-0.14046475 -0.56158674 -0.100386694 -0.26718965 -0.904492 -0.33325684 -0.062118076 0.2789079
-0.13551006 0.3109476 0.37458596 0.36468676 0.22564326 -0.1566072 -0.49270606 -0.20567022
-0.5359029 -0.82477236 -0.12792093 -0.08313507 -0.45681804 -0.3418491 0.09084455 -0.44565156
1.5743653 0.21936908 0.78523266 0.27337202 -0.42478698 0.76889205 0.18026742 -1.222757
-0.5289146 -0.9366342 -0.17578961 0.0106604 -0.14579663 0.40819237 -0.27741838 0.17839202
-0.5745642 0.57966495 0.07394685 -0.113610744 -0.39409384 -0.67861205 0.011734945 0.86822754
-0.27205995 -0.4184026 0.09481496 0.13563225 0.66624844 -0.24657878 -0.14419538 0.74278855
-0.43656996 -0.5428832 -0.37213263 -0.15431881 -0.10159822 -0.75353587 -0.94418 -0.40216598
0.86683244 0.040350657 0.28425333 0.07560587 -0.81490046 -0.42900163 0.013390801 -0.1772124
-0.0427533 -0.14200473 0.22576861 0.65275437 0.377782 -0.25223526 0.4038603 0.087233596
0.13737172 0.4648154 -0.6399286 -0.69350785 0.3374025 -0.0689092 -0.19087344 0.46128547
0.16360615 0.7017799 0.2915639 0.525367 0.4980547 -0.7560585 0.57633644 -0.17990868
-0.33506337 -0.08822298 -0.11392495 -0.4975396 0.07473219 -0.5951883 0.5439509 -0.4260429

update_node_embedding_layer_p.0.message_layer.weight f4 [32, 64]
00000000: 996d 6fbe 4ac1 01bf 2b95 96be 1197 a93f
00000010: da9e 0d3e d379 473f 745e 15bf 9cf4 693f
00000020: e705 b9be 0bbf 043f d73e 003e ce3e 8b3e
00000030: b56c a4be 9189 863e 28fe 793d 4bb2 15be
00000040: 2bf0 f1bd a100 c0bd 9981 64be 86ca fcbd
00000050: b36c debe 5fac 93be 84e6 abbe 0521 28bd
00000060: f304 67be 8537 15bf 8ecd 723f 7b70 1bbe
00000070: 6990 ce3e b029 5d3d c99d 16bd 5725 843f
00000080: 9f55 8c3f a57e f93e f67e 4fbd f6e8 cdbe
00000090: 914c e43e 359b 44be c5cc e33e 5edb e83e
000000a0: ab47 2f3f f23b 473f a78b d9be 4d7f a1bc
000000b0: afd3 353e 4c16 52be 257f f5be 8eef 3dbf
000000c0: e1f0 dcbf 4932 17be 5252 333e 6506 1ebf
000000d0: fdee b6bf 7fcd aebd 101b 4ebe 1828 a93f
000000e0: 9ceb 23bf 7f4c fb3b 3592 babe a7cf 05bf
000000f0: 28d4 2bbe 7750 cb3f 6fc0 59bf 4e86 253f
00000100: f5cf dfbe eef2 4fbf e764 6c3f 1633 113f
00000110: d7f0 51bd 118f c63e 2fcf d33e e12e e7bd
00000120: 72f8 c4bd 854a d63e 99e9 18be 8a39 c9bc
00000130: 9c61 06bf 48de 11be 6c8f 8d3d 9d95 253c
00000140: 2c38 3bbf ab1c 28bf 99e6 3abd 3e18 b6bd
00000150: eafb 1abf 7418 53bc cd33 c33e c83a 8abe
00000160: ceca e5bf ec10 9a3d e700 d43e c22d 17bf
00000170: ec2d a8be a0bf a1be 6486 35bf 343c a93e
00000180: 2e33 593e 0f05 29bc 5df0 28bf 9000 3ebd
00000190: 20aa 813f 5d35 2b3f d3c7 5ebf 2c43 9d3e
000001a0: b385 eabd 35fb bebe ea90 a23f 9929 22bf
000001b0: ed87 833e 4c53 8dbe 5627 2dbf 56a9 54bf
000001c0: 8404 683e 26fc e9bd 6225 a73e 136c 69bf
000001d0: 63d3 c83e 0252 443e f5c0 8bbd 89c9 91bf
000001e0: ecce 16bf 0657 6b3e 06e1 65bf c7c6 87be
000001f0: d2b0 dcbe 61c3 bdbf ac61 a73e 9118 e73e
00000200: 80ff 573e 2742 1abf a575 09bf e75c b3be
00000210: 381f 78bf 3150 273f 32ce 3e3c f65e 3abf
00000220: eacf 4abf 3eaa 723d 3c1b a6bd d7cc 58be
00000230: 812b 7fbe 4467 a5bd 1273 0bbf 8155 d63e
00000240: f439 62bd ebd4 03bf 8e27 3e3f 220f 7ebe
00000250: c408 4d3e 5055 b4bd d6d6 0ebf a467 8ebe
00000260: 0606 a7bf c586 94bb f537 b4be 07b6 64be
00000270: 11cb 99bd 6457 c83e d295 cb3e b0d5 0c3e
00000280: 6590 e93d abbb 693e b2d4 a4be 0c58 95bd
00000290: a9f0 6d3f a758 073f 5de9 433e 7aea 30bf
000002a0: 8cc9 a7bf b3e7 cfbe 00b4 c33f bdab 423f
000002b0: 729f 56be 5e9b 023d b46f bcbe 5cea a63f
000002c0: 87d3 a83e 31f7 45be 8ace 1d3e 77c1 24be
000002d0: b29c 1fbe c9e6 f5be 9e7e 21bf 749f 58be
000002e0: 840c 5ebf 2e0a e0bd b184 033f 83cc fa3d
000002f0: 0369 093e f9df e6bd f002 dfbd ac30 aabd
00000300: 41d8 b03e 04ae c7be 5e0a 493e 6aa3 4abf
00000310: 1208 cabe e2df 78be aeaf 953e 6100 35be
00000320: e2a3 87bf feb5 b53e dfed 313f 9224 6bbe
00000330: caf2 f33e 5678 6e3d b141 8abe fb6a fd3e
00000340: 5452 2fbf bffd 343f aa00 d3be c395 933d
00000350: 5f5f 60bf 7e5f 433e f310 bebd cfbd 36bf
00000360: 1c52 6dbd a7f6 133e 2edb a9bd 3caa 173f
00000370: af54 78be b51a eb3e 784c 7dbe 34ef 24be
00000380: bd20 603f 2fef ea3d b1f3 c83e f2a6 97bd
00000390: 91db b3bd 081a e23d 5a85 3abe ec1c cebe
000003a0: 676e 543e 660a eb3e 7ac7 b33e 3ff6 2f3d
000003b0: cd58 17bf 3e62 dcbc dd4d ebbd e94e e8be
000003c0: f439 68bd 09e6 4dbe 9925 36bf e232 c3be
000003d0: 0a55 793d 8657 b73d 8ba7 5abd ea8b cf3d
000003e0: 1981 68bd 4374 35bf 51d9 9ebd 8a8e 5c3f
000003f0: c5b8 cabe 6ce4 53ba a3ed 953e 4e82 8cbf
-0.23381652 -0.5068556 -0.2941068 1.3249227 0.13830128 0.77920264 -0.5834725 0.9138887
-0.36137316 0.5185401 0.12523971 0.27196354 -0.32114187 0.2627683 0.061033398 -0.14618795
-0.118133865 -0.0937512 -0.22315063 -0.12343316 -0.43442306 -0.28842446 -0.33574307 -0.041047115
-0.22560482 -0.5828784 0.948449 -0.15179627 0.4034455 0.053994834 -0.03677157 1.0323895
1.096363 0.48729435 -0.05065819 -0.40216798 0.44589666 -0.19199832 0.44492164 0.45479864
0.6846873 0.77825844 -0.4248936 -0.019714022 0.17756532 -0.20516318 -0.47948566 -0.74193656
-1.726101 -0.14765276 0.17511871 -0.6172851 -1.4291683 -0.08535289 -0.20127511 1.3215361
-0.64031386 0.007669031 -0.36439672 -0.5226998 -0.1678015 1.5883931 -0.85059255 0.6465806
-0.43713346 -0.81230056 0.92341465 0.56718576 -0.051255073 0.38781026 0.41369006 -0.11288238
-0.096177 0.4185373 -0.1493286 -0.02456357 -0.5249269 -0.1424495 0.06912121 0.010106471
-0.73132586 -0.65668744 -0.04563007 -0.088913426 -0.6054064 -0.012884248 0.38125458 -0.26997972
-1.7952516 0.07522759 0.41406938 -0.59054196 -0.32847536 -0.3159151 -0.7090819 0.33053744
0.2121093 -0.0103161475 -0.65991765 -0.046387255 1.0130043 0.668783 -0.8702366 0.3071531
-0.11451282 -0.3730103 1.2700474 -0.63344723 0.2568964 -0.27602613 -0.67638147 -0.83070886
0.22657973 -0.114250466 0.32645708 -0.91180533 0.39223775 0.19171908 -0.06823913 -1.1389629
-0.5890949 0.22982416 -0.89796484 -0.26518843 -0.43103653 -1.482525 0.32691705 0.4513593
0.2109356 -0.6025719 -0.53695136 -0.35031816 -0.96922636 0.6535674 0.0116458405 -0.7280115
-0.792235 0.059244387 -0.08110663 -0.2117189 -0.24918939 -0.08076337 -0.5447246 0.4186211
-0.05523105 -0.5149676 0.74279106 -0.2481046 0.20022875 -0.088053346 -0.55796564 -0.27813447
-1.3048713 -0.0045326673 -0.35198942 -0.22335063 -0.07509435 0.39129174 0.3976274 0.1375339
0.11404494 0.22825496 -0.32193524 -0.07292184 0.92945343 0.5286965 0.1913199 -0.6910778
-1.3108382 -0.4060646 1.5289307 0.760433 -0.20959261 0.03188645 -0.36803973 1.3040271
0.32973883 -0.19332577 0.1541082 -0.16089426 -0.15587118 -0.48027638 -0.6308383 -0.21154577
-0.8673785 -0.109394416 0.51374346 0.12246039 0.13418965 -0.11273188 -0.10889232 -0.08310065
0.3453999 -0.3899995 0.19632861 -0.791556 -0.39459282 -0.24304155 0.29235595 -0.17675926
-1.0596888 0.35490412 0.6950359 -0.22963169 0.4764617 0.05822023 -0.27003244 0.49495682
-0.68485 0.70699686 -0.41211444 0.07206299 -0.87645525 0.19079396 -0.092805766 -0.71383375
-0.057939634 0.14449559 -0.08293758 0.5924413 -0.24251054 0.45918813 -0.24736202 -0.16106874
0.87549955 0.11471402 0.39248422 -0.07404889 -0.08782113 0.11040121 -0.18214932 -0.4025644
0.2074524 0.4590637 0.35113126 0.042959448 -0.59119874 -0.026902314 -0.114894606 -0.45372704
-0.056695893 -0.20107283 -0.7115112 -0.38124758 0.060872115 0.08952241 -0.053382438 0.10134108
-0.056763742 -0.70880526 -0.077562936 0.86155 -0.39594093 -0.0008083049 0.29282865 -1.0977266
