experiments/GBMLGG_100/train/GBMLGG_100/s2v/network/network4000.pth (torch_old, 87608 bytes, 17 tensors)

node_init_embedding_layer_g.0.weight f4 [32, 2]
0	0xbf41e780	-0.75743866
1	0xbb517271	-0.0031959082
2	0x3f2000d2	0.6250125
3	0xbf7d7c00	-0.99017334
4	0xbe5b4d26	-0.21416149
5	0x3ee1b705	0.44084945
6	0x3f80fa33	1.0076355
7	0x3e482216	0.19544253
8	0xbef13205	-0.47108474
9	0x3e994457	0.29934952
10	0x3f153c9f	0.58295625
11	0xbe72f692	-0.23726872
12	0x3f2d6067	0.67725223
13	0x3da2f5c6	0.07957034
14	0x3e70f1f9	0.23529805
15	0x3f7f7065	0.99780875
16	0xbee03c49	-0.43795994
17	0x3f079c6c	0.52973056
18	0x3fa677c5	1.3005301
19	0x3e852442	0.26004225
20	0xbe35cae8	-0.17753184
21	0xbd7775a7	-0.060414936
22	0x3f43b2f9	0.76444966
23	0xbf7e219c	-0.99270034
24	0x3e92aeca	0.28648978
25	0xbec64bff	-0.38729855
26	0xbdb7a7ea	-0.08967574
27	0x3ea63488	0.32461953
28	0xbf8734f8	-1.056304
29	0xbdc1068c	-0.09425077
30	0x3e53bce2	0.20677522
31	0x3ea796ac	0.3273214
32	0xbf0c5a82	-0.54825604
33	0x3f3500c3	0.7070429
34	0x3eaf8dcb	0.34287867
35	0x3d1497b0	0.036277473
36	0xbe7638ff	-0.2404518
37	0xbf12a4d8	-0.5728278
38	0xbf439533	-0.76399535
39	0x3ed109cd	0.4082779
40	0x3cb89356	0.022531193
41	0xbefa1931	-0.48847345
42	0xbf136545	-0.575764
43	0xbdabeb08	-0.08394438
44	0xbe499345	-0.19685085
45	0xbd89efa0	-0.06735158
46	0xbf361264	-0.7112181
47	0x3e0c03be	0.13673303
48	0x3ede151f	0.4337549
49	0xbf65d306	-0.8977512
50	0x3eb2a603	0.34892282
51	0x3e76e0b8	0.24109161
52	0x3effb04d	0.49939194
53	0x3c7ba845	0.015359943
54	0xbf9f5395	-1.2447382
55	0x3e02276b	0.1271035
56	0x3e76bec1	0.24096204
57	0x3ddfb381	0.109229095
58	0x3e1faf80	0.15594292
59	0x3e2fd869	0.17172398
60	0x3f47c333	0.78032225
61	0x3f0b3c83	0.5438921
62	0xbd70f052	-0.058822937
63	0x3d786056	0.060638748

node_init_embedding_layer_p.0.weight f4 [32, 1]
0	0xbe711421	-0.23542835
1	0xbe8e39c1	-0.27778438
2	0x3ea81a4a	0.32832557
3	0xbed8ed69	-0.4236863
4	0xbd65ae61	-0.056074504
5	0xbd6d5990	-0.05794674
6	0x3e3b60c3	0.1829863
7	0x3f9803eb	1.1876196
8	0xbeadbacc	-0.33931577
9	0xbe6dcea3	-0.23223357
10	0xbec6b4d3	-0.38809833
11	0xbe3393c5	-0.17536838
12	0xbedeb478	-0.43497062
13	0x3e86df27	0.26342127
14	0x3e3d6c99	0.18498458
15	0x3f8c3f2f	1.0956782
16	0x3eb844e4	0.3599006
17	0x3f010b8d	0.5040825
18	0xbf1020ee	-0.56300247
19	0x3ea36a93	0.31917247
20	0x3eb33b03	0.3500596
21	0x3e4ed584	0.20198637
22	0xbf313a97	-0.69230026
23	0xbd38a921	-0.04508317
24	0x3e9d102f	0.3067641
25	0xbf0dc6d3	-0.55381507
26	0x3f4631da	0.7741982
27	0x3f4bf342	0.79668057
28	0x3ee5c605	0.4487764
29	0xbebc78cc	-0.3681091
30	0x3ea837f3	0.32855186
31	0xbd1cf73d	-0.038321722

edge_embedding_layer_g.edge_embedding_NN.weight f4 [31, 1]
0	0xbef20bf0	-0.47274733
1	0x3efb5058	0.49084735
2	0xbeefcb7b	-0.4683493
3	0xbf274243	-0.6533548
4	0x3e8e94e6	0.27847975
5	0xbed51767	-0.41619417
6	0x3ec11f99	0.3771942
7	0xbbbafdef	-0.005706541
8	0xbf05d67f	-0.5228042
9	0xbe309281	-0.17243387
10	0x3eb0db25	0.34542194
11	0x3e6f21a1	0.23352672
12	0xbf407002	-0.7517091
13	0xbf098fed	-0.5373524
14	0x3f015abf	0.5052909
15	0xbe9b92ff	-0.30385587
16	0x3f13a635	0.57675487
17	0xbe55e055	-0.20886357
18	0xbf18982b	-0.5960719
19	0x3e88d37c	0.2672385
20	0xbc197507	-0.00936628
21	0xbee4f6e7	-0.44719622
22	0x3f119d5b	0.5688073
23	0xbe0fd77c	-0.14047045
24	0xbe25caae	-0.16190597
25	0xbea40b80	-0.32040024
26	0x3e2b7f20	0.16747713
27	0x3f494980	0.7862778
28	0xbf0a83be	-0.5410727
29	0xbf2cb16f	-0.6745824
30	0x3f16f9bd	0.5897482

edge_embedding_layer_g.edge_feature_NN.weight f4 [32, 32]
0	0xbe49395d	-0.19650789
1	0x3f6de9da	0.92934954
2	0xbfa45876	-1.2839496
3	0x3f91aff3	1.138182
4	0xbee4eee4	-0.4471351
5	0x3ef6fb15	0.48238435
6	0x3e68f8bb	0.22751133
7	0x3d102ca4	0.035198823
8	0xbe1be7ef	-0.15225194
9	0xbd4f37a0	-0.050590158
10	0xbed24cf4	-0.41074336
11	0xbe9b2117	-0.30298683
12	0x3e7d271a	0.24721947
13	0xbf665072	-0.899665
14	0x3f3ea5eb	0.7447192
15	0x3ecee2f4	0.40407526
16	0xbde21c3a	-0.1104054
17	0xbe31f3df	-0.17378186
18	0x3e065755	0.13119252
19	0xbf4983f9	-0.78717
20	0x3f0f30fb	0.55934113
21	0xbf4ab074	-0.79175496
22	0x3e28f7da	0.16500798
23	0x3e74adac	0.23894376
24	0x3f07799f	0.52919954
25	0xbf2831ac	-0.65700793
26	0xbe17d6cf	-0.14828037
27	0xbea9c5ba	-0.33158666
28	0xbf2e8dd3	-0.68185157
29	0xbdf37263	-0.11887052
30	0xbd361faa	-0.04446379
31	0x3e88f64e	0.26750416
32	0x3db1c830	0.08680761
33	0x3e6e3c9f	0.23265313
34	0x3e00e6e0	0.12588072
35	0x3d0fb181	0.03508139
36	0x3e8aeeaf	0.27135226
37	0xbf75268c	-0.9576194
38	0xbd9850ef	-0.07437312
39	0x3f161c38	0.5863681
40	0xbcd33792	-0.025783334
41	0x3f02b370	0.5105505
42	0x3f2dc3d9	0.67876965
43	0x3f6500e2	0.8945447
44	0xbdd74639	-0.10511441
45	0xbe8e28b9	-0.27765444
46	0xbe706681	-0.23476602
47	0x3f012d40	0.5045967
48	0xbf4b6ced	-0.7946308
49	0xbf87bd59	-1.0604659
50	0x3c3bf159	0.011471116
51	0x3e02b126	0.1276289
52	0x3f2f0034	0.68359685
53	0x3dc02735	0.09382478
54	0xbea59d69	-0.32346657
55	0x3d9a51bb	0.0753512
56	0xb8fbe0d7	-0.00012010492
57	0x3e2d0b54	0.16898853
58	0x3f1247ba	0.57140696
59	0x3e6d83db	0.2319483
60	0xbda8d625	-0.0824397
61	0xbeb83e50	-0.3598504
62	0xbf46a75e	-0.7759913
63	0x3e5113a7	0.20417653
64	0x3f3fe999	0.74965817
65	0xbf7e6e3e	-0.99386966
66	0xbedca931	-0.43097833
67	0xbe4b03e9	-0.1982571
68	0xbee41715	-0.4454886
69	0xbe2b8ff2	-0.1675413
70	0x3e720e85	0.23638351
71	0x3eb40f27	0.3516781
72	0x3ec8b448	0.39200044
73	0xbebefa43	-0.3730031
74	0xbf34f376	-0.7068399
75	0x3eae1618	0.3400123
76	0x3ed2b8d3	0.41156635
77	0x3f0e5d1e	0.55610836
78	0x3e25318b	0.1613218
79	0xbf2555c7	-0.6458401
80	0x3f136717	0.5757918
81	0xbf1aba62	-0.6044065
82	0xbe80ed14	-0.25180876
83	0x3f04e36f	0.51909536
84	0x3dfb35d6	0.12266128
85	0xbd2d92f4	-0.042376474
86	0xbe87f03f	-0.2655048
87	0xbf471a86	-0.77774847
88	0xbf205e44	-0.6264384
89	0xbd84dcf2	-0.064874545
90	0x3f1e628b	0.61869115
91	0x3f644b5b	0.89177483
92	0x3e5196d3	0.20467691
93	0xbeb12893	-0.34601268
94	0x3f4f3e5f	0.80954546
95	0xbe3a6f47	-0.18206511
96	0xbcd43d4f	-0.02590814
97	0xbec5246d	-0.38504353
98	0xbefa85e8	-0.48930287
99	0xbf0551cf	-0.52077955
100	0xbedcc072	-0.43115574
101	0xbf38e808	-0.7222905
102	0x3fa83a92	1.3142874
103	0xbe6b2f36	-0.22967228
104	0x3e36675c	0.17812866
105	0xbded989e	-0.11601375
106	0x3f24fb39	0.64445835
107	0xbf0fbc7b	-0.56146973
108	0x3f1bad46	0.6081127
109	0xbd9118c6	-0.07084803
110	0xbd080408	-0.03320697
111	0xbe4f3802	-0.20236209
112	0xbec35ebf	-0.38158223
113	0x3f2737e8	0.6531968
114	0x3e7df346	0.24799833
115	0xbebc1bc9	-0.36739948
116	0xbf16e910	-0.58949375
117	0xbe15fc61	-0.14647056
118	0x3e0433b1	0.12910344
119	0xbeba3d27	-0.3637478
120	0xbd592392	-0.053012438
121	0x3e309eef	0.17248128
122	0x3f2eec3f	0.6832923
123	0xbf3be0ae	-0.7338971
124	0xbe28cefe	-0.16485211
125	0xbeb62827	-0.3557751
126	0x3ede3062	0.43396288
127	0x3f584d37	0.8449282
128	0xbe129d1b	-0.14317743
129	0x3ee30c86	0.44345492
130	0xbf024788	-0.508904
131	0x3d3d5eab	0.04623286
132	0xbeaca42b	-0.33719
133	0x3f74d89b	0.95643014
134	0xbe63c661	-0.22243644
135	0xbce50d5c	-0.027960472
136	0xbf342f41	-0.70384604
137	0x3ea47f71	0.3212848
138	0x3f0c2041	0.54736716
139	0xbed6e50d	-0.41971627
140	0xbe7a6657	-0.24453102
141	0x3f3fffc6	0.74999654
142	0x3e68a852	0.22720459
143	0x3e3b1a92	0.18271855
144	0xbed41b56	-0.41427106
145	0x3f117ea3	0.5683386
146	0xbd2e5818	-0.04256448
147	0x3f177220	0.59158516
148	0x3d5fe678	0.05466315
149	0xbec7ed3d	-0.39048186
150	0x3f97b66c	1.1852546
151	0xbe825c18	-0.25460887
152	0x3e94079f	0.28912064
153	0x3ed1c368	0.40969396
154	0xbee29664	-0.44255364
155	0xbed0e392	-0.40798622
156	0x3d7bf7d6	0.06151565
157	0x3bc36d06	0.0059639243
158	0xbedc6ffb	-0.43054184
159	0x3f3dd2d5	0.7414983
160	0x3f3c076b	0.7344882
161	0x3ece0e8d	0.40245476
162	0xbf25f283	-0.6482317
163	0x3f23c818	0.63977194
164	0xbf673e4a	-0.9032942
165	0x3e9d88dd	0.3076848
166	0x3d489af6	0.048975907
167	0x3e80c3d9	0.2514942
168	0x3ef3942e	0.4757399
169	0xbf5c6532	-0.8609191
170	0xbea6e26d	-0.32594624
171	0xbf038966	-0.5138153
172	0x3f1285ca	0.57235396
173	0x3dd54475	0.10413448
174	0x3dcec650	0.10096419
175	0xbf73679b	-0.95079964
176	0x3f0b3304	0.5437472
177	0x3f259e86	0.6469501
178	0x3f5f646e	0.8726262
179	0x3f27e0f0	0.655776
180	0x3f66aa72	0.9010383
181	0xbe2d784d	-0.16940422
182	0x3f161c43	0.58636874
183	0x3f40f5df	0.7537517
184	0x3dc7eb39	0.09761662
185	0x3efda2b9	0.4953821
186	0xbf893370	-1.0718822
187	0xbea30f58	-0.31847644
188	0xbe3dc5e0	-0.18532515
189	0x3ef816bf	0.48454854
190	0x3e48c9ae	0.19608185
191	0x3ecf9230	0.4054122
192	0xbde39375	-0.111121096
193	0x3f6ed188	0.9328847
194	0x3e9a757e	0.30167764
195	0xbe9e6af3	-0.3094097
196	0x3f2f4848	0.6846967
197	0x3f1235fd	0.5711363
198	0xbe9eef41	-0.3104191
199	0xbf3be844	-0.73401284
200	0x3f7cc7e5	0.98742515
201	0x3e912a4f	0.2835259
202	0x3f3ecc48	0.7453046
203	0xbed3313d	-0.41248503
204	0x3f314b8d	0.69255906
205	0x3e59ccef	0.21269582
206	0x3ba1d10c	0.0049382504
207	0x3ea34bba	0.31893712
208	0xbe59530c	-0.21223086
209	0x3e7486a6	0.2387949
210	0x3e754d82	0.23955348
211	0x3f095389	0.5364309
212	0xbe104d91	-0.14092089
213	0xbe06a8e4	-0.13150364
214	0x3ec9c896	0.39410847
215	0xbde2855c	-0.110605925
216	0xbf4604aa	-0.77350867
217	0xbf26242b	-0.6489894
218	0xbee3af02	-0.44469458
219	0xbf223d5d	-0.6337488
220	0xbe90b26a	-0.2826112
221	0x3ed2fc38	0.41208053
222	0x3e0a1f0d	0.13488407
223	0x3ebf5a34	0.37373507
224	0xbee410b1	-0.44543985
225	0xbf55e338	-0.83549833
226	0xbe9de560	-0.30839062
227	0xbf35551e	-0.70833004
228	0x3e55baf9	0.20872106
229	0xbeeb8565	-0.4600021
230	0xbe8ba362	-0.2727309
231	0xbf152055	-0.5825246
232	0xbdecb6b7	-0.115582876
233	0x3edc7bdd	0.4306325
234	0xbda0e08f	-0.07855331
235	0xbf90d97a	-1.1316369
236	0x3f1eea1b	0.62075967
237	0xbf2c930d	-0.6741188
238	0x3e9ce7b6	0.3064553
239	0x3ee769e9	0.4519799
240	0xbe4263b8	-0.18983352
241	0x3ebcfe20	0.36912632
242	0x3f6a4f1a	0.9152695
243	0xbe3c897a	-0.18411818
244	0xbe653f64	-0.22387463
245	0x3f5166a9	0.8179727
246	0x3f0ac11b	0.54200906
247	0xbe8d745b	-0.27627835
248	0xbd176417	-0.036960687
249	0xbf876e14	-1.0580468
250	0x3da134eb	0.078714214
251	0x3f0cbb10	0.54972935
252	0x3db692de	0.089147314
253	0xbd09966d	-0.033590723
254	0xbf05c6e9	-0.5225664
255	0x3d84f519	0.06492061

edge_embedding_layer_p.edge_embedding_NN.weight f4 [31, 2]
0	0x3dc327a4	0.09529045
1	0xbe65c9cf	-0.22440265
2	0x3ea72a7a	0.32649595
3	0xbf37fbc2	-0.71868527
4	0x3f03626e	0.51322067
5	0x3f122b1f	0.5709705
6	0xbd4d48e5	-0.050118346
7	0xbf0b107a	-0.54322016
8	0x3f09d5b6	0.5384172
9	0x3f21ccca	0.6320311
10	0xbe90f034	-0.2830826
11	0x3f19caa4	0.6007483
12	0x3f2e6afc	0.68131995
13	0xbe9c0e00	-0.3047943
14	0xbefb2ff2	-0.49060017
15	0x3f80a1ec	1.0049415
16	0x3e5e0075	0.21679862
17	0xbefe3627	-0.4965069
18	0xbf1b9cf9	-0.60786396
19	0xbf5d3b83	-0.8641893
20	0x3dc88cc8	0.09792477
21	0x3eb40cc6	0.35165995
22	0x3f24c388	0.64360857
23	0x3e9f513b	0.3111666
24	0xbf89318b	-1.0718244
25	0xbf5ce055	-0.86279804
26	0xbd4b4bb4	-0.049632743
27	0xbf6b9d17	-0.92036575
28	0x3ec3a305	0.38210312
29	0x3d13fe1c	0.03613101
30	0xbda3eed6	-0.08004539
31	0xbeeac300	-0.45851898
32	0x3e9bc899	0.3042648
33	0xbe974bd5	-0.29550043
34	0x3ef7d51a	0.4840477
35	0x3df75c35	0.12078134
36	0xbb8c9ed3	-0.0042913943
37	0xbdeb28dc	-0.11482403
38	0xbecefe4f	-0.40428397
39	0xbeec64d5	-0.4617068
40	0x3f013d4b	0.5048415
41	0xbf716cd0	-0.9430666
42	0xbe1a101b	-0.15045206
43	0xbf7dbe2b	-0.991183
44	0xbd936785	-0.07197479
45	0xbe8bf190	-0.27332735
46	0x3eb4043e	0.35159487
47	0xbed5bc65	-0.41745296
48	0xbd924b2a	-0.07143243
49	0xbeb6df76	-0.35717362
50	0x3e69f76b	0.22848289
51	0xbcfdefa2	-0.030998055
52	0xbef200ac	-0.47266138
53	0x3f05b630	0.5223112
54	0x3b471a3b	0.0030380625
55	0xbd5a298d	-0.053262282
56	0xbec9ea70	-0.39436674
57	0xbe726962	-0.23673013
58	0xbe3f7bb1	-0.18699528
59	0x3da518a0	0.080613375
60	0xbee2b54a	-0.44278938
61	0xbe5f4686	-0.21804246

edge_embedding_layer_p.edge_feature_NN.weight f4 [32, 32]
0	0x3f5a6de1	0.8532391
1	0xbeaebebf	-0.34129903
2	0x3f61b160	0.8816128
3	0x3ea67b82	0.32516104
4	0xbd9c3925	-0.07628087
5	0xbefda9bf	-0.49543568
6	0xbf4a2954	-0.7896931
7	0x3deebc1d	0.116569735
8	0xbf053e9d	-0.52048665
9	0x3f7d5f4b	0.9897353
10	0x3dd76680	0.10517597
11	0xbf351cb2	-0.7074691
12	0xbe3300bb	-0.17480747
13	0xbe2bf962	-0.1679435
14	0xbed0bdb6	-0.40769738
15	0x3ef644b1	0.48099282
16	0xbdea546c	-0.114418834
17	0x3edc01a2	0.42969996
18	0xbe329f63	-0.17443614
19	0xbe2d0119	-0.1689495
20	0x3e703d38	0.23460853
21	0xbe9d8c66	-0.30771178
22	0xbc9bee91	-0.019034656
23	0x3e374f25	0.17901285
24	0xbd06f761	-0.032950763
25	0xbf01c2cb	-0.50687855
26	0xbe126b01	-0.14298631
27	0xbf591497	-0.8479704
28	0x3f1e092f	0.61732763
29	0xbea81dbc	-0.32835186
30	0x3e88ae27	0.26695368
31	0xbf82762a	-1.0192311
32	0x3eefa7d6	0.46807736
33	0xbf3a6287	-0.7280659
34	0x3e7f01a3	0.24902968
35	0xbf9414f5	-1.1568896
36	0x3e8c7e27	0.27439997
37	0x3ebff7f9	0.37493876
38	0xbee35f81	-0.444088
39	0xbe6566ee	-0.22402546
40	0xbf22d70c	-0.63609385
41	0xbf14abe0	-0.5807476
42	0xbe9db2eb	-0.30800566
43	0xbf513692	-0.8172389
44	0xbea2db74	-0.31808054
45	0x3f1a1cb5	0.60200053
46	0x3f127b44	0.5721934
47	0x3df8aac0	0.12141943
48	0xbe66d65c	-0.22542709
49	0x3f42c2c5	0.76078445
50	0xbf9c2b81	-1.2200776
51	0x3ea61dfe	0.32444757
52	0x3f492cf9	0.7858425
53	0x3ed3f69e	0.4139909
54	0xbf0617f2	-0.5238029
55	0xbf2dfc93	-0.6796352
56	0x3f4f5541	0.8098946
57	0x3f12e309	0.5737768
58	0x3e1cbd5b	0.15306608
59	0x3f3ebd1c	0.7450731
60	0xbecc8b82	-0.39950186
61	0xbe97dee0	-0.29662228
62	0x3e656f70	0.22405791
63	0xbe5bc9a7	-0.21463643
64	0xbe4e3c8a	-0.20140281
65	0xbf826c59	-1.0189315
66	0xbecb8694	-0.39751112
67	0x3f9da647	1.2316369
68	0xbdc0c950	-0.09413397
69	0xbedeb1e5	-0.43495098
70	0xbed11ca1	-0.40842155
71	0x3d6c875f	0.057746287
72	0x3f2928fa	0.6607815
73	0x3e583643	0.21114449
74	0x3e4c4343	0.19947533
75	0x3ee3c514	0.44486296
76	0xbe963c6d	-0.29342976
77	0xbee17625	-0.4403545
78	0xbe31a75f	-0.17349003
79	0x3f000c8f	0.5001916
80	0x3e9ff797	0.31243584
81	0x3da0fa1d	0.07860205
82	0x3e6d3567	0.23164903
83	0x3d96c102	0.07361032
84	0x3e05d5f2	0.13069895
85	0x3f1d72a0	0.6150303
86	0x3ed2e3cd	0.41189423
87	0xbf218774	-0.6309731
88	0xbf21451a	-0.62996066
89	0xbe94a519	-0.2903221
90	0xbd5f3cd7	-0.05450138
91	0x3e123b4a	0.1428043
92	0x3f374d6a	0.716025
93	0xbe32d012	-0.17462185
94	0x3ec85bb0	0.39132452
95	0x3e440a41	0.19144537
96	0xbf1a8769	-0.6036287
97	0xbe6a817e	-0.2290096
98	0xbf0a814b	-0.54103535
99	0x3f6cf040	0.9255409
100	0xbf5b40b5	-0.8564561
101	0xbf349d9d	-0.70553
102	0xbf195f65	-0.59911186
103	0xbe376f0c	-0.17913455
104	0x3e63a207	0.22229777
105	0xbd0dd700	-0.034628868
106	0xbe3e11cc	-0.18561476
107	0xbe64f6eb	-0.22359817
108	0xbf14e951	-0.5816851
109	0x3f753552	0.95784485
110	0x3cdaab90	0.026693135
111	0xbef32d0d	-0.4749531
112	0xbfa51b5f	-1.2898978
113	0xbed2b359	-0.41152456
114	0xbef62b82	-0.4808007
115	0x3f79ffdd	0.9765604
116	0x3eba9814	0.3644415
117	0x3ed0a224	0.40748703
118	0xbe5e57c5	-0.21713169
119	0x3c915c43	0.01774419
120	0x3ef50c89	0.47861126
121	0x3e915d5d	0.28391543
122	0x3f116b0c	0.56803966
123	0x3df4c91e	0.119524226
124	0x3e96311c	0.29334342
125	0x3f156634	0.58359075
126	0xbf020420	-0.50787544
127	0xbce7c872	-0.028293822
128	0x3eceb3ab	0.4037145
129	0x3d8e7f80	0.069579124
130	0x3f18f564	0.59749436
131	0xbee0261d	-0.43779078
132	0x3f28c588	0.6592641
133	0xbca1429b	-0.01968508
134	0xbe726b55	-0.23673756
135	0xbf1e4e1e	-0.6183795
136	0xbd8bd66d	-0.06828008
137	0xbf256a72	-0.6461555
138	0x3e87a52f	0.26493213
139	0x3f29c2b8	0.6631274
140	0xbeec36ff	-0.4613571
141	0xbe836a85	-0.25667205
142	0xbf39b6e5	-0.725447
143	0x3e940169	0.28907326
144	0x3e27c560	0.16383886
145	0x3f78e765	0.9722808
146	0xbf4527e9	-0.77014023
147	0x3e0639ea	0.1310803
148	0xbfc05c50	-1.5028172
149	0x3cd8be5b	0.026457956
150	0xbe27a23e	-0.16370484
151	0x3dc91fba	0.098205045
152	0x3f11fd71	0.57027346
153	0xbf60a861	-0.87756926
154	0x3ec8609f	0.39136216
155	0x3e8bb06b	0.27283034
156	0x3d94218b	0.0723296
157	0x3ead2eae	0.33824676
158	0x3e89f44b	0.26944193
159	0xbdcd706c	-0.100312084
160	0x3eaaadfe	0.3333587
161	0xbd666843	-0.056251775
162	0xbd3ae3fe	-0.045627587
163	0x3f83bdcf	1.02923
164	0x3f86d606	1.0534065
165	0x3dec3840	0.11534166
166	0x3ea49d23	0.32151136
167	0x3e5680cf	0.20947574
168	0x3e80c8d8	0.25153232
169	0xbe934584	-0.28763974
170	0xbe7fe620	-0.2499013
171	0xbec1ad9e	-0.37827772
172	0x3f13b932	0.5770446
173	0x3f0b9d71	0.5453711
174	0xbe57dbb6	-0.21079907
175	0x3ee7f5a1	0.45304587
176	0xbea972fb	-0.33095536
177	0x3eebf4d8	0.46085238
178	0xbeb8ebb5	-0.3611733
179	0xbeb6c6df	-0.35698602
180	0xbf1810af	-0.5940046
181	0x3eb18975	0.34675184
182	0x3f2be1ea	0.6714159
183	0xbcd3d141	-0.025856616
184	0x3c57428d	0.013138426
185	0x3f278ad2	0.654462
186	0x3e8b3369	0.2718766
187	0xbe98e1ae	-0.2985968
188	0xbd897a60	-0.06712794
189	0xbe3cadf7	-0.18425737
190	0xbd8154ff	-0.0631504
191	0x3dfd0048	0.12353569
192	0x3ea2478d	0.31695214
193	0xbe84cfee	-0.25939888
194	0x3e4f9211	0.20270564
195	0xbeb6a491	-0.3567243
196	0xbf46ae96	-0.77610147
197	0xbf717efa	-0.94334376
198	0x3e046f7e	0.12933156
199	0x3e326b06	0.17423639
200	0xbe8029c0	-0.25031853
201	0x3e7f38bc	0.24923986
202	0x3f93c315	1.1543909
203	0xbed2726e	-0.41102928
204	0x3f481594	0.78157926
205	0xbf10bef8	-0.56541395
206	0xbea36381	-0.31911853
207	0x3ee24a51	0.44197324
208	0x3f08fcde	0.53510845
209	0xbf7903d1	-0.9727145
210	0xbf59099c	-0.8478029
211	0xbe1140ad	-0.14184828
212	0xbdb465f4	-0.088085085
213	0xbed0710f	-0.40711257
214	0xbf10ee8c	-0.56613994
215	0xbf0b05df	-0.54305834
216	0x3e0a3732	0.13497618
217	0xbfa030aa	-1.2514851
218	0xbe28c88c	-0.16482753
219	0x3f3923f5	0.7232049
220	0x3f427abc	0.7596853
221	0x3e820191	0.2539182
222	0x3e1fa41c	0.15589947
223	0x3ef43c5e	0.47702307
224	0xbf4d0924	-0.8009207
225	0xbe8f3cb7	-0.2797601
226	0x3f3959f7	0.724029
227	0xbfaa14dd	-1.3287617
228	0x3fbe8915	1.4885584
229	0xbf22d702	-0.63609326
230	0x3e9c1688	0.3048594
231	0x3e5defaa	0.21673456
232	0x3f80292b	1.0012563
233	0x3d8ab6fe	0.06773184
234	0xbeeabaa4	-0.4584552
235	0xbe8bc5bd	-0.272993
236	0xbda798c9	-0.08183438
237	0x3e5ecd17	0.21757923
238	0x3e8ef2cd	0.27919617
239	0xbe739095	-0.23785622
240	0xbe887f08	-0.26659417
241	0xbf2bbd09	-0.6708532
242	0xbd1d231e	-0.03836357
243	0xbcdfd8ea	-0.027325112
244	0x3e8bc5af	0.27299258
245	0x3e6b4e90	0.22979188
246	0x3f80b875	1.0056292
247	0x3edbdbf7	0.42941257
248	0xbf40b1ec	-0.7527149
249	0x3ea2b3f3	0.31777915
250	0xbebd347c	-0.36954105
251	0x3eba79db	0.36421093
252	0xbf782a5a	-0.96939623
253	0x3d3e0df5	0.04640003
254	0x3ed70b38	0.42000747
255	0xbfae8cb0	-1.3636684

update_node_embedding_layer_g.0.message_layer.weight f4 [32, 64]
0	0xbeaa6491	-0.3327985
1	0x3f4c063f	0.7969703
2	0xbf85c9e9	-1.0452243
3	0xbe626411	-0.22108485
4	0x3f3fef6c	0.74974704
5	0x3bd2d141	0.0064336364
6	0xbe690138	-0.22754371
7	0xbf9bebd9	-1.218135
8	0x3d6ad0b3	0.057327937
9	0x3eb48524	0.35257828
10	0x3e3eccee	0.18632862
11	0x3dc98ca0	0.09841275
12	0x3e5c553c	0.2151689
13	0xbe63f300	-0.22260666
14	0xbdda400f	-0.106567495
15	0xbec2b279	-0.3802679
16	0x3e9f1b2f	0.31075427
17	0xbf230eae	-0.63694274
18	0xbdb32a25	-0.08748273
19	0xbef93f44	-0.4868108
20	0x3fdbec87	1.7181557
21	0xbf20445d	-0.62604314
22	0xbdaf4446	-0.08557944
23	0x3e44f50c	0.19234103
24	0x3cbad8d0	0.022808462
25	0x3e3e0c72	0.18559435
26	0x3e05c42e	0.13063118
27	0x3d368b69	0.044566546
28	0xbd6875bc	-0.056752905
29	0x3e6f5087	0.23370562
30	0x3e58a16c	0.21155328
31	0x3e7bc419	0.24586524
32	0xbf89785a	-1.0739853
33	0xbed2d610	-0.41178942
34	0x3ee14e25	0.44004932
35	0x3ec677b0	0.3876319
36	0xbe2870b9	-0.1644925
37	0x3f0b33fe	0.5437621
38	0x3eb40469	0.35159615
39	0xbe644ea7	-0.22295628
40	0x3efbce49	0.4918082
41	0xbf8d5c3e	-1.1043775
42	0xbf2f3a61	-0.68448454
43	0x3d9289ae	0.071551666
44	0x3ebfadb8	0.37437224
45	0x3f066a6b	0.5250613
46	0xbe62b525	-0.22139414
47	0xbd8e0583	-0.06934645
48	0xbc59c4db	-0.013291563
49	0xbdd348c6	-0.10316615
50	0xbeb91964	-0.36152184
51	0x3d71ec2e	0.05906313
52	0x3d9a7a45	0.07542852
53	0xbe288819	-0.16458167
54	0xbef0a7bf	-0.4700298
55	0xbc7942d6	-0.015213689
56	0x3eccdea5	0.40013614
57	0x3f15b179	0.58473927
58	0xbe41e767	-0.18935929
59	0xbe1e1027	-0.15435849
60	0x3e9ed730	0.3102355
61	0xbf7011a2	-0.93776906
62	0x3ec5795d	0.38569155
63	0xbee044da	-0.4380253
64	0xbe1c0bc5	-0.15238865
65	0x3dcf945c	0.10135719
66	0x3f11ca57	0.5694937
67	0xbe005351	-0.12531783
68	0x3f38b94d	0.72157747
69	0xbeaf8a1f	-0.34285066
70	0x3ec1fe07	0.3788912
71	0x3f19a30f	0.6001443
72	0x3f0a6740	0.54063797
73	0xbf8c00fa	-1.0937798
74	0x3d442d3a	0.047894694
75	0xbf76db82	-0.9642869
76	0xbe8122ae	-0.2522177
77	0xbf0a76fc	-0.54087806
78	0xbf95e84e	-1.1711519
79	0xbe8e627e	-0.2780952
80	0xbf017993	-0.5057613
81	0x3d7aa524	0.061192647
82	0xbf4ad486	-0.79230535
83	0x3f81da5d	1.0144764
84	0xbf42c88a	-0.7608725
85	0x3f48aa6d	0.7838505
86	0xbed8cff9	-0.4234617
87	0x3e80d947	0.2516577
88	0xbd22d114	-0.039750174
89	0x3e7ce982	0.24698451
90	0x3e214bb1	0.1575153
91	0x3e518c71	0.2046373
92	0x3f0d1263	0.5510618
93	0x3f3b01f2	0.73049843
94	0x3e5ac1af	0.21362947
95	0xbf12738b	-0.57207555
96	0xbf65f540	-0.89827347
97	0xbf314a31	-0.6925383
98	0xbf40eafe	-0.7535857
99	0xbfa497d3	-1.2858833
100	0x3e3c2d28	0.183766
101	0x3f2887fa	0.65832484
102	0xbe8f030a	-0.27932006
103	0x3df2d27a	0.118565515
104	0x3ed806fb	0.42192826
105	0x3f018f82	0.506096
106	0xbf204aa4	-0.6261389
107	0xbf37bf6e	-0.71776474
108	0xbe55ec40	-0.20890903
109	0xbedd3afa	-0.43209058
110	0xbe58b197	-0.21161495
111	0x36d7430a	6.4153037e-06
112	0xbc77f081	-0.015133024
113	0xbfc42b4a	-1.5325711
114	0xbeecad55	-0.46225992
115	0xbf2b73a5	-0.66973335
116	0xbf27216b	-0.65285367
117	0x3f7206b1	0.9454146
118	0x3ed458ea	0.41474086
119	0xbe97846e	-0.29593223
120	0xbf447a8a	-0.7674948
121	0xbdf002b7	-0.11719268
122	0xbe4a0da3	-0.19731764
123	0x3e9beb5f	0.3045301
124	0x3f4ee374	0.80815816
125	0xbe58888a	-0.21145836
126	0x3e14766e	0.14498302
127	0x3f9a815b	1.2070726
128	0x3e30833b	0.1723756
129	0xbf525e66	-0.8217529
130	0xbb233f61	-0.0024909603
131	0x3eed5783	0.4635583
132	0xbf8fa0ac	-1.1220908
133	0x3e8ca56b	0.27469954
134	0xbf1e1070	-0.6174383
135	0xbd063ea7	-0.032774594
136	0x3ea51681	0.32243732
137	0xbeccd1d5	-0.4000384
138	0x3f3c7e66	0.7363037
139	0xbea1e1bd	-0.31617537
140	0xbedf8899	-0.43658903
141	0x3f767bb1	0.9628249
142	0xbea1399b	-0.31489262
143	0x3dfc50fd	0.12320135
144	0xbd1df1a3	-0.03856052
145	0xbf14fafa	-0.5819546
146	0xbf143d95	-0.57906467
147	0x3d5d6883	0.05405475
148	0x3e21ab81	0.1578808
149	0xbe8fec55	-0.28109995
150	0x3ea6037e	0.3242454
151	0xbe952698	-0.29131007
152	0x3fac604b	1.3466886
153	0xbe2bec14	-0.16789275
154	0x3f3dfed7	0.7421698
155	0xbfa58685	-1.2931677
156	0x3d2e17b0	0.04250306
157	0x3f98d177	1.1938924
158	0x3f41d67a	0.7571789
159	0x3c8c2ba3	0.017110651
160	0x3f9266b1	1.1437589
161	0x3de08297	0.10962408
162	0xbe7b909c	-0.24566883
163	0x3ef1c1a3	0.47218046
164	0xbf049751	-0.5179339
165	0x3f9d0d6b	1.226972
166	0x3d56f583	0.052480232
167	0xbec18d75	-0.37803236
168	0xbdd7db6b	-0.105398975
169	0xbda3461c	-0.07972357
170	0xbe95fcf8	-0.29294562
171	0xbeefc26a	-0.46828014
172	0x3efeeb7f	0.49789044
173	0xbcbef3d3	-0.023309624
174	0xbcd6b7e4	-0.026210733
175	0x3f4aaad9	0.7916694
176	0x3f757c91	0.958932
177	0xbec3acc4	-0.38217747
178	0xbf1e92f5	-0.6194299
179	0x3e9a866e	0.30180687
180	0xbf1f80af	-0.6230573
181	0x3ebf93bb	0.37417397
182	0x3e761e1c	0.24034923
183	0x3f27825d	0.65433294
184	0xbf46a43b	-0.77594346
185	0x3e4d5c6a	0.20054784
186	0xbde0e742	-0.10981609
187	0x3f04c17c	0.51857734
188	0x3f666cab	0.90009564
189	0x3ec98494	0.39358962
190	0xbd91e4af	-0.07123696
191	0x3f5ae624	0.85507417
192	0x3e1caa7c	0.1529941
193	0x3f269d7f	0.6508407
194	0xbe4bfa95	-0.19919808
195	0xbf3f9682	-0.7483903
196	0x3e05b8bb	0.1305875
197	0xbea213ab	-0.3165563
198	0xbe1e7a69	-0.15476383
199	0x3e7c9df2	0.24669626
200	0xbe10cf1e	-0.14141509
201	0x3e4940f9	0.19653691
202	0xbf04ec26	-0.51922834
203	0xbf26863a	-0.65048563
204	0xbe37bc1b	-0.1794285
205	0x3e66c6c1	0.22536756
206	0xbe380593	-0.17970876
207	0xbecae793	-0.39629802
208	0xbfb240c2	-1.3926013
209	0x3e111937	0.14169775
210	0xbf0d30fb	-0.55152863
211	0xbd916556	-0.070994064
212	0xbf806063	-1.0029415
213	0xbd8b65e5	-0.06806544
214	0x3e603a80	0.21897316
215	0x3ece9e55	0.40355173
216	0xbee7caf5	-0.4527203
217	0x3f7b6365	0.9819854
218	0x3e0e3142	0.13885978
219	0xbf141580	-0.57845306
220	0xbe26e4bb	-0.16298191
221	0x3e94c687	0.29057714
222	0xbdc11ed3	-0.094297074
223	0x3dbed63d	0.093182065
224	0xbd22b847	-0.03972652
225	0xbe9c1004	-0.3048097
226	0x3e8f196d	0.27949086
227	0xbddcdb6b	-0.10784038
228	0xbf1f526d	-0.62235147
229	0x3ef924de	0.4866094
230	0xbf17c684	-0.59287286
231	0xbeb35621	-0.3502665
232	0xbe9dcd1b	-0.30820546
233	0xbd1e10da	-0.03859029
234	0xbf267a4d	-0.65030366
235	0x3f1eab51	0.6198016
236	0xbe0ebf96	-0.13940272
237	0xbf429074	-0.7600167
238	0x3d2d7648	0.04234913
239	0xbebabf1c	-0.3647393
240	0xbe993f83	-0.29931268
241	0x3ed85c04	0.42257702
242	0x3f3a7a57	0.72842926
243	0xbdb06c06	-0.08614354
244	0xbf5f705d	-0.8728083
245	0xbc155740	-0.00911504
246	0xbed7c375	-0.4214131
247	0x3e94e460	0.29080486
248	0xbf7731fd	-0.9656065
249	0xbf0935c4	-0.53597665
250	0x3f1a8dd1	0.60372645
251	0xbd41dbff	-0.047328945
252	0x3ead7897	0.33881065
253	0x3ee0d84a	0.43915015
254	0xbcb9ab58	-0.02266471
255	0xbee69be3	-0.45040807

update_node_embedding_layer_g.0.update_layer.weight f4 [32, 64]
0	0xbf54a966	-0.8307098
1	0x3e938b0d	0.28817025
2	0x3e440a02	0.19144443
3	0x3d092cd9	0.033490036
4	0x3a386944	0.0007034729
5	0xbf078e04	-0.52951074
6	0xbf2dde87	-0.67917675
7	0xbecd0c4b	-0.4004844
8	0xbeb80ac7	-0.35945722
9	0x3f2ec89d	0.6827486
10	0x3ece98fb	0.4035109
11	0xbf1f32ae	-0.62186706
12	0x3d4fe4bd	0.05075525
13	0xbf6fb603	-0.936371
14	0xbed70246	-0.41993922
15	0x3e771f69	0.24133076
16	0x3e0c133a	0.1367921
17	0xbf2151f0	-0.6301565
18	0x3f35788c	0.70887065
19	0xbefdacf4	-0.49546015
20	0xbf1a4524	-0.6026175
21	0x3ec153c2	0.37759215
22	0x3dd658a4	0.104661256
23	0x3f04929d	0.51786214
24	0x3e65d047	0.22442733
25	0xbf133689	-0.5750509
26	0x3c4d7a87	0.01254142
27	0xbe20d8d0	-0.15707707
28	0x3d5d6cd2	0.054058857
29	0x3f0c48ac	0.5479839
30	0xbced68c2	-0.028980616
31	0xbd87e89e	-0.06636165
32	0x3ec17193	0.37781963
33	0xbe853315	-0.26015535
34	0xbec717e6	-0.3888542
35	0xbef44069	-0.4770539
36	0x3f086a77	0.5328745
37	0xbeb11fff	-0.34594724
38	0x3f0d5c73	0.5521919
39	0xbe3ce898	-0.18448102
40	0xbef7b840	-0.4838276
41	0xbf44d2f1	-0.7688437
42	0xbefbcbbb	-0.49178872
43	0x3e673bd6	0.2258142
44	0x3dee041c	0.116218776
45	0x3edd4dd5	0.43223444
46	0xbf214502	-0.6299592
47	0xbec038af	-0.37543246
48	0x3eb43159	0.351939
49	0xbe85083a	-0.2598284
50	0xbf2f5cd3	-0.68501014
51	0xbebbfbb9	-0.36715487
52	0x3eabcf5e	0.33556646
53	0xbf142fd5	-0.57885486
54	0xbf935c46	-1.1512535
55	0xbf66c213	-0.90139884
56	0x3edae222	0.4275065
57	0x3e7fce43	0.24981026
58	0x3dfd9eda	0.12383814
59	0x3e392e63	0.18084101
60	0x3e757138	0.23968971
61	0x3e8478af	0.25873324
62	0x3f35c1bb	0.70998734
63	0x3ea64489	0.32474163
64	0x3eb0168a	0.34392196
65	0xbdfc8357	-0.123297386
66	0xbf1b4c3b	-0.60663193
67	0xbf220f11	-0.6330424
68	0x3f426dea	0.75948966
69	0x3f11de93	0.56980246
70	0x3d9aa58a	0.07551105
71	0x3f00104c	0.5002487
72	0x3ee10f7d	0.4395713
73	0xbdeffab6	-0.11717741
74	0xbdfdb3ac	-0.12387785
75	0x3eb4232c	0.35183084
76	0xbf2809cd	-0.65639955
77	0x3d95fd5f	0.07323717
78	0x3e57ad14	0.21062118
79	0xbde34241	-0.11096621
80	0x3e7155a0	0.2356782
81	0x3e8207fe	0.25396723
82	0x3d2ca482	0.042149074
83	0xbf5f5b3d	-0.87248594
84	0xbef7e384	-0.48415768
85	0x3c30116b	0.01074634
86	0xbc64401e	-0.013931302
87	0x3f3402ce	0.7031678
88	0xbe7f28c1	-0.2491789
89	0x3e7cd98b	0.24692361
90	0xbf1f84da	-0.6231209
91	0x3ddcbd64	0.10778311
92	0xbe5a46d2	-0.21316078
93	0xbf451fe2	-0.77001774
94	0x3ec01c67	0.3752167
95	0x3e6f1a02	0.23349765
96	0x3e0344b4	0.12819177
97	0x3ce568f8	0.028004155
98	0x3ea482a2	0.32130915
99	0x3eb76212	0.3581701
100	0x3ec507d7	0.38482544
101	0xbe8c1d5a	-0.27366143
102	0x3f2fa7b5	0.68615276
103	0x3f1fcb38	0.6241946
104	0xbdba33a1	-0.09091879
105	0x3e1179d1	0.14206626
106	0x3e2989c7	0.16556464
107	0x3d85205a	0.06500311
108	0x3e22bc59	0.15892161
109	0xbe31e521	-0.17372562
110	0xbe713ae4	-0.23557621
111	0xbbe34be7	-0.0069365385
112	0x3f26c97a	0.6515118
113	0xbf09b396	-0.5378965
114	0x3e376636	0.17910084
115	0x3eeff783	0.46868524
116	0x3f2e6a46	0.6813091
117	0xbee476ce	-0.4462189
118	0xbf2644bc	-0.6494863
119	0xbed5c002	-0.41748053
120	0x3f8317a6	1.0241592
121	0x3e8b27f5	0.27178922
122	0xbe4a66e0	-0.19765806
123	0xbf264597	-0.64949936
124	0x3e8c50f5	0.27405515
125	0x3e9510f8	0.2911451
126	0x3e00b2cd	0.12568207
127	0xbe657bb4	-0.2241047
128	0x3fa8a667	1.3175782
129	0x3dc62792	0.09675516
130	0x3e10af2d	0.14129324
131	0xbf14c0aa	-0.5810648
132	0xbc6c8664	-0.014436338
133	0xbf0309df	-0.5118694
134	0x3f22a831	0.6353789
135	0xbf03a73a	-0.5142704
136	0xbe5fd74f	-0.21859477
137	0xbde2123d	-0.11038635
138	0x3f405218	0.75125265
139	0x3e1e6458	0.15467966
140	0xbef34d5d	-0.4751996
141	0x3ed8728c	0.42274892
142	0xbf2d613f	-0.6772651
143	0x3eea171b	0.45720753
144	0xbe5d222c	-0.21595067
145	0xba619630	-0.00086054485
146	0xbee0b612	-0.4388891
147	0xbe076abe	-0.13224313
148	0x3e37b5ca	0.17940441
149	0xbdf1eecc	-0.11813125
150	0xbf55ff4e	-0.8359269
151	0xbf1ad362	-0.60478795
152	0xbeda31a8	-0.4261601
153	0x3e854246	0.26027125
154	0x3ec895d8	0.39176822
155	0xbe982953	-0.29719028
156	0xbe9de8d4	-0.30841696
157	0x3e1d35d9	0.15352573
158	0xbf6e1ae4	-0.9300978
159	0xbe9742cc	-0.2954315
160	0xbec32636	-0.3811509
161	0xbf024db1	-0.508998
162	0xbf19df92	-0.60106766
163	0x3f1fe858	0.62463903
164	0x3f4693e1	0.77569395
165	0x3d2dda9e	0.042444818
166	0xbee21ad1	-0.44161084
167	0xbda706ac	-0.081555694
168	0xbed7208d	-0.42017022
169	0xbe8b37b2	-0.2719093
170	0xbd9c1e28	-0.07622939
171	0xbf4df09c	-0.80445266
172	0x3f1aa253	0.6040394
173	0x395a6a64	0.00020829734
174	0x3f3d083d	0.73840696
175	0x3e919cae	0.2843985
176	0x3f0ace62	0.54221165
177	0xbf1da57d	-0.6158064
178	0x3f2026fd	0.6255949
179	0x3ff5c4f3	1.9200729
180	0x3de481f4	0.11157599
181	0xbf0947ff	-0.5362548
182	0xbf6941ce	-0.91116035
183	0x3ec7769a	0.38957673
184	0xbe1197fd	-0.14218135
185	0x3ea5cb9f	0.32381913
186	0xbef67ca7	-0.48141977
187	0xbe5caa31	-0.21549298
188	0xbf2432d1	-0.6414004
189	0x3e9c16a3	0.3048602
190	0xbea451db	-0.320937
191	0xbf1913c5	-0.5979579
192	0xbf953f64	-1.165997
193	0xbd4c90e0	-0.04994285
194	0x3f75f35e	0.96074474
195	0xbf16569a	-0.58725893
196	0x3f258177	0.6465067
197	0x3eaaf5af	0.33390567
198	0xbeed1041	-0.46301463
199	0x3f4f196b	0.8089816
200	0x3f797cc5	0.9745601
201	0xbf72d879	-0.9486156
202	0xbcd1c59f	-0.025606928
203	0x3eb4be42	0.35301405
204	0x3ef7ce37	0.48399517
205	0xbed75386	-0.4205591
206	0x3da48c85	0.080346145
207	0x3f740592	0.95321
208	0xbf377984	-0.71669793
209	0x3d7b7242	0.06138826
210	0xbe101137	-0.14069067
211	0xbf3bf088	-0.73413897
212	0x3e33089d	0.17483754
213	0xbf6f03e7	-0.9336533
214	0xbef5de3e	-0.4802112
215	0x3e3672c6	0.1781722
216	0xbef18c29	-0.47177246
217	0xbf03ed11	-0.5153361
218	0x3e8000e1	0.2500067
219	0xbf8d5b9b	-1.1043581
220	0xbf699374	-0.9124062
221	0x3e9d258b	0.30692706
222	0x3f7d4d9b	0.9894654
223	0xbdb1a2c0	-0.0867362
224	0x3c42147c	0.011845704
225	0x3f08efb7	0.53490776
226	0x3f999368	1.199811
227	0x3f2f4b2c	0.6847408
228	0xbdea13a0	-0.114295244
229	0x3dc32f32	0.09530486
230	0xbb0852d6	-0.0020801327
231	0xbe5fc818	-0.21853673
232	0x3ec63ceb	0.38718352
233	0xbf16a0cb	-0.588391
234	0xbe8ee96e	-0.27912468
235	0x3e71cc58	0.23613107
236	0x3f1181c7	0.5683865
237	0xbc94ae0a	-0.018149395
238	0xbeb60ad2	-0.3555513
239	0xbe9869e5	-0.2976829
240	0xbf272fec	-0.653075
241	0xbf18f9b2	-0.59756005
242	0x3f0e6fa5	0.55639106
243	0xbde8e199	-0.11371154
244	0xbd76b4b5	-0.06023093
245	0x3e9a76bc	0.30168712
246	0xbed4473c	-0.41460598
247	0xbf5c20ad	-0.8598736
248	0xbd9e0fc8	-0.07717854
249	0x3f127b05	0.5721896
250	0x3f27f917	0.65614456
251	0xbce7bb69	-0.028287606
252	0xbf33f94f	-0.7030229
253	0x3dc19f8e	0.09454261
254	0xbf856624	-1.0421796
255	0xbf1a9bec	-0.6039417

update_node_embedding_layer_g.1.message_layer.weight f4 [32, 64]
0	0xbf6b1d66	-0.91841733
1	0xbeb16950	-0.3465066
2	0xbe3c6c17	-0.18400608
3	0xbcb2c271	-0.021821233
4	0xbf1f9875	-0.62342006
5	0x3dbe4ea1	0.09292341
6	0xbe30b2ef	-0.17255758
7	0x3f625eda	0.8842598
8	0x3ec02564	0.37528527
9	0xbf82bab2	-1.0213225
10	0xbefd5fc1	-0.49487117
11	0x3e878e40	0.26475716
12	0xbf8ee37b	-1.1163172
13	0xbcaa2665	-0.020770261
14	0xbf329c68	-0.69769907
15	0xbe0f2ae7	-0.1398121
16	0xbeb70b9b	-0.35751042
17	0x3edff7d3	0.43743762
18	0x3eed179b	0.46307072
19	0x3e14dcf6	0.14537415
20	0xbf6a4da7	-0.9152474
21	0xbf1d9a7f	-0.6156387
22	0x3f13aece	0.57688606
23	0xbe98f7b1	-0.29876474
24	0x3f7b8057	0.98242706
25	0xbf374e8d	-0.71604234
26	0x3ecafd1c	0.39646232
27	0x3dd26b3a	0.10274358
28	0x3ecf2f5f	0.4046583
29	0xbe744e60	-0.23858023
30	0x3f0f1285	0.55887634
31	0x3dab6def	0.083705775
32	0xbee872f4	-0.45400202
33	0xbc8ec42d	-0.017427528
34	0xbf68595d	-0.9076136
35	0xbf62d716	-0.88609445
36	0x3eaff37e	0.34365457
37	0xbf4bdf22	-0.7963735
38	0x3d2b4036	0.041809283
39	0xbf24ca2d	-0.64370996
40	0xbea2dce0	-0.3180914
41	0xbe6180ea	-0.22021833
42	0xbf5e29cb	-0.8678252
43	0x3e32cff6	0.17462143
44	0x3ed43ac4	0.41451085
45	0x3d42f98e	0.047601275
46	0x3e359f4e	0.17736551
47	0xbe79a5c8	-0.24379647
48	0xbf514901	-0.8175202
49	0x3d9e3929	0.07725746
50	0x3ee6960e	0.45036358
51	0xbea441a7	-0.3208134
52	0xbed704de	-0.419959
53	0xbf9ad919	-1.2097503
54	0xbf10ec60	-0.5661068
55	0xbf00de92	-0.50339615
56	0x3ca6bb1c	0.020352893
57	0x3e2b0c13	0.16703825
58	0xbf730f18	-0.94944906
59	0xbf5e9bcb	-0.8695647
60	0xbfaf675a	-1.3703415
61	0x3ebf426f	0.37355372
62	0x3ec6a767	0.38799593
63	0xbf81a4b0	-1.0128384
64	0x3f313dfd	0.6923521
65	0xbd16cf13	-0.036818575
66	0x3ec0bcb6	0.37643975
67	0x3e31ef4c	0.17376441
68	0xbf7446b9	-0.95420414
69	0x3d59c9b9	0.053170893
70	0x3f4a9cdf	0.79145616
71	0xbe3e4829	-0.18582214
72	0xbebb6e4a	-0.3660758
73	0xbf1f6340	-0.6226082
74	0x3e09bb0d	0.1345026
75	0xbdf40b87	-0.11916261
76	0xbf2c4424	-0.67291474
77	0xbe2bcccc	-0.16777343
78	0xbf1cfff8	-0.6132808
79	0xbf502f16	-0.8132185
80	0x3ebeee12	0.37291008
81	0xbd68f73d	-0.05687641
82	0x3f7703d7	0.96490234
83	0x3e29ab57	0.16569267
84	0x3e9e80d1	0.30957654
85	0x3e796b75	0.24357398
86	0xbf3adf20	-0.7299671
87	0xbf0f40bf	-0.5595817
88	0x3ec5088d	0.38483086
89	0xbf430bf7	-0.7619013
90	0xbebff97f	-0.37495038
91	0x3dece97e	0.115679726
92	0xbe0b447a	-0.1360034
93	0xbf201df2	-0.6254569
94	0xbe89abe5	-0.26888958
95	0x3e98bed4	0.2983309
96	0x3e02746b	0.12739722
97	0x3f599115	0.84987
98	0x3f23dfc0	0.6401329
99	0xbeea2cd5	-0.4573733
100	0x3e5a4fc8	0.21319497
101	0xbe4ddcd2	-0.20103768
102	0x3dd881a0	0.10571599
103	0xbeab7349	-0.33486393
104	0x3e732997	0.23746334
105	0xbeb12095	-0.3459517
106	0x3ece8cad	0.40341702
107	0x3f3f468d	0.74717027
108	0x3e95e201	0.2927399
109	0xbec5aa33	-0.38606414
110	0x3c908857	0.017643137
111	0xbed553f0	-0.41665602
112	0xbf52ea09	-0.8238836
113	0x3ed02e68	0.40660405
114	0x3db9eb2c	0.090780586
115	0xbf1455e7	-0.57943577
116	0x3ee3a812	0.44464165
117	0xbe90fe81	-0.2831917
118	0xbe9a7e65	-0.30174556
119	0x3dcab359	0.09897489
120	0xbcbe70ab	-0.023247084
121	0xbf81b0db	-1.0132097
122	0xbf92b33d	-1.1460949
123	0x3ef0b408	0.47012353
124	0xbd178948	-0.036996156
125	0x3eb06e92	0.34459358
126	0xbef6724c	-0.48134077
127	0xbf27d43d	-0.65558225
128	0xbf0a046d	-0.53913003
129	0xbe7907e8	-0.24319422
130	0xbe241fa4	-0.16027695
131	0x3e5c9087	0.21539508
132	0xbf095d79	-0.5365825
133	0x3dfdcb57	0.123922996
134	0xbea0fdd9	-0.3144367
135	0xbda4ebdc	-0.08052799
136	0x3f8caf0c	1.099092
137	0x3f09d048	0.53833437
138	0xbf120e5b	-0.57053155
139	0x3f78ad0f	0.97139066
140	0xbfa14148	-1.2598047
141	0x3eb13758	0.34612536
142	0x3deaace2	0.11458756
143	0xbf5023c9	-0.81304604
144	0xbe3ea97c	-0.1861934
145	0x3ea148d0	0.31500864
146	0xbeddc59b	-0.43314824
147	0x3e09b1c2	0.13446715
148	0xbf324067	-0.6962952
149	0x3e07d585	0.13265045
150	0xbcf92d07	-0.030416979
151	0xbf47d017	-0.78051895
152	0x3ef586d8	0.4795444
153	0x3dd81d7c	0.10552499
154	0x3f110775	0.56652004
155	0x3ea78d11	0.32724813
156	0x3ec35aa2	0.38155085
157	0xbc451d35	-0.012030889
158	0xbebf6d16	-0.37387913
159	0x3e9a7cdd	0.30173388
160	0x3f16bbba	0.588802
161	0x3f4aee6b	0.79270047
162	0x3e983ec0	0.29735374
163	0x3eac5978	0.3366201
164	0xbf03f9e4	-0.5155318
165	0xbeca4be2	-0.3951102
166	0xbf567fd2	-0.8378879
167	0x3e0eea08	0.13956463
168	0x3f262d13	0.6491253
169	0x3efe3cf6	0.49655885
170	0x3e90635b	0.28200802
171	0xbeb6b577	-0.35685322
172	0xbf7413d3	-0.9534275
173	0x3d82c909	0.06386001
174	0x3df5db28	0.12004691
175	0xbeb9a0de	-0.36255544
176	0xbed065f0	-0.40702772
177	0xbf8bd4ea	-1.0924351
178	0xbea7d711	-0.3278127
179	0xbef1215b	-0.4709576
180	0x3eb1bdcc	0.34715116
181	0xbef8c4e4	-0.48587716
182	0xbf24c45b	-0.64362115
183	0x3eb455a7	0.35221598
184	0x3f10c87a	0.565559
185	0x3ec8bf71	0.39208558
186	0x3f3b0836	0.73059404
187	0x3e250914	0.16116744
188	0x3e0b8614	0.13625365
189	0x3e9ce82e	0.3064589
190	0x3e7ef69c	0.24898762
191	0xbf4e0e36	-0.80490434
192	0x3ddccf4c	0.10781726
193	0x3e0552f7	0.1301993
194	0x3f1e4d0e	0.61836326
195	0xbf86245c	-1.0479846
196	0x3ebe7699	0.37199858
197	0xbeabd5ca	-0.33561546
198	0xbf32ac6d	-0.6979435
199	0xbe085812	-0.13314846
200	0x3d576e82	0.052595623
201	0xbd94fafc	-0.07274434
202	0xbd3d6f67	-0.04624882
203	0xbf2f7479	-0.685371
204	0x3ec5b3ad	0.38613644
205	0x3e80d035	0.2515885
206	0x3ce87643	0.028376704
207	0xbc9ebc16	-0.019376796
208	0x3f11c55e	0.56941783
209	0xbecc9f24	-0.39965165
210	0x3ee87a02	0.45405585
211	0x3f19c858	0.60071325
212	0x3f090b96	0.53533304
213	0x3f4e0aa6	0.80485
214	0xbf021131	-0.5080748
215	0xbe8694ad	-0.26285306
216	0x3dadefae	0.08492981
217	0xbe65a966	-0.22427902
218	0xbea0f918	-0.31440043
219	0x3f1c6ff3	0.6110832
220	0x3ee1d9f3	0.44111595
221	0x3dd3e416	0.10346238
222	0xbfa1d234	-1.2642274
223	0x3f373f88	0.71581316
224	0xbfae5877	-1.3620747
225	0xbf582a59	-0.8443962
226	0xbe844741	-0.25835612
227	0xba883ae6	-0.001039353
228	0xbf35434a	-0.708058
229	0xbf2b1c8e	-0.66840446
230	0x3f58b32b	0.8464839
231	0x3ed115cb	0.4083694
232	0x3d3999c1	0.045312647
233	0xbf2a1d39	-0.6645084
234	0xbf404495	-0.7510465
235	0x3f0120fb	0.5044095
236	0xbf34422a	-0.7041346
237	0xbf07c6a1	-0.5303746
238	0xbe8aa954	-0.27082312
239	0xbf077ee0	-0.5292797
240	0xbf1f50ea	-0.6223284
241	0x3e887509	0.2665179
242	0xbeb72fc2	-0.35778624
243	0xbf575267	-0.8411011
244	0xbe1ed351	-0.15510298
245	0xbe939f01	-0.28832248
246	0xbe8d5769	-0.2760575
247	0x3e70bf48	0.23510468
248	0xbe51620d	-0.2044756
249	0x3ebc167e	0.3673591
250	0xbf075949	-0.52870613
251	0x3e94c6d4	0.29057944
252	0x3f239309	0.6389623
253	0xbf383e00	-0.71969604
254	0xbe1f5eaa	-0.15563455
255	0xbf1b4dbf	-0.60665506

update_node_embedding_layer_g.1.update_layer.weight f4 [32, 64]
0	0x3eb61fcc	0.35571134
1	0xbf533349	-0.8250013
2	0xbdba7b33	-0.0910553
3	0xbf801f88	-1.0009623
4	0x3f2df782	0.6795579
5	0x3f8e64de	1.1124532
6	0x3f663620	0.8992634
7	0x3dcb1a98	0.09917182
8	0x3eb2fb4e	0.34957355
9	0xbf52ecbb	-0.8239247
10	0x3dd08485	0.10181526
11	0xbf70bc90	-0.94037724
12	0xbdf4c132	-0.119509116
13	0x3f8172b2	1.0113127
14	0xbd0496b6	-0.03237029
15	0x3e9c511f	0.3053064
16	0x3eeae4df	0.4587774
17	0x3e5d3f99	0.21606292
18	0xbdd59e7a	-0.10430618
19	0xbe105cfe	-0.14097974
20	0xbeaf09b8	-0.34187102
21	0xbdcaccb2	-0.09902324
22	0x3e7b0733	0.24514465
23	0x3f9b61cc	1.213922
24	0xbe3afecd	-0.18261261
25	0xbf282f53	-0.6569721
26	0x3e771f05	0.24132927
27	0xbd76ce24	-0.060255185
28	0x3dd17722	0.10227801
29	0xbdd3103e	-0.10305832
30	0x3f645b2b	0.8920161
31	0xbd945bd2	-0.07244076
32	0x3ee72024	0.4514171
33	0xbf00c7c7	-0.50304836
34	0x3de4a6d4	0.111646324
35	0x3df08f78	0.117461145
36	0xbd77c194	-0.060487345
37	0xbe29a88e	-0.16568205
38	0x3f42c1c3	0.76076907
39	0xbedd453c	-0.43216884
40	0xbc1dbe6c	-0.00962792
41	0xbe9b87d7	-0.30377075
42	0xbeaa69c4	-0.33283818
43	0x3f21dcbe	0.6322745
44	0x3ecb599c	0.39716804
45	0xbfac1647	-1.3444299
46	0x3e9da688	0.30791116
47	0xbe0c4050	-0.13696408
48	0xbdb52942	-0.0884576
49	0x3dc26fbd	0.09493969
50	0xbf1d4579	-0.6143413
51	0xbf0a1050	-0.5393114
52	0x3ef9973e	0.487482
53	0x3e764b5a	0.24052182
54	0xbe71497c	-0.23563188
55	0xbe1df880	-0.15426826
56	0xbed97556	-0.42472333
57	0x3e737245	0.23774059
58	0xbf38634d	-0.7202652
59	0x3cdec720	0.02719456
60	0x3f7a1ed8	0.97703314
61	0xbdd96dea	-0.106166676
62	0xbf26e308	-0.6519017
63	0x3ef788e7	0.48346636
64	0x3e751f2d	0.23937674
65	0x3f2c8fbb	0.67406815
66	0xbd3c5c77	-0.04598662
67	0xbf18ccc8	-0.5968747
68	0xbdfde9e5	-0.123981275
69	0x3f41a3a8	0.75640345
70	0xbe7b91fd	-0.24567409
71	0xbdf2809b	-0.11840936
72	0x3fc2dab3	1.5222992
73	0xbf3fd1ee	-0.749297
74	0xbe1aac00	-0.15104675
75	0x3f385428	0.7200341
76	0xbe8c587f	-0.27411267
77	0xbf885f0f	-1.065401
78	0xbf2b9d41	-0.67036825
79	0xbf005f8a	-0.5014578
80	0x3d33acc0	0.04386592
81	0x3f00eb3b	0.50358933
82	0xbd5f10ef	-0.05445951
83	0xbe179070	-0.14801192
84	0xbf016094	-0.5053799
85	0x3ea62613	0.32450923
86	0x3df67070	0.120331645
87	0xbe6190c7	-0.22027884
88	0xbea4b7e2	-0.3217154
89	0x3ee94d85	0.45566955
90	0x3f237704	0.6385348
91	0xbf3b032f	-0.7305173
92	0x3f1473f9	0.5798946
93	0x3c5e8020	0.013580352
94	0x3f85ba66	1.0447509
95	0xbeba1a6b	-0.3634828
96	0x3f506f73	0.8142006
97	0x3e85ec3b	0.26156792
98	0xbdba8f15	-0.09109322
99	0x3e8c258f	0.27372405
100	0x3f0ccae3	0.5499708
101	0xbe07e417	-0.13270603
102	0x3e0ce037	0.13757406
103	0x3f34a9d7	0.70571655
104	0xbf148098	-0.5800872
105	0x3f00cf89	0.50316674
106	0xbe6080d7	-0.21924148
107	0xbeb17127	-0.3465664
108	0xbe84bce7	-0.2592537
109	0x3e8d0d58	0.27549243
110	0x3fc20232	1.515692
111	0xbf4a5d2a	-0.7904841
112	0xbe88201a	-0.26586992
113	0xbf81cfb5	-1.0141512
114	0xbe908e25	-0.28233448
115	0xbf5fea18	-0.87466574
116	0x3f2709c0	0.6524925
117	0xbf271915	-0.6527265
118	0x3b08dd15	0.0020883728
119	0x3f420c69	0.75800186
120	0xbe4da53a	-0.2008256
121	0x3ec254e5	0.37955394
122	0x3f302f3b	0.6882207
123	0x3e612ca0	0.2198968
124	0x3e3a2190	0.18176866
125	0xbee19a9a	-0.44063264
126	0xbcf72297	-0.03016786
127	0x3e5cba76	0.21555504
128	0xbf048257	-0.5176138
129	0xbe6c1a99	-0.23057021
130	0x3eab054f	0.33402488
131	0xbeeabfcc	-0.45849454
132	0xbeb6f9ab	-0.35737357
133	0xbf49e6cc	-0.78867793
134	0x3f12f910	0.5741129
135	0x3e9949ca	0.2993911
136	0x3d5050f7	0.050858464
137	0x3f0b946e	0.5452336
138	0xbed88212	-0.42286736
139	0x3f03bc1f	0.51458925
140	0xbf0a08bd	-0.53919584
141	0xbf416833	-0.7554962
142	0xbe110406	-0.14161691
143	0xbe8cf0f8	-0.27527595
144	0xbd8d16fd	-0.0688915
145	0x3f1576fe	0.5838469
146	0x3e1f7465	0.15571745
147	0xbeaa9a08	-0.33320642
148	0x3e18d6d7	0.14925705
149	0xbc0426e8	-0.008065917
150	0xbea0a1f0	-0.31373549
151	0xbf19d091	-0.6008387
152	0xbe0fd5fe	-0.14046475
153	0xbf0fc426	-0.56158674
154	0xbdcd978a	-0.100386694
155	0xbda11cfd	-0.07866857
156	0xbf4084f4	-0.7520287
157	0xbe8e84a2	-0.27835566
158	0xbe1359a4	-0.14389664
159	0x3e9edab4	0.31026232
160	0x3d6be360	0.05758989
161	0x3f6ffe29	0.9374719
162	0x3e3241a9	0.1740786
163	0x3d8faa32	0.07014884
164	0x3e758d9e	0.23979804
165	0xbea0b031	-0.31384423
166	0x3de4c3a7	0.1117013
167	0xbf003068	-0.5007386
168	0xbeae62b2	-0.34059674
169	0xbf4e3f11	-0.8056498
170	0xbe0e7433	-0.13911514
171	0xbdaa42b8	-0.08313507
172	0xbe83930d	-0.25698128
173	0xbe785132	-0.24249724
174	0x3ea66cfe	0.3250503
175	0xbc3c6144	-0.011497799
176	0x3f311972	0.6917945
177	0xbd3149dc	-0.04328333
178	0x3f48fc6b	0.7851016
179	0x3e6c9f8f	0.23107742
180	0xbe1ad9f4	-0.15122205
181	0x3f399765	0.72496635
182	0x3ef24f23	0.47326002
183	0xbf7ce352	-0.98784363
184	0xbed5ed5b	-0.4178265
185	0xbf808429	-1.0040332
186	0xbd91e929	-0.0712455
187	0x3c2ea8f5	0.0106604
188	0xbe154d7b	-0.14580338
189	0x3ea3caff	0.3199081
190	0x3dcbc2d4	0.0994927
191	0x3eaaeb76	0.33382767
192	0xbf1316a4	-0.5745642
193	0x3f0e962b	0.5569789
194	0x3d977172	0.07394685
195	0xbdc236f2	-0.09483136
196	0xbeaf9ee3	-0.34300908
197	0xbf31458f	-0.69246763
198	0xbe189002	-0.14898685
199	0x3f3589c5	0.70913345
200	0xbeb11c48	-0.3459189
201	0xbeb1ca5e	-0.34724706
202	0x3e151d6c	0.14562005
203	0x3e903d1e	0.2817163
204	0x3f3b3e1a	0.73141634
205	0xbe89e366	-0.26931304
206	0xbd883c20	-0.06652093
207	0x3f390074	0.72266316
208	0xbe8a2f2b	-0.2698911
209	0xbec4775c	-0.38372314
210	0xbebe882b	-0.37213263
211	0xbd0e7eb3	-0.0347888
212	0xbd6fecc3	-0.058575403
213	0xbf569abf	-0.83829874
214	0xbf6b73f5	-0.9197381
215	0xbe99de90	-0.30052614
216	0x3f5de8bb	0.86683244
217	0x3d2546bb	0.040350657
218	0x3e9189a7	0.28425333
219	0x3de135c5	0.10996584
220	0xbf6096e6	-0.8773025
221	0xbe8aa7b5	-0.27081075
222	0xbd7742dc	-0.060366496
223	0xbe35772b	-0.1772124
224	0xbe89b8fd	-0.26898947
225	0xbe1dd4ea	-0.15413252
226	0x3e6cbd59	0.23119105
227	0x3d86ac16	0.065757915
228	0x3e92b9bf	0.28657338
229	0xbe8124fb	-0.25223526
230	0x3f11ac8b	0.56903905
231	0x3e389f83	0.18029599
232	0x3d67b7c3	0.056571733
233	0x3efcd697	0.4938247
234	0xbedb8d86	-0.4288141
235	0xbf0d7a6d	-0.5526493
236	0x3d99738d	0.07492743
237	0xbea45a5d	-0.32100192
238	0xbe50fe25	-0.20409448
239	0x3f05289c	0.5201509
240	0x3dbec032	0.09314002
241	0x3eaa1c73	0.3322483
242	0x3f0d9d76	0.5531839
243	0x3f087ea1	0.5331822
244	0x3ef10954	0.4707743
245	0xbf1d49b4	-0.6144059
246	0x3f46a1e9	0.77590805
247	0xbe9782df	-0.29592034
248	0xbda2bec0	-0.07946539
249	0xbd980698	-0.07423133
250	0xbd3c31d5	-0.04594596
251	0xbefebd83	-0.4975396
252	0x3e441db1	0.19151951
253	0xbf3d44da	-0.73933184
254	0x3f0e4e37	0.55588096
255	0xbec782f1	-0.38967088
