experiments/GBMLGG_100/train/GBMLGG_100/s2v/network/network8000.pth (torch_old, 87608 bytes, 17 tensors)

node_init_embedding_layer_g.0.weight f4 [32, 2]
0	0xbf41e780	-0.75743866
1	0xbb517271	-0.0031959082
2	0x3f308e80	0.6896744
3	0xbf726816	-0.9469007
4	0xbe388663	-0.18020014
5	0x3ee3e3be	0.4450969
6	0x3f847482	1.0348055
7	0x3e06c979	0.13162793
8	0xbef13205	-0.47108474
9	0x3ea152be	0.3150844
10	0x3f110e2b	0.56662244
11	0xbe0f1a86	-0.13974962
12	0x3f36e70c	0.714463
13	0x3d8a9376	0.06766407
14	0x3e65c4b5	0.22438319
15	0x3f7f84e5	0.99812156
16	0xbee03c49	-0.43795994
17	0x3effab54	0.499354
18	0x3fae7cdb	1.3631853
19	0x3e75a4f6	0.23988709
20	0xbe35cae8	-0.17753184
21	0xbd7775a7	-0.060414936
22	0x3f48a6b5	0.78379375
23	0xbf84ddba	-1.0380166
24	0x3e854c82	0.26034933
25	0xbf0141c6	-0.5049099
26	0xbd7f33eb	-0.062305372
27	0x3e9c3af3	0.30513725
28	0xbf8734f8	-1.056304
29	0xbdc1068c	-0.09425077
30	0x3e6c8866	0.23098907
31	0x3ea3de06	0.32005328
32	0xbf0c5a82	-0.54825604
33	0x3f2f2339	0.6841312
34	0x3e85a7d0	0.26104593
35	0x3d353d07	0.044247653
36	0xbe7638ff	-0.2404518
37	0xbf12a4d8	-0.5728278
38	0xbf439533	-0.76399535
39	0x3ed4418a	0.41456252
40	0x3cb89356	0.022531193
41	0xbefa1931	-0.48847345
42	0xbf136545	-0.575764
43	0xbdabeb08	-0.08394438
44	0xbe499345	-0.19685085
45	0xbd89efa0	-0.06735158
46	0xbf361264	-0.7112181
47	0x3df8ea11	0.121540196
48	0x3efe066a	0.4961427
49	0xbf850c03	-1.0394291
50	0x3ebb0849	0.3652976
51	0x3e57d52b	0.21077411
52	0x3f0f57b4	0.559932
53	0xbc0c62f9	-0.008568519
54	0xbf9f5395	-1.2447382
55	0x3df2171b	0.11820813
56	0x3e680c48	0.22660935
57	0x3dc8d085	0.09805397
58	0x3e39b947	0.18137084
59	0x3e1330b9	0.14374055
60	0x3f3e04e0	0.7422619
61	0x3f077095	0.5290616
62	0xbd70f052	-0.058822937
63	0x3d2329fe	0.03983497

node_init_embedding_layer_p.0.weight f4 [32, 1]
0	0xbe711421	-0.23542835
1	0xbe8e39c1	-0.27778438
2	0x3ea4f9f3	0.32221946
3	0xbed8ed69	-0.4236863
4	0xbd65ae61	-0.056074504
5	0xbd6d5990	-0.05794674
6	0x3e44cfee	0.19219944
7	0x3f988817	1.1916531
8	0xbeadbacc	-0.33931577
9	0xbe6dcea3	-0.23223357
10	0xbec6b4d3	-0.38809833
11	0xbe3393c5	-0.17536838
12	0xbedeb478	-0.43497062
13	0x3e56dc77	0.20982538
14	0x3e3a67ac	0.1820361
15	0x3f8c0af3	1.0940841
16	0x3ec6ae4b	0.3880485
17	0x3f0462b8	0.5171313
18	0xbf1020ee	-0.56300247
19	0x3ea674ce	0.3251099
20	0x3eb413c0	0.35171318
21	0x3e5ed85c	0.21762222
22	0xbf313a97	-0.69230026
23	0xbd38a921	-0.04508317
24	0x3e983993	0.29731426
25	0xbf0dc6d3	-0.55381507
26	0x3f451be5	0.7699569
27	0x3f4a84de	0.7910899
28	0x3efccd5b	0.49375424
29	0xbebc78cc	-0.3681091
30	0x3e922c6d	0.2854952
31	0xbd1cf73d	-0.038321722

edge_embedding_layer_g.edge_embedding_NN.weight f4 [31, 1]
0	0xbef20bf0	-0.47274733
1	0x3ee9b0d0	0.4564271
2	0xbeefcb7b	-0.4683493
3	0xbf274243	-0.6533548
4	0x3e97fac2	0.296835
5	0xbed51767	-0.41619417
6	0x3eb88b89	0.36043957
7	0xbbbafdef	-0.005706541
8	0xbf05d67f	-0.5228042
9	0xbe309281	-0.17243387
10	0x3e97cbf3	0.29647788
11	0x3e73eb98	0.2382034
12	0xbf407002	-0.7517091
13	0xbf098fed	-0.5373524
14	0x3efd32ae	0.49452728
15	0xbe9b92ff	-0.30385587
16	0x3f14130c	0.57841563
17	0xbe55e055	-0.20886357
18	0xbf18982b	-0.5960719
19	0x3e8f843f	0.28030583
20	0xbc197507	-0.00936628
21	0xbee4f6e7	-0.44719622
22	0x3f092392	0.535699
23	0xbe0fd77c	-0.14047045
24	0xbe25caae	-0.16190597
25	0xbea40b80	-0.32040024
26	0x3e1778d6	0.14792189
27	0x3f4a6f26	0.7907585
28	0xbf0a83be	-0.5410727
29	0xbf2cb16f	-0.6745824
30	0x3f156c7f	0.58368677

edge_embedding_layer_g.edge_feature_NN.weight f4 [32, 32]
0	0xbe49395d	-0.19650789
1	0x3f613ac0	0.8798027
2	0xbfa45876	-1.2839496
3	0x3f91aff3	1.138182
4	0xbf0221a8	-0.50832605
5	0x3ef6fb15	0.48238435
6	0x3e3b9a17	0.183205
7	0x3d102ca4	0.035198823
8	0xbe1be7ef	-0.15225194
9	0xbd4f37a0	-0.050590158
10	0xbeeba87b	-0.46026978
11	0xbeb2c296	-0.34914082
12	0x3e7d271a	0.24721947
13	0xbf665072	-0.899665
14	0x3f318c7f	0.69355005
15	0x3ecee2f4	0.40407526
16	0xbe2371a6	-0.15961322
17	0xbe31f3df	-0.17378186
18	0x3e065755	0.13119252
19	0xbf5675b0	-0.83773327
20	0x3f0f30fb	0.55934113
21	0xbf4ab074	-0.79175496
22	0x3df985d7	0.12183731
23	0x3e74adac	0.23894376
24	0x3f07799f	0.52919954
25	0xbf2831ac	-0.65700793
26	0xbe4c87b6	-0.19973645
27	0xbec21abb	-0.3791102
28	0xbf2e8dd3	-0.68185157
29	0xbdf37263	-0.11887052
30	0xbdc37bdd	-0.095451094
31	0x3e60a73e	0.21938798
32	0x3db1c830	0.08680761
33	0x3e4bf097	0.19915996
34	0x3e00e6e0	0.12588072
35	0x3d0fb181	0.03508139
36	0x3e568898	0.20950544
37	0xbf75268c	-0.9576194
38	0xbdd01844	-0.10160878
39	0x3f161c38	0.5863681
40	0xbcd33792	-0.025783334
41	0x3f02b370	0.5105505
42	0x3f2560dc	0.6460092
43	0x3f5c0621	0.8594685
44	0xbdd74639	-0.10511441
45	0xbe8e28b9	-0.27765444
46	0xbe8aba82	-0.2709542
47	0x3f012d40	0.5045967
48	0xbf53f596	-0.8279661
49	0xbf87bd59	-1.0604659
50	0x3c3bf159	0.011471116
51	0x3db2b53f	0.08725976
52	0x3f2f0034	0.68359685
53	0x3dc02735	0.09382478
54	0xbeb302f1	-0.34963182
55	0x3d9a51bb	0.0753512
56	0xb8fbe0d7	-0.00012010492
57	0x3e2d0b54	0.16898853
58	0x3f09fcd6	0.5390142
59	0x3e4cbaff	0.19993208
60	0xbda8d625	-0.0824397
61	0xbeb83e50	-0.3598504
62	0xbf50020c	-0.81253123
63	0x3e4ee020	0.20202684
64	0x3f3fe999	0.74965817
65	0xbf80e1c8	-1.0068903
66	0xbedca931	-0.43097833
67	0xbe4b03e9	-0.1982571
68	0xbeed390c	-0.46332586
69	0xbe2b8ff2	-0.1675413
70	0x3e65d23b	0.22443478
71	0x3eb40f27	0.3516781
72	0x3ec8b448	0.39200044
73	0xbebefa43	-0.3730031
74	0xbf38197e	-0.719139
75	0x3ea64c73	0.324802
76	0x3ed2b8d3	0.41156635
77	0x3f0e5d1e	0.55610836
78	0x3e16ad76	0.14714608
79	0xbf2555c7	-0.6458401
80	0x3f0fe0ae	0.5620221
81	0xbf1aba62	-0.6044065
82	0xbe80ed14	-0.25180876
83	0x3f008714	0.5020611
84	0x3dfb35d6	0.12266128
85	0xbd2d92f4	-0.042376474
86	0xbe8dfdff	-0.27732846
87	0xbf471a86	-0.77774847
88	0xbf205e44	-0.6264384
89	0xbd84dcf2	-0.064874545
90	0x3f1a3aaa	0.60245764
91	0x3f60aded	0.8776539
92	0x3e5196d3	0.20467691
93	0xbeb12893	-0.34601268
94	0x3f4b97a8	0.79528284
95	0xbe1bb147	-0.15204345
96	0xbcd43d4f	-0.02590814
97	0xbecd8609	-0.40141323
98	0xbefa85e8	-0.48930287
99	0xbf0551cf	-0.52077955
100	0xbee76979	-0.45197657
101	0xbf38e808	-0.7222905
102	0x3fa6366d	1.298536
103	0xbe6b2f36	-0.22967228
104	0x3e36675c	0.17812866
105	0xbded989e	-0.11601375
106	0x3f21152c	0.6292293
107	0xbf13a43a	-0.57672465
108	0x3f1bad46	0.6081127
109	0xbd9118c6	-0.07084803
110	0xbd4fabca	-0.05070094
111	0xbe4f3802	-0.20236209
112	0xbecb988a	-0.39764816
113	0x3f2737e8	0.6531968
114	0x3e7df346	0.24799833
115	0xbec43ae7	-0.3832619
116	0xbf16e910	-0.58949375
117	0xbe15fc61	-0.14647056
118	0x3dee8737	0.11646884
119	0xbeba3d27	-0.3637478
120	0xbd592392	-0.053012438
121	0x3e309eef	0.17248128
122	0x3f2a7270	0.6658087
123	0xbf3fad22	-0.74873555
124	0xbe28cefe	-0.16485211
125	0xbeb62827	-0.3557751
126	0x3ed552f2	0.41664845
127	0x3f4c3ab9	0.79777104
128	0xbe129d1b	-0.14317743
129	0x3ed2b82e	0.41156143
130	0xbf024788	-0.508904
131	0x3d3d5eab	0.04623286
132	0xbec6b22b	-0.38807806
133	0x3f74d89b	0.95643014
134	0xbe7f2200	-0.24915314
135	0xbce50d5c	-0.027960472
136	0xbf342f41	-0.70384604
137	0x3ea47f71	0.3212848
138	0x3f03cad7	0.51481384
139	0xbee86e3a	-0.45396596
140	0xbe7a6657	-0.24453102
141	0x3f3fffc6	0.74999654
142	0x3e44f89f	0.19235466
143	0x3e3b1a92	0.18271855
144	0xbee4ac64	-0.44662774
145	0x3f117ea3	0.5683386
146	0xbd2e5818	-0.04256448
147	0x3f0d0798	0.5508971
148	0x3d5fe678	0.05466315
149	0xbec7ed3d	-0.39048186
150	0x3f9421f7	1.1572865
151	0xbe825c18	-0.25460887
152	0x3e94079f	0.28912064
153	0x3ed1c368	0.40969396
154	0xbef23639	-0.47306994
155	0xbee18292	-0.4404493
156	0x3d7bf7d6	0.06151565
157	0x3bc36d06	0.0059639243
158	0xbeee6069	-0.4655793
159	0x3f305b09	0.6888891
160	0x3f3c076b	0.7344882
161	0x3ec56a55	0.38557687
162	0xbf25f283	-0.6482317
163	0x3f23c818	0.63977194
164	0xbf6ab5a2	-0.916834
165	0x3e9d88dd	0.3076848
166	0x3d02592b	0.03182332
167	0x3e80c3d9	0.2514942
168	0x3ef3942e	0.4757399
169	0xbf5c6532	-0.8609191
170	0xbeadb48a	-0.33926803
171	0xbf07fc9b	-0.5311982
172	0x3f1285ca	0.57235396
173	0x3dd54475	0.10413448
174	0x3da9e6fd	0.08296011
175	0xbf73679b	-0.95079964
176	0x3f068933	0.525531
177	0x3f259e86	0.6469501
178	0x3f5f646e	0.8726262
179	0x3f23ac03	0.63934344
180	0x3f66aa72	0.9010383
181	0xbe2d784d	-0.16940422
182	0x3f122538	0.5708804
183	0x3f40f5df	0.7537517
184	0x3dc7eb39	0.09761662
185	0x3efda2b9	0.4953821
186	0xbf8a53b1	-1.080679
187	0xbeabe17b	-0.33570465
188	0xbe3dc5e0	-0.18532515
189	0x3ef816bf	0.48454854
190	0x3e363043	0.17791848
191	0x3ec4ba82	0.38423544
192	0xbde39375	-0.111121096
193	0x3f6a7b92	0.91594803
194	0x3e9a757e	0.30167764
195	0xbe9e6af3	-0.3094097
196	0x3f27f5a3	0.65609187
197	0x3f1235fd	0.5711363
198	0xbea4d0a1	-0.3219042
199	0xbf3be844	-0.73401284
200	0x3f7cc7e5	0.98742515
201	0x3e912a4f	0.2835259
202	0x3f39b82c	0.7254665
203	0xbedafcce	-0.42771
204	0x3f314b8d	0.69255906
205	0x3e59ccef	0.21269582
206	0xbc3a6961	-0.011377663
207	0x3ea34bba	0.31893712
208	0xbe686c26	-0.22697505
209	0x3e7486a6	0.2387949
210	0x3e754d82	0.23955348
211	0x3f043859	0.5164848
212	0xbe104d91	-0.14092089
213	0xbe06a8e4	-0.13150364
214	0x3ec2dc1d	0.38058558
215	0xbde2855c	-0.110605925
216	0xbf4604aa	-0.77350867
217	0xbf26242b	-0.6489894
218	0xbeece3ab	-0.46267447
219	0xbf2605c9	-0.6485258
220	0xbe90b26a	-0.2826112
221	0x3ed2fc38	0.41208053
222	0x3df2d53f	0.1185708
223	0x3ead4539	0.33841875
224	0xbee410b1	-0.44543985
225	0xbf573043	-0.84058017
226	0xbe9de560	-0.30839062
227	0xbf35551e	-0.70833004
228	0x3e486ff5	0.19573958
229	0xbeeb8565	-0.4600021
230	0xbe8dbbcd	-0.27682343
231	0xbf152055	-0.5825246
232	0xbdecb6b7	-0.115582876
233	0x3edc7bdd	0.4306325
234	0xbdabe418	-0.08393115
235	0xbf918a55	-1.137034
236	0x3f1eea1b	0.62075967
237	0xbf2c930d	-0.6741188
238	0x3e99fbae	0.3007483
239	0x3ee769e9	0.4519799
240	0xbe47d568	-0.19515002
241	0x3ebcfe20	0.36912632
242	0x3f6a4f1a	0.9152695
243	0xbe436cee	-0.19084522
244	0xbe653f64	-0.22387463
245	0x3f5166a9	0.8179727
246	0x3f09b685	0.5379413
247	0xbe8d745b	-0.27627835
248	0xbd176417	-0.036960687
249	0xbf876e14	-1.0580468
250	0x3d965e36	0.07342188
251	0x3f0b6915	0.5445722
252	0x3db692de	0.089147314
253	0xbd09966d	-0.033590723
254	0xbf07403e	-0.528324
255	0x3d9f2522	0.077707544

edge_embedding_layer_p.edge_embedding_NN.weight f4 [31, 2]
0	0x3dc86625	0.097851075
1	0xbe600f18	-0.21880758
2	0x3ebf273f	0.3733463
3	0xbf4eceb4	-0.80784154
4	0x3f133a5a	0.5751091
5	0x3f0671a7	0.5251717
6	0xbd4d48e5	-0.050118346
7	0xbf0b107a	-0.54322016
8	0x3f094a93	0.53629416
9	0x3f172108	0.59034777
10	0xbe9320ca	-0.28735954
11	0x3f178ac1	0.59196097
12	0x3f329890	0.6976404
13	0xbe9f98d3	-0.31171283
14	0xbedff897	-0.43744346
15	0x3f8396c6	1.0280387
16	0x3e578748	0.210477
17	0xbefe6343	-0.49685106
18	0xbf1b9cf9	-0.60786396
19	0xbf5d3b83	-0.8641893
20	0x3d3f3178	0.046678036
21	0x3eae58e0	0.3405218
22	0x3f2de31d	0.6792467
23	0x3e928449	0.2861655
24	0xbf89318b	-1.0718244
25	0xbf5ce055	-0.86279804
26	0xbd4b4bb4	-0.049632743
27	0xbf6b9d17	-0.92036575
28	0x3ead3202	0.33827215
29	0x3d5a1867	0.05324593
30	0xbda3eed6	-0.08004539
31	0xbeeac300	-0.45851898
32	0x3e89609e	0.26831526
33	0xbee1995e	-0.44062322
34	0x3f0d93c7	0.55303615
35	0x3de9bf3b	0.114134274
36	0xbb8c9ed3	-0.0042913943
37	0xbdeb28dc	-0.11482403
38	0xbecefe4f	-0.40428397
39	0xbeec64d5	-0.4617068
40	0x3f001073	0.500251
41	0xbf8e0e4e	-1.1098115
42	0xbe1a101b	-0.15045206
43	0xbf7dbe2b	-0.991183
44	0xbd936785	-0.07197479
45	0xbe8bf190	-0.27332735
46	0x3ee380b6	0.44434136
47	0xbe970cdd	-0.29502
48	0xbd924b2a	-0.07143243
49	0xbeb6df76	-0.35717362
50	0x3e77012d	0.24121542
51	0xbb2f61b1	-0.002676111
52	0xbef200ac	-0.47266138
53	0x3efe4853	0.49664554
54	0x3b471a3b	0.0030380625
55	0xbd5a298d	-0.053262282
56	0xbec9ea70	-0.39436674
57	0xbe726962	-0.23673013
58	0xbe3f7bb1	-0.18699528
59	0x3dd64cbf	0.10463857
60	0xbee2b54a	-0.44278938
61	0xbe5f4686	-0.21804246

edge_embedding_layer_p.edge_feature_NN.weight f4 [32, 32]
0	0x3f5a6de1	0.8532391
1	0xbeaebebf	-0.34129903
2	0x3f61b160	0.8816128
3	0x3ea67b82	0.32516104
4	0xbd9c3925	-0.07628087
5	0xbefda9bf	-0.49543568
6	0xbf4a2954	-0.7896931
7	0x3deebc1d	0.116569735
8	0xbf053e9d	-0.52048665
9	0x3f7d5f4b	0.9897353
10	0x3dd76680	0.10517597
11	0xbf351cb2	-0.7074691
12	0xbe3300bb	-0.17480747
13	0xbe2bf962	-0.1679435
14	0xbed0bdb6	-0.40769738
15	0x3ef644b1	0.48099282
16	0xbdea546c	-0.114418834
17	0x3edc01a2	0.42969996
18	0xbe329f63	-0.17443614
19	0xbe2d0119	-0.1689495
20	0x3e703d38	0.23460853
21	0xbe9d8c66	-0.30771178
22	0xbc9bee91	-0.019034656
23	0x3e374f25	0.17901285
24	0xbd06f761	-0.032950763
25	0xbf01c2cb	-0.50687855
26	0xbe126b01	-0.14298631
27	0xbf591497	-0.8479704
28	0x3f1e092f	0.61732763
29	0xbea81dbc	-0.32835186
30	0x3e88ae27	0.26695368
31	0xbf82762a	-1.0192311
32	0x3ec54da0	0.38535786
33	0xbf8bc7c9	-1.0920345
34	0x3e999a23	0.3000041
35	0xbf9414f5	-1.1568896
36	0x3ea04b29	0.31307343
37	0x3ec2da9f	0.3805742
38	0xbecb2a40	-0.39680672
39	0xbe5f8d75	-0.21831305
40	0xbf735f24	-0.9506705
41	0xbf14abe0	-0.5807476
42	0xbe8f6d58	-0.2801311
43	0xbf4460f4	-0.7671044
44	0xbea2db74	-0.31808054
45	0x3f1a1cb5	0.60200053
46	0x3f1eda98	0.620523
47	0x3df8aac0	0.12141943
48	0xbe6bbd50	-0.23021436
49	0x3f533588	0.8250356
50	0xbf9c2b81	-1.2200776
51	0x3ea61dfe	0.32444757
52	0x3ef1d876	0.4723546
53	0x3ed3f69e	0.4139909
54	0xbf0617f2	-0.5238029
55	0xbf2925f3	-0.6607353
56	0x3f4f5541	0.8098946
57	0x3f273d60	0.65328026
58	0x3e1fad63	0.15593486
59	0x3f3ebd1c	0.7450731
60	0xbecc8b82	-0.39950186
61	0xbe9936da	-0.2992466
62	0x3e656f70	0.22405791
63	0xbe50564f	-0.20345424
64	0xbe565e36	-0.20934376
65	0xbf863e3d	-1.0487744
66	0xbece3625	-0.40275684
67	0x3f9da647	1.2316369
68	0xbdc81c18	-0.097709835
69	0xbedb10d5	-0.4278628
70	0xbeef7b47	-0.4677374
71	0x3d82a9f7	0.063800745
72	0x3f2478ea	0.64247
73	0x3e583643	0.21114449
74	0x3e4ca2c7	0.1998397
75	0x3edc9ba9	0.4308751
76	0xbe963c6d	-0.29342976
77	0xbee17625	-0.4403545
78	0xbe4e5528	-0.20149672
79	0x3f000c8f	0.5001916
80	0x3e930d4f	0.2872109
81	0x3d61ad97	0.05509719
82	0x3e6d3567	0.23164903
83	0x3d96c102	0.07361032
84	0x3dc5addf	0.09652304
85	0x3f1d72a0	0.6150303
86	0x3ed2e3cd	0.41189423
87	0xbf3dc13a	-0.74122965
88	0xbf21451a	-0.62996066
89	0xbeb15097	-0.34631798
90	0xbd3656a2	-0.044516213
91	0x3e123b4a	0.1428043
92	0x3f374d6a	0.716025
93	0xbe354f77	-0.17706095
94	0x3ec85bb0	0.39132452
95	0x3e494bbc	0.19657797
96	0xbf1a8769	-0.6036287
97	0xbe6a817e	-0.2290096
98	0xbf0a814b	-0.54103535
99	0x3f6cf040	0.9255409
100	0xbf5b40b5	-0.8564561
101	0xbf349d9d	-0.70553
102	0xbf195f65	-0.59911186
103	0xbe376f0c	-0.17913455
104	0x3e63a207	0.22229777
105	0xbd0dd700	-0.034628868
106	0xbe3e11cc	-0.18561476
107	0xbe64f6eb	-0.22359817
108	0xbf14e951	-0.5816851
109	0x3f753552	0.95784485
110	0x3cdaab90	0.026693135
111	0xbef32d0d	-0.4749531
112	0xbfa51b5f	-1.2898978
113	0xbed2b359	-0.41152456
114	0xbef62b82	-0.4808007
115	0x3f79ffdd	0.9765604
116	0x3eba9814	0.3644415
117	0x3ed0a224	0.40748703
118	0xbe5e57c5	-0.21713169
119	0x3c915c43	0.01774419
120	0x3ef50c89	0.47861126
121	0x3e915d5d	0.28391543
122	0x3f116b0c	0.56803966
123	0x3df4c91e	0.119524226
124	0x3e96311c	0.29334342
125	0x3f156634	0.58359075
126	0xbf020420	-0.50787544
127	0xbce7c872	-0.028293822
128	0x3eabcda1	0.3355532
129	0xbd86f63e	-0.06589936
130	0x3f1289c1	0.57241446
131	0xbee0261d	-0.43779078
132	0x3f22bfb8	0.6357379
133	0xbd60e943	-0.054909956
134	0xbe63dee6	-0.22252998
135	0xbf2684b8	-0.6504626
136	0xbe36fb21	-0.17869236
137	0xbf256a72	-0.6461555
138	0x3e781478	0.24226558
139	0x3f24affb	0.64331025
140	0xbeec36ff	-0.4613571
141	0xbe836a85	-0.25667205
142	0xbf351781	-0.7073899
143	0x3e940169	0.28907326
144	0x3e1700e0	0.14746428
145	0x3f74d9c7	0.956448
146	0xbf4527e9	-0.77014023
147	0x3e0639ea	0.1310803
148	0xbfcfa7d5	-1.6223093
149	0x3cd8be5b	0.026457956
150	0xbe27a23e	-0.16370484
151	0x3db8f327	0.09030753
152	0x3f11fd71	0.57027346
153	0xbf58190d	-0.84413224
154	0x3eb5a2b3	0.35475692
155	0x3e8bb06b	0.27283034
156	0x3d94218b	0.0723296
157	0x3ea71dc8	0.3263991
158	0x3e89f44b	0.26944193
159	0xbdf9b30e	-0.12192355
160	0x3e819c66	0.25314635
161	0xbe902bf3	-0.2815853
162	0xbd7a9a08	-0.061182052
163	0x3f83bdcf	1.02923
164	0x3f8540a6	1.0410354
165	0x3dca7a8c	0.09886655
166	0x3e8592c6	0.26088542
167	0x3e4862c7	0.1956893
168	0x3dcae1ac	0.09906325
169	0xbe934584	-0.28763974
170	0xbe823a5b	-0.25435147
171	0xbecc13a3	-0.39858732
172	0x3f13b932	0.5770446
173	0x3f0b9d71	0.5453711
174	0xbe6f0e20	-0.23345232
175	0x3ee7f5a1	0.45304587
176	0xbecd9818	-0.401551
177	0x3edc07bd	0.42974654
178	0xbeb8ebb5	-0.3611733
179	0xbeb6c6df	-0.35698602
180	0xbf54425b	-0.8291375
181	0x3eb18975	0.34675184
182	0x3f2be1ea	0.6714159
183	0xbe1a6742	-0.15078452
184	0x3c57428d	0.013138426
185	0x3f1c5259	0.6106315
186	0x3e84d9ef	0.2594752
187	0xbe98e1ae	-0.2985968
188	0xbd897a60	-0.06712794
189	0xbe47ad18	-0.19499624
190	0xbd8154ff	-0.0631504
191	0x3de8c2da	0.1136529
192	0x3e9dd945	0.30829826
193	0xbead6cb4	-0.33871996
194	0x3e3a082e	0.18167183
195	0xbeb6a491	-0.3567243
196	0xbf4b55aa	-0.7942759
197	0xbf7267ec	-0.9468982
198	0xbb25121c	-0.0025187796
199	0x3e2d8124	0.16943794
200	0xbe9ca14f	-0.3059182
201	0x3e7f38bc	0.24923986
202	0x3f9201fa	1.1406853
203	0xbee3f1d8	-0.4452045
204	0x3f481594	0.78157926
205	0xbf10bef8	-0.56541395
206	0xbec28d2e	-0.37998337
207	0x3ee24a51	0.44197324
208	0x3ef1eb7f	0.47249982
209	0xbf82c19d	-1.0215336
210	0xbf59099c	-0.8478029
211	0xbe1140ad	-0.14184828
212	0xbe48b248	-0.19599259
213	0xbed0710f	-0.40711257
214	0xbf10ee8c	-0.56613994
215	0xbf40b14c	-0.75270534
216	0x3e0a3732	0.13497618
217	0xbfaf22c5	-1.3682486
218	0xbe2897e0	-0.16464186
219	0x3f3923f5	0.7232049
220	0x3f427abc	0.7596853
221	0x3e764bc8	0.24052346
222	0x3e1fa41c	0.15589947
223	0x3ef70424	0.48245347
224	0xbf544411	-0.8291636
225	0xbec0fc70	-0.37692595
226	0x3f33ac92	0.70185196
227	0xbfaa14dd	-1.3287617
228	0x3fbbd4c8	1.4674311
229	0xbf28d4f0	-0.65949917
230	0x3e9c321c	0.3050698
231	0x3e49af98	0.1969589
232	0x3f6a310a	0.9148108
233	0x3d8ab6fe	0.06773184
234	0xbef2f5d1	-0.47453168
235	0xbe96c323	-0.29445753
236	0xbda798c9	-0.08183438
237	0x3e5ecd17	0.21757923
238	0x3e898237	0.2685716
239	0xbe739095	-0.23785622
240	0xbe8c04fe	-0.2734756
241	0xbf2e989b	-0.6820161
242	0xbd1d231e	-0.03836357
243	0xbcdfd8ea	-0.027325112
244	0x3e4e6525	0.20155771
245	0x3e6b4e90	0.22979188
246	0x3f80b875	1.0056292
247	0x3ee43982	0.44575125
248	0xbf40b1ec	-0.7527149
249	0x3ea3a385	0.31960693
250	0xbec58423	-0.38577375
251	0x3eba79db	0.36421093
252	0xbf782a5a	-0.96939623
253	0x3d21958f	0.03944927
254	0x3ed70b38	0.42000747
255	0xbfaf571f	-1.3698462

update_node_embedding_layer_g.0.message_layer.weight f4 [32, 64]
0	0xbeaa6491	-0.3327985
1	0x3f4c063f	0.7969703
2	0xbf85c9e9	-1.0452243
3	0xbe626411	-0.22108485
4	0x3f3fef6c	0.74974704
5	0x3bd2d141	0.0064336364
6	0xbe690138	-0.22754371
7	0xbf9bebd9	-1.218135
8	0x3d6ad0b3	0.057327937
9	0x3eb48524	0.35257828
10	0x3e3eccee	0.18632862
11	0x3dc98ca0	0.09841275
12	0x3e5c553c	0.2151689
13	0xbe63f300	-0.22260666
14	0xbdda400f	-0.106567495
15	0xbec2b279	-0.3802679
16	0x3e9f1b2f	0.31075427
17	0xbf230eae	-0.63694274
18	0xbdb32a25	-0.08748273
19	0xbef93f44	-0.4868108
20	0x3fdbec87	1.7181557
21	0xbf20445d	-0.62604314
22	0xbdaf4446	-0.08557944
23	0x3e44f50c	0.19234103
24	0x3cbad8d0	0.022808462
25	0x3e3e0c72	0.18559435
26	0x3e05c42e	0.13063118
27	0x3d368b69	0.044566546
28	0xbd6875bc	-0.056752905
29	0x3e6f5087	0.23370562
30	0x3e58a16c	0.21155328
31	0x3e7bc419	0.24586524
32	0xbf89785a	-1.0739853
33	0xbed2d610	-0.41178942
34	0x3ee14e25	0.44004932
35	0x3ec677b0	0.3876319
36	0xbe2870b9	-0.1644925
37	0x3f0b33fe	0.5437621
38	0x3eb40469	0.35159615
39	0xbe644ea7	-0.22295628
40	0x3efbce49	0.4918082
41	0xbf8d5c3e	-1.1043775
42	0xbf2f3a61	-0.68448454
43	0x3d9289ae	0.071551666
44	0x3ebfadb8	0.37437224
45	0x3f066a6b	0.5250613
46	0xbe62b525	-0.22139414
47	0xbd8e0583	-0.06934645
48	0xbc59c4db	-0.013291563
49	0xbdd348c6	-0.10316615
50	0xbeb91964	-0.36152184
51	0x3d71ec2e	0.05906313
52	0x3d9a7a45	0.07542852
53	0xbe288819	-0.16458167
54	0xbef0a7bf	-0.4700298
55	0xbc7942d6	-0.015213689
56	0x3eccdea5	0.40013614
57	0x3f15b179	0.58473927
58	0xbe41e767	-0.18935929
59	0xbe1e1027	-0.15435849
60	0x3e9ed730	0.3102355
61	0xbf7011a2	-0.93776906
62	0x3ec5795d	0.38569155
63	0xbee044da	-0.4380253
64	0xbe1c0bc5	-0.15238865
65	0x3dcf945c	0.10135719
66	0x3f12b735	0.573108
67	0xbe005351	-0.12531783
68	0x3f38b94d	0.72157747
69	0xbeaf8a1f	-0.34285066
70	0x3ec26c98	0.37973475
71	0x3f1aa8d7	0.6041388
72	0x3f0a6740	0.54063797
73	0xbf8c00fa	-1.0937798
74	0x3d442d3a	0.047894694
75	0xbf76db82	-0.9642869
76	0xbe8122ae	-0.2522177
77	0xbf09908f	-0.53736204
78	0xbf94eeb7	-1.163535
79	0xbe8c5ab5	-0.27412954
80	0xbf0021e3	-0.5005171
81	0x3d871cd7	0.06597298
82	0xbf4ad486	-0.79230535
83	0x3f81eeff	1.0151061
84	0xbf419ee8	-0.75633097
85	0x3f48ec40	0.7848549
86	0xbed8cff9	-0.4234617
87	0x3e80d947	0.2516577
88	0xbd195c98	-0.03744182
89	0x3e7ce982	0.24698451
90	0x3e254d1d	0.16142698
91	0x3e54ca7e	0.2078037
92	0x3f0d7678	0.55258894
93	0x3f3b01f2	0.73049843
94	0x3e5c63c6	0.21522436
95	0xbf12738b	-0.57207555
96	0xbf678c9d	-0.90448934
97	0xbf3163e8	-0.6929307
98	0xbf40028e	-0.750039
99	0xbfab3a28	-1.3377123
100	0x3e301b16	0.17197832
101	0x3f26b56b	0.6512057
102	0xbe92e021	-0.28686622
103	0x3df2d27a	0.118565515
104	0x3ed04090	0.40674257
105	0x3f0190d2	0.50611603
106	0xbf2721f8	-0.6528621
107	0xbf37bf6e	-0.71776474
108	0xbe55ec40	-0.20890903
109	0xbed090dd	-0.40735522
110	0xbe58b197	-0.21161495
111	0x36d7430a	6.4153037e-06
112	0xbcb2c4e8	-0.021822408
113	0xbfc75943	-1.5574116
114	0xbef3a3c5	-0.47585884
115	0xbf2b73a5	-0.66973335
116	0xbf27216b	-0.65285367
117	0x3f71ef67	0.94505924
118	0x3ed45431	0.41470483
119	0xbe97846e	-0.29593223
120	0xbf447a8a	-0.7674948
121	0xbe0702b7	-0.1318463
122	0xbe4a0da3	-0.19731764
123	0x3e9be59e	0.30448622
124	0x3f4ee374	0.80815816
125	0xbe58888a	-0.21145836
126	0x3e0a119c	0.1348328
127	0x3f97d9a0	1.1863289
128	0x3e30833b	0.1723756
129	0xbf525e66	-0.8217529
130	0xbd08723b	-0.033312064
131	0x3eed5783	0.4635583
132	0xbf8fa0ac	-1.1220908
133	0x3e8ca56b	0.27469954
134	0xbf245324	-0.6418936
135	0xbd7cee16	-0.061750494
136	0x3ea51681	0.32243732
137	0xbeccd1d5	-0.4000384
138	0x3f3c7e66	0.7363037
139	0xbea1e1bd	-0.31617537
140	0xbedf8899	-0.43658903
141	0x3f6ffef6	0.93748415
142	0xbeaf3cf1	-0.34226182
143	0x3dc033fe	0.09384917
144	0xbd97feca	-0.07421644
145	0xbf1c5694	-0.6106961
146	0xbf143d95	-0.57906467
147	0x3cd39ae1	0.025830688
148	0x3e04e72a	0.12978807
149	0xbe9cc63a	-0.30619985
150	0x3ea6037e	0.3242454
151	0xbe952698	-0.29131007
152	0x3fa83259	1.3140365
153	0xbe2bec14	-0.16789275
154	0x3f3616ad	0.7112835
155	0xbfa91313	-1.3208946
156	0x3c29c2c9	0.010361382
157	0x3f98d177	1.1938924
158	0x3f3ae047	0.7299847
159	0x3c8c2ba3	0.017110651
160	0x3f902c18	1.1263456
161	0x3e1fa4ea	0.15590253
162	0xbe887fa5	-0.26659885
163	0x3ef0d32c	0.4703611
164	0xbf05116e	-0.5197972
165	0x3f9b4a33	1.2132019
166	0x3d223770	0.03960365
167	0xbeaf4f11	-0.3424001
168	0xbddcff4c	-0.107908815
169	0xbdd83910	-0.10557759
170	0xbe976405	-0.29568496
171	0xbeefc26a	-0.46828014
172	0x3efeeb7f	0.49789044
173	0x3bc4f17e	0.0060102334
174	0xbcd6b7e4	-0.026210733
175	0x3f5a1e44	0.8520243
176	0x3f7199f9	0.9437557
177	0xbea31c03	-0.3185731
178	0xbf18f8d7	-0.597547
179	0x3e9a866e	0.30180687
180	0xbf1f80af	-0.6230573
181	0x3ed6ab62	0.4192763
182	0x3e760668	0.24025881
183	0x3f27825d	0.65433294
184	0xbf46a43b	-0.77594346
185	0x3e42c08f	0.19018768
186	0xbde0e742	-0.10981609
187	0x3f080f30	0.53148174
188	0x3f821565	1.0162779
189	0x3ec98494	0.39358962
190	0xbd951cc8	-0.0728088
191	0x3f513205	0.8171695
192	0x3e1caa7c	0.1529941
193	0x3f269d7f	0.6508407
194	0xbe4bfa95	-0.19919808
195	0xbf3f9682	-0.7483903
196	0x3e05b8bb	0.1305875
197	0xbea213ab	-0.3165563
198	0xbe1e7a69	-0.15476383
199	0x3e7c9df2	0.24669626
200	0xbe10cf1e	-0.14141509
201	0x3e4940f9	0.19653691
202	0xbf04ec26	-0.51922834
203	0xbf26863a	-0.65048563
204	0xbe37bc1b	-0.1794285
205	0x3e66c6c1	0.22536756
206	0xbe380593	-0.17970876
207	0xbecae793	-0.39629802
208	0xbfb240c2	-1.3926013
209	0x3e111937	0.14169775
210	0xbf0d30fb	-0.55152863
211	0xbd916556	-0.070994064
212	0xbf806063	-1.0029415
213	0xbd8b65e5	-0.06806544
214	0x3e603a80	0.21897316
215	0x3ece9e55	0.40355173
216	0xbee7caf5	-0.4527203
217	0x3f7b6365	0.9819854
218	0x3e0e3142	0.13885978
219	0xbf141580	-0.57845306
220	0xbe26e4bb	-0.16298191
221	0x3e94c687	0.29057714
222	0xbdc11ed3	-0.094297074
223	0x3dbed63d	0.093182065
224	0xbd22b847	-0.03972652
225	0xbe9c1004	-0.3048097
226	0x3e8f196d	0.27949086
227	0xbddcdb6b	-0.10784038
228	0xbf1f526d	-0.62235147
229	0x3ef924de	0.4866094
230	0xbf17c684	-0.59287286
231	0xbeb35621	-0.3502665
232	0xbe9dcd1b	-0.30820546
233	0xbd1e10da	-0.03859029
234	0xbf267a4d	-0.65030366
235	0x3f1eab51	0.6198016
236	0xbe0ebf96	-0.13940272
237	0xbf429074	-0.7600167
238	0x3d2d7648	0.04234913
239	0xbebabf1c	-0.3647393
240	0xbe993f83	-0.29931268
241	0x3ed85c04	0.42257702
242	0x3f3a7a57	0.72842926
243	0xbdb06c06	-0.08614354
244	0xbf5f705d	-0.8728083
245	0xbc155740	-0.00911504
246	0xbed7c375	-0.4214131
247	0x3e94e460	0.29080486
248	0xbf7731fd	-0.9656065
249	0xbf0935c4	-0.53597665
250	0x3f1a8dd1	0.60372645
251	0xbd41dbff	-0.047328945
252	0x3ead7897	0.33881065
253	0x3ee0d84a	0.43915015
254	0xbcb9ab58	-0.02266471
255	0xbee69be3	-0.45040807

update_node_embedding_layer_g.0.update_layer.weight f4 [32, 64]
0	0xbf54a966	-0.8307098
1	0x3e938b0d	0.28817025
2	0x3e440a02	0.19144443
3	0x3d092cd9	0.033490036
4	0x3a386944	0.0007034729
5	0xbf078e04	-0.52951074
6	0xbf2dde87	-0.67917675
7	0xbecd0c4b	-0.4004844
8	0xbeb80ac7	-0.35945722
9	0x3f2ec89d	0.6827486
10	0x3ece98fb	0.4035109
11	0xbf1f32ae	-0.62186706
12	0x3d4fe4bd	0.05075525
13	0xbf6fb603	-0.936371
14	0xbed70246	-0.41993922
15	0x3e771f69	0.24133076
16	0x3e0c133a	0.1367921
17	0xbf2151f0	-0.6301565
18	0x3f35788c	0.70887065
19	0xbefdacf4	-0.49546015
20	0xbf1a4524	-0.6026175
21	0x3ec153c2	0.37759215
22	0x3dd658a4	0.104661256
23	0x3f04929d	0.51786214
24	0x3e65d047	0.22442733
25	0xbf133689	-0.5750509
26	0x3c4d7a87	0.01254142
27	0xbe20d8d0	-0.15707707
28	0x3d5d6cd2	0.054058857
29	0x3f0c48ac	0.5479839
30	0xbced68c2	-0.028980616
31	0xbd87e89e	-0.06636165
32	0x3ec17193	0.37781963
33	0xbe853315	-0.26015535
34	0xbec717e6	-0.3888542
35	0xbef44069	-0.4770539
36	0x3f086a77	0.5328745
37	0xbeb11fff	-0.34594724
38	0x3f0d5c73	0.5521919
39	0xbe3ce898	-0.18448102
40	0xbef7b840	-0.4838276
41	0xbf44d2f1	-0.7688437
42	0xbefbcbbb	-0.49178872
43	0x3e673bd6	0.2258142
44	0x3dee041c	0.116218776
45	0x3edd4dd5	0.43223444
46	0xbf214502	-0.6299592
47	0xbec038af	-0.37543246
48	0x3eb43159	0.351939
49	0xbe85083a	-0.2598284
50	0xbf2f5cd3	-0.68501014
51	0xbebbfbb9	-0.36715487
52	0x3eabcf5e	0.33556646
53	0xbf142fd5	-0.57885486
54	0xbf935c46	-1.1512535
55	0xbf66c213	-0.90139884
56	0x3edae222	0.4275065
57	0x3e7fce43	0.24981026
58	0x3dfd9eda	0.12383814
59	0x3e392e63	0.18084101
60	0x3e757138	0.23968971
61	0x3e8478af	0.25873324
62	0x3f35c1bb	0.70998734
63	0x3ea64489	0.32474163
64	0x3eb0168a	0.34392196
65	0xbdfc8357	-0.123297386
66	0xbf236d87	-0.63839
67	0xbf2a3003	-0.6647951
68	0x3f3a4cb5	0.72773296
69	0x3f11de93	0.56980246
70	0x3d3348fa	0.043770768
71	0x3eefddc1	0.46848872
72	0x3ed0ccd0	0.4078126
73	0xbe188201	-0.14893343
74	0xbdfdb3ac	-0.12387785
75	0x3eb4232c	0.35183084
76	0xbf2809cd	-0.65639955
77	0x3d29e719	0.041480158
78	0x3e57ad14	0.21062118
79	0xbe122625	-0.14272363
80	0x3e50d011	0.20391871
81	0x3e6390e7	0.22223245
82	0x3d2ca482	0.042149074
83	0xbf677c83	-0.90424365
84	0xbef7e384	-0.48415768
85	0x3c30116b	0.01074634
86	0xbc64401e	-0.013931302
87	0x3f2be1fa	0.6714169
88	0xbe7f28c1	-0.2491789
89	0x3e5c551a	0.21516839
90	0xbf1f84da	-0.6231209
91	0x3d9bb6d0	0.07603228
92	0xbe7ac96f	-0.24490903
93	0xbf4d40cd	-0.80177003
94	0x3eafd9b7	0.3434579
95	0x3e4e9a40	0.20176029
96	0x3e0344b4	0.12819177
97	0xbb743b51	-0.00372668
98	0x3e943fbf	0.28954884
99	0x3eb76212	0.3581701
100	0x3ec507d7	0.38482544
101	0xbe9c601f	-0.30542085
102	0x3f2fa7b5	0.68615276
103	0x3f17a9c6	0.5924343
104	0xbdfb3e83	-0.122677825
105	0x3e1179d1	0.14206626
106	0x3e0903f8	0.1338042
107	0x3d082997	0.03324279
108	0x3e22bc59	0.15892161
109	0xbe31e521	-0.17372562
110	0xbe713ae4	-0.23557621
111	0xbbe34be7	-0.0069365385
112	0x3f26c97a	0.6515118
113	0xbf09b396	-0.5378965
114	0x3e376636	0.17910084
115	0x3edfb493	0.43692455
116	0x3f2e6a46	0.6813091
117	0xbef4b9c5	-0.4779798
118	0xbf2e662f	-0.6812467
119	0xbed5c002	-0.41748053
120	0x3f8317a6	1.0241592
121	0x3e8b27f5	0.27178922
122	0xbe6aecb9	-0.22941865
123	0xbf264597	-0.64949936
124	0x3e8c50f5	0.27405515
125	0x3e9510f8	0.2911451
126	0x3e00b2cd	0.12568207
127	0xbe657bb4	-0.2241047
128	0x3fa8a667	1.3175782
129	0x3dc62792	0.09675516
130	0x3e10af2d	0.14129324
131	0xbf14c0aa	-0.5810648
132	0xbc6c8664	-0.014436338
133	0xbf0309df	-0.5118694
134	0x3f22a831	0.6353789
135	0xbf03a73a	-0.5142704
136	0xbe5fd74f	-0.21859477
137	0xbde2123d	-0.11038635
138	0x3f405218	0.75125265
139	0x3e1e6458	0.15467966
140	0xbef34d5d	-0.4751996
141	0x3ed8728c	0.42274892
142	0xbf2d613f	-0.6772651
143	0x3eea171b	0.45720753
144	0xbe5d222c	-0.21595067
145	0xba619630	-0.00086054485
146	0xbee0b612	-0.4388891
147	0xbe076abe	-0.13224313
148	0x3e37b5ca	0.17940441
149	0xbdf1eecc	-0.11813125
150	0xbf55ff4e	-0.8359269
151	0xbf1ad362	-0.60478795
152	0xbeda31a8	-0.4261601
153	0x3e854246	0.26027125
154	0x3ec895d8	0.39176822
155	0xbe982953	-0.29719028
156	0xbe9de8d4	-0.30841696
157	0x3e1d35d9	0.15352573
158	0xbf6e1ae4	-0.9300978
159	0xbe9742cc	-0.2954315
160	0xbec32636	-0.3811509
161	0xbf024db1	-0.508998
162	0xbf19df92	-0.60106766
163	0x3f1fe858	0.62463903
164	0x3f4693e1	0.77569395
165	0x3d2dda9e	0.042444818
166	0xbee21ad1	-0.44161084
167	0xbda706ac	-0.081555694
168	0xbed7208d	-0.42017022
169	0xbe8b37b2	-0.2719093
170	0xbd9c1e28	-0.07622939
171	0xbf4df09c	-0.80445266
172	0x3f1aa253	0.6040394
173	0x395a6a64	0.00020829734
174	0x3f3d083d	0.73840696
175	0x3e919cae	0.2843985
176	0x3f0ace62	0.54221165
177	0xbf1da57d	-0.6158064
178	0x3f2026fd	0.6255949
179	0x3ff5c4f3	1.9200729
180	0x3de481f4	0.11157599
181	0xbf0947ff	-0.5362548
182	0xbf6941ce	-0.91116035
183	0x3ec7769a	0.38957673
184	0xbe1197fd	-0.14218135
185	0x3ea5cb9f	0.32381913
186	0xbef67ca7	-0.48141977
187	0xbe5caa31	-0.21549298
188	0xbf2432d1	-0.6414004
189	0x3e9c16a3	0.3048602
190	0xbea451db	-0.320937
191	0xbf1913c5	-0.5979579
192	0xbf953f64	-1.165997
193	0xbe02689e	-0.12735221
194	0x3f7485a9	0.9551645
195	0xbf0a64c5	-0.5406001
196	0x3f2097cd	0.6273163
197	0x3ebeea60	0.3728819
198	0xbecedf2c	-0.40404642
199	0x3f53a558	0.8267417
200	0x3f749d1c	0.9555223
201	0xbf6768a9	-0.90394074
202	0xbcd1c59f	-0.025606928
203	0x3e96d0ff	0.29456326
204	0x3ed01e8a	0.406483
205	0xbed6435e	-0.41848272
206	0x3da48c85	0.080346145
207	0x3f7a1bb6	0.97698534
208	0xbf3d0217	-0.73831314
209	0x3dedd5e6	0.116130635
210	0xbe101137	-0.14069067
211	0xbf3fd57b	-0.7493512
212	0x3e33089d	0.17483754
213	0xbf6f03e7	-0.9336533
214	0xbef5de3e	-0.4802112
215	0x3e2bd766	0.16781387
216	0xbf274570	-0.6534033
217	0xbef4e1c5	-0.47828498
218	0x3e980e1d	0.29698268
219	0xbf91ddc0	-1.1395798
220	0xbf5ad27b	-0.8547742
221	0x3ea8af41	0.32946208
222	0x3f82a9fb	1.0208124
223	0xbdcb4b12	-0.09926428
224	0x3c42147c	0.011845704
225	0x3f0e40fc	0.5556791
226	0x3f999c51	1.2000829
227	0x3f2f4b2c	0.6847408
228	0xbdea13a0	-0.114295244
229	0x3ddcc1af	0.1077913
230	0xbb0852d6	-0.0020801327
231	0xbe8b7d3d	-0.27243987
232	0x3ec540af	0.38525912
233	0xbf16a0cb	-0.588391
234	0xbe856215	-0.26051393
235	0x3e7cf4a2	0.24702695
236	0x3f1181c7	0.5683865
237	0xbc94ae0a	-0.018149395
238	0xbeb60ad2	-0.3555513
239	0xbe996d3b	-0.2996615
240	0xbf0c27f5	-0.5474847
241	0xbf14ca81	-0.58121496
242	0x3f0e6fa5	0.55639106
243	0xbe08c3b6	-0.13355908
244	0xbd298820	-0.041389585
245	0x3e947151	0.28992704
246	0xbecd81c1	-0.40138057
247	0xbf5c20ad	-0.8598736
248	0xbd1d7390	-0.038440287
249	0x3f127b05	0.5721896
250	0x3f1f5eaf	0.6225385
251	0xbce7bb69	-0.028287606
252	0xbf33f94f	-0.7030229
253	0x3dc19f8e	0.09454261
254	0xbf856624	-1.0421796
255	0xbf1a9bec	-0.6039417

update_node_embedding_layer_g.1.message_layer.weight f4 [32, 64]
0	0xbf759c50	-0.9594164
1	0xbec63b9e	-0.3871736
2	0xbe5e8f90	-0.21734452
3	0xbcdf33e6	-0.027246427
4	0xbf1e18bb	-0.61756486
5	0x3dbe4ea1	0.09292341
6	0xbe81bb4d	-0.25338212
7	0x3f7eac75	0.994819
8	0x3ec02564	0.37528527
9	0xbf82a594	-1.020678
10	0xbefd5fc1	-0.49487117
11	0x3d562c27	0.0522882
12	0xbf8ee37b	-1.1163172
13	0xbd38f6a4	-0.04515709
14	0xbf20a766	-0.6275543
15	0xbdd67bac	-0.10472807
16	0xbe7f947f	-0.2495899
17	0x3ea64c76	0.3248021
18	0x3f0214b9	0.5081287
19	0x3e14dd2c	0.14537495
20	0xbf6a4da7	-0.9152474
21	0xbf1d9a7f	-0.6156387
22	0x3f13aece	0.57688606
23	0xbdb73454	-0.08945528
24	0x3f8267fa	1.0187981
25	0xbf329433	-0.69757384
26	0x3eb617e2	0.35565096
27	0x3dc4f542	0.09617092
28	0x3e3713a8	0.17878592
29	0xbe76dd6b	-0.24107902
30	0x3f194c15	0.59881717
31	0xbd5dbb6e	-0.054133825
32	0xbec7d36c	-0.3902849
33	0x3dba74f6	0.0910434
34	0xbf689b13	-0.90861624
35	0xbf42b268	-0.76053476
36	0x3ed63bc9	0.41842487
37	0xbf3e0d97	-0.74239486
38	0x3ddf2334	0.10895386
39	0xbf11a26f	-0.5688848
40	0xbe68c740	-0.22732258
41	0xbe52e8c2	-0.20596603
42	0xbf4287b6	-0.7598833
43	0x3e32cff6	0.17462143
44	0x3ed43ac4	0.41451085
45	0x3b10c641	0.0022090825
46	0x3e359f4e	0.17736551
47	0xbdc0a359	-0.09406156
48	0xbf3c2783	-0.7349779
49	0x3e35efdf	0.17767285
50	0x3f0daf93	0.5534603
51	0xbea441a7	-0.3208134
52	0xbed704de	-0.419959
53	0xbf8e0979	-1.1096641
54	0xbf10c23f	-0.56546396
55	0xbf00de92	-0.50339615
56	0x3ca6bb1c	0.020352893
57	0x3e717f51	0.23583724
58	0xbf730f18	-0.94944906
59	0xbf53a035	-0.8266633
60	0xbf713e66	-0.9423584
61	0x3ebf426f	0.37355372
62	0x3eec0c9a	0.46103364
63	0xbf76ba53	-0.9637806
64	0x3f321311	0.69560343
65	0xbdbdc780	-0.09266567
66	0x3ebfa1fc	0.37428272
67	0x3e2f967c	0.17147249
68	0xbf74a72e	-0.95567596
69	0x3d59c9b9	0.053170893
70	0x3f3bba1f	0.73330873
71	0xbe9a7bf7	-0.30172703
72	0xbebb6e4a	-0.3660758
73	0xbf1fb886	-0.62390935
74	0x3e09bb0d	0.1345026
75	0xbe3ca718	-0.18423116
76	0xbf2c4424	-0.67291474
77	0xbe4ef7ab	-0.20211665
78	0xbf1bba99	-0.608316
79	0xbf5019a4	-0.81289124
80	0x3ec0cc5c	0.37655914
81	0xbd8f1ed2	-0.069883004
82	0x3f6bd79d	0.92125875
83	0x3e29ad0b	0.16569917
84	0x3e9bee2b	0.30455145
85	0x3e796b75	0.24357398
86	0xbf3adf20	-0.7299671
87	0xbf272213	-0.6528637
88	0x3eb5cf56	0.35509747
89	0xbf42fcb1	-0.76166826
90	0xbebee13e	-0.3728122
91	0x3decf03e	0.1156926
92	0xbe0adaaf	-0.13559984
93	0xbf1e3964	-0.6180632
94	0xbea06548	-0.3132727
95	0x3e808d6b	0.25107893
96	0x3df052d2	0.11734547
97	0x3f57d497	0.8430876
98	0x3f209fb9	0.6274372
99	0xbf0048f7	-0.50111336
100	0x3e4a7ea7	0.19774877
101	0xbe5ca3ea	-0.21546903
102	0x3d1de951	0.038552586
103	0xbeac5d7f	-0.33665082
104	0x3e646429	0.22303833
105	0xbebbf71b	-0.36711964
106	0x3ebc1ea3	0.36742124
107	0x3f3f468d	0.74717027
108	0x3e95e201	0.2927399
109	0xbed04c8f	-0.4068341
110	0x3c908857	0.017643137
111	0xbeedd466	-0.4645111
112	0xbf577217	-0.8415846
113	0x3eba16fe	0.36345667
114	0x3db400d4	0.087892205
115	0xbf1455e7	-0.57943577
116	0x3ee3a812	0.44464165
117	0xbe94fe8f	-0.29100463
118	0xbe9a8f5a	-0.30187494
119	0x3dcab359	0.09897489
120	0xbcbe70ab	-0.023247084
121	0xbf858614	-1.0431542
122	0xbf92b33d	-1.1460949
123	0x3eef373e	0.46721834
124	0xbeb5d590	-0.35514498
125	0x3eb06e92	0.34459358
126	0xbef7bede	-0.48387808
127	0xbf2e352e	-0.68049896
128	0xbf1926b0	-0.5982466
129	0xbf0b97d9	-0.54528576
130	0xbe1bdec7	-0.15221702
131	0x3e5d9c13	0.21641569
132	0xbf09b36c	-0.537894
133	0x3dfdcb57	0.123922996
134	0xbe94818a	-0.2900508
135	0xbde19f1d	-0.110166766
136	0x3f8caf0c	1.099092
137	0x3f09c032	0.5380889
138	0xbf120e5b	-0.57053155
139	0x3f844d11	1.0336019
140	0xbfa14148	-1.2598047
141	0x3eaf5fae	0.34252685
142	0x3cef962c	0.029246412
143	0xbf501531	-0.81282336
144	0xbe2b8860	-0.16751242
145	0x3eae1d20	0.34006596
146	0xbf08121a	-0.5315262
147	0x3e09b1c1	0.13446714
148	0xbf3245d3	-0.69637793
149	0x3e07d585	0.13265045
150	0xbcf92d07	-0.030416979
151	0xbf938f2f	-1.1528071
152	0x3f006aad	0.50162774
153	0x3e07896d	0.13236018
154	0x3f1f84bf	0.6231193
155	0x3ea79f29	0.32738617
156	0x3ee560cd	0.44800416
157	0xbc1fa4de	-0.009743897
158	0xbea2ea20	-0.31819248
159	0x3eb4f8cf	0.35346076
160	0x3f0f8f16	0.56077707
161	0x3f4d4351	0.8018084
162	0x3ea125ca	0.31474143
163	0x3e6e6649	0.23281206
164	0xbf0c2520	-0.5474415
165	0xbed0339d	-0.40664378
166	0xbf632f60	-0.88744164
167	0x3e0d1e77	0.13781153
168	0x3f1d748b	0.61505955
169	0x3f00e7cd	0.503537
170	0x3e6134f9	0.21992864
171	0xbeb6b577	-0.35685322
172	0xbf7413d3	-0.9534275
173	0x3e06eda4	0.1317659
174	0x3df5db28	0.12004691
175	0xbeb041e6	-0.34425277
176	0xbedbdfc2	-0.4294415
177	0xbf89fe04	-1.0780644
178	0xbebf0b2b	-0.37313208
179	0xbef1215b	-0.4709576
180	0x3eb1bdcc	0.34715116
181	0xbef4eaef	-0.4783549
182	0xbf24cc23	-0.6437399
183	0x3eb455a7	0.35221598
184	0x3f10c87a	0.565559
185	0x3eb73205	0.3578035
186	0x3f3b0836	0.73059404
187	0x3e322cae	0.17399856
188	0x3de2c655	0.11072985
189	0x3e9ce82e	0.3064589
190	0x3e746450	0.23866391
191	0xbf4ff304	-0.8123019
192	0x3db24ebd	0.087064244
193	0x3e47e6da	0.19521657
194	0x3f1f4039	0.6220737
195	0xbf865d3b	-1.0497202
196	0x3ebe7699	0.37199858
197	0xbeabd5ca	-0.33561546
198	0xbf348281	-0.70511633
199	0xbd6d53d1	-0.05794126
200	0x3d576e82	0.052595623
201	0xbd99318e	-0.07480155
202	0xbd3d6f67	-0.04624882
203	0xbf3d7207	-0.74002117
204	0x3ec5b3ad	0.38613644
205	0x3e8450db	0.25842938
206	0x3d939e7f	0.07207965
207	0xbc9dc183	-0.019257313
208	0x3f10b829	0.56531006
209	0xbecba272	-0.39772373
210	0x3f07a73c	0.52989554
211	0x3f19c858	0.60071325
212	0x3f090b96	0.53533304
213	0x3f4e0aa6	0.80485
214	0xbf021131	-0.5080748
215	0xbed37879	-0.4130285
216	0x3dc28953	0.09498849
217	0xbe665457	-0.2249311
218	0xbe80b8ba	-0.25140935
219	0x3f1c62f6	0.610885
220	0x3ee295dc	0.4425496
221	0x3dd3e416	0.10346238
222	0xbfa06296	-1.2530086
223	0x3f384fc7	0.7199673
224	0xbfad0609	-1.3517467
225	0xbf542434	-0.8286774
226	0xbe78666d	-0.24257822
227	0x3d87109b	0.06594964
228	0xbf312e82	-0.6921159
229	0xbf287b3d	-0.65813047
230	0x3f659c5e	0.8969172
231	0x3eca45ce	0.39506382
232	0x3d72ff1f	0.059325334
233	0xbf25da2e	-0.6478604
234	0xbf334c5d	-0.70038396
235	0x3f0120fb	0.5044095
236	0xbf34422a	-0.7041346
237	0xbf04e60f	-0.5191354
238	0xbe8aa954	-0.27082312
239	0xbefa9789	-0.48943737
240	0xbf1d8180	-0.61525726
241	0x3ebc4682	0.36772543
242	0xbeb06bd9	-0.3445728
243	0xbf575267	-0.8411011
244	0xbe1ed351	-0.15510298
245	0xbe939399	-0.28823546
246	0xbe8d5769	-0.2760575
247	0x3e70bf48	0.23510468
248	0xbe51620d	-0.2044756
249	0x3ecc5b59	0.39913443
250	0xbf075949	-0.52870613
251	0x3e960b74	0.29305613
252	0x3f14b1af	0.58083624
253	0xbf383e00	-0.71969604
254	0xbe1d0d89	-0.15337195
255	0xbf0feef8	-0.5622401

update_node_embedding_layer_g.1.update_layer.weight f4 [32, 64]
0	0x3eb61fcc	0.35571134
1	0xbf533349	-0.8250013
2	0xbdba7b33	-0.0910553
3	0xbf849c34	-1.036017
4	0x3f2df782	0.6795579
5	0x3f8e64de	1.1124532
6	0x3f5bff6a	0.85936606
7	0x3dc498fa	0.095994905
8	0x3eb2fb4e	0.34957355
9	0xbf513540	-0.8172188
10	0x3da2cc92	0.07949175
11	0xbf747928	-0.9549737
12	0xbe0c8142	-0.13721183
13	0x3f78d80b	0.97204655
14	0xbd9d5b22	-0.07683398
15	0x3e9c511f	0.3053064
16	0x3ee8011d	0.4531335
17	0x3e808eb6	0.2510888
18	0xbdd59e7a	-0.10430618
19	0xbe0ebf6b	-0.13940208
20	0xbeacfe2c	-0.33787668
21	0xbdcaccb2	-0.09902324
22	0x3e757ed3	0.23974161
23	0x3f9545d4	1.1661935
24	0xbe3afecd	-0.18261261
25	0xbf282f53	-0.6569721
26	0x3e771f05	0.24132927
27	0xbd4fb901	-0.050713543
28	0x3dd17722	0.10227801
29	0xbddddf27	-0.108335786
30	0x3f57e05e	0.8432673
31	0xbd945bd2	-0.07244076
32	0x3ece6d96	0.40317982
33	0xbf19845e	-0.599676
34	0x3dd355ce	0.103191
35	0x3e888eca	0.2667144
36	0xbd956743	-0.07295086
37	0xbe2280ed	-0.15869494
38	0x3f3f5d98	0.7475219
39	0xbedd453f	-0.43216893
40	0xbdabeea4	-0.083951265
41	0xbe9ad4b6	-0.3024041
42	0xbeab2653	-0.33427677
43	0x3f21dcbe	0.6322745
44	0x3ec8fe50	0.39256525
45	0xbfa9fc19	-1.3280059
46	0x3e972883	0.29523095
47	0xbe45f1f4	-0.19330579
48	0x3e63306d	0.22186442
49	0x3da93ec1	0.082639225
50	0xbf1ea5df	-0.6197185
51	0xbf0a1a76	-0.53946626
52	0x3eeb394f	0.4594216
53	0x3d2e4692	0.04254777
54	0xbe71e9e8	-0.23624384
55	0x3c3a4bab	0.01137058
56	0xbed9f5bb	-0.4257029
57	0x3e1592da	0.146068
58	0xbf413c65	-0.7548278
59	0x3cdec720	0.02719456
60	0x3f7a21d5	0.97707874
61	0xbe2468b3	-0.16055565
62	0xbf2a8c84	-0.6662066
63	0x3ee32125	0.44361225
64	0x3e751f2d	0.23937674
65	0x3f2c8fbb	0.67406815
66	0xbd3c5c77	-0.04598662
67	0xbf1bd9e4	-0.6087935
68	0xbdfde9e5	-0.123981275
69	0x3f41a3a8	0.75640345
70	0xbe7b91fd	-0.24567409
71	0xbdf2809b	-0.11840936
72	0x3fc2dab3	1.5222992
73	0xbf3fc9de	-0.749174
74	0xbe2a60a1	-0.16638424
75	0x3f33bb99	0.70208126
76	0xbe8f5c53	-0.28000125
77	0xbf8c59b4	-1.0964875
78	0xbf2af9eb	-0.66787595
79	0xbf005f8a	-0.5014578
80	0x3d7ea4e3	0.062168967
81	0x3efcc9b0	0.49372625
82	0xbd5f10ef	-0.05445951
83	0xbe179070	-0.14801192
84	0xbf016094	-0.5053799
85	0x3ea62613	0.32450923
86	0x3dd8826f	0.10571753
87	0xbe5361e3	-0.2064281
88	0xbea4b7e2	-0.3217154
89	0x3ee94d85	0.45566955
90	0x3f237704	0.6385348
91	0xbf3b394f	-0.7313432
92	0x3f147aa5	0.5799964
93	0x3cb976c3	0.022639638
94	0x3f85ba66	1.0447509
95	0xbeba1a6b	-0.3634828
96	0x3f42e525	0.76130897
97	0x3e4fa09e	0.20276114
98	0xbdca2da5	-0.09871987
99	0x3e6a82d2	0.22901466
100	0x3f0cd582	0.5501329
101	0xbe07e417	-0.13270603
102	0x3e00f688	0.12594044
103	0x3f34a9d7	0.70571655
104	0xbf1e3053	-0.61792487
105	0x3f0114bd	0.5042227
106	0xbe608121	-0.21924259
107	0xbeb17127	-0.3465664
108	0xbe84baef	-0.2592387
109	0x3e8d0d58	0.27549243
110	0x3fc20232	1.515692
111	0xbf4bd1ea	-0.7961718
112	0xbdb404bc	-0.087899655
113	0xbf81dcef	-1.0145549
114	0xbe908d9f	-0.28233048
115	0xbf5fea18	-0.87466574
116	0x3f21adcf	0.63155836
117	0xbf36fe40	-0.71481705
118	0xbcb140cd	-0.021637345
119	0x3f587ea9	0.8456827
120	0xbe4da4e0	-0.20082426
121	0x3eb7ac17	0.35873482
122	0x3f2b34c6	0.668774
123	0x3e612ca0	0.2198968
124	0x3e3a2190	0.18176866
125	0xbedd9fdb	-0.43286023
126	0xbd22f3c3	-0.03978325
127	0x3e437284	0.19086653
128	0xbf048257	-0.5176138
129	0xbe6c1a99	-0.23057021
130	0x3eab054f	0.33402488
131	0xbf01b871	-0.5067206
132	0xbeb6f9ab	-0.35737357
133	0xbf49e6cc	-0.78867793
134	0x3f32b3bf	0.6980552
135	0x3e6af97f	0.22946738
136	0x3d5050f7	0.050858464
137	0x3f0b27a9	0.5435739
138	0xbee4584a	-0.4459861
139	0x3f011340	0.5042
140	0xbf0e5597	-0.5559935
141	0xbf2dc9e3	-0.6788618
142	0xbe379f51	-0.17931868
143	0xbe8cf0f8	-0.27527595
144	0xbd8b932c	-0.0681518
145	0x3f14975c	0.58043456
146	0x3e1f7465	0.15571745
147	0xbeacd572	-0.33756596
148	0x3ea252ef	0.31703898
149	0xbc0426e8	-0.008065917
150	0xbea4293f	-0.32062718
151	0xbf014d88	-0.5050893
152	0xbe0fd5fe	-0.14046475
153	0xbf0fc426	-0.56158674
154	0xbdcd978a	-0.100386694
155	0xbdc1c5c6	-0.094615504
156	0xbf4084f4	-0.7520287
157	0xbe8fd8d4	-0.28095114
158	0xbe227520	-0.15864992
159	0x3e9edab4	0.31026232
160	0x3d0fde00	0.035123825
161	0x3f62fde9	0.88668686
162	0x3e208f7c	0.15679735
163	0x3cf45e83	0.029830223
164	0x3e70aafc	0.23502725
165	0xbe808494	-0.2510115
166	0x3e319332	0.17341307
167	0xbf002cd8	-0.50068426
168	0xbed42ffe	-0.41442865
169	0xbf4e430f	-0.80571073
170	0xbe0f3a12	-0.13986996
171	0xbdaa42b8	-0.08313507
172	0xbe83930d	-0.25698128
173	0xbe78a1f2	-0.24280527
174	0x3e6ae3b2	0.22938421
175	0xbd8b3149	-0.0679651
176	0x3f31700d	0.693116
177	0xbd5e5a2f	-0.054285225
178	0x3f490d4d	0.7853592
179	0x3e6c9f8f	0.23107742
180	0xbe30cec7	-0.1726638
181	0x3f2a1b52	0.6644794
182	0x3ef21bfb	0.47286972
183	0xbf908ed3	-1.1293586
184	0xbed646bf	-0.4185085
185	0xbf832de4	-1.024838
186	0xbdddb53c	-0.10825583
187	0x3c2ea8f5	0.0106604
188	0xbe154d7b	-0.14580338
189	0x3e87acf8	0.26499152
190	0x3d998684	0.0749636
191	0x3e958409	0.29202297
192	0xbf1316a4	-0.5745642
193	0x3f069563	0.52571696
194	0x3d977172	0.07394685
195	0xbdc2a4a3	-0.09504058
196	0xbeaf9ee3	-0.34300908
197	0xbf31458f	-0.69246763
198	0xbe368fd5	-0.17828305
199	0x3f36e0fe	0.7143706
200	0xbeb11c48	-0.3459189
201	0xbeb04c57	-0.34433243
202	0x3e266bd9	0.16252078
203	0x3e9033e0	0.28164577
204	0x3f3babf1	0.73309237
205	0xbe9be394	-0.30447066
206	0xbd99ca9b	-0.07509347
207	0x3f390074	0.72266316
208	0xbe88a0c3	-0.2668515
209	0xbec7972a	-0.38982517
210	0xbebe882b	-0.37213263
211	0xbd0f6088	-0.03500417
212	0xbd6fecc3	-0.058575403
213	0xbf569abf	-0.83829874
214	0xbf5e1733	-0.8675415
215	0xbec1a5e2	-0.3782187
216	0x3f5de8bb	0.86683244
217	0x3d2546bb	0.040350657
218	0x3e9189a7	0.28425333
219	0x3de46a50	0.1115309
220	0xbf607b8c	-0.8768852
221	0xbe84bd8b	-0.2592586
222	0xbd9d3574	-0.07676211
223	0xbe35772b	-0.1772124
224	0xbe3fda8c	-0.18735713
225	0xbe26d2e3	-0.16291384
226	0x3e5a785e	0.21334979
227	0x3da4ae8e	0.08041106
228	0x3e89a3ea	0.2688287
229	0xbe8124fb	-0.25223526
230	0x3f06785e	0.52527416
231	0x3e22ef8c	0.15911692
232	0x3db51e23	0.08843639
233	0x3ef793cb	0.48354945
234	0xbf03395a	-0.51259387
235	0xbf0d783d	-0.55261594
236	0x3dd1550a	0.10221298
237	0xbea4589d	-0.32098857
238	0xbe8631dc	-0.26209915
239	0x3f070bc9	0.5275236
240	0x3df38bc6	0.11891894
241	0x3ea518ff	0.32245633
242	0x3ede5bd5	0.43429437
243	0x3f087ea1	0.5331822
244	0x3ef8478e	0.48492092
245	0xbf34ebcd	-0.70672303
246	0x3f35c2d7	0.71000427
247	0xbe42b587	-0.1901456
248	0xbe2d410f	-0.16919349
249	0xbd8807be	-0.06642102
250	0xbda2f288	-0.079564154
251	0xbefebd83	-0.4975396
252	0x3e441db1	0.19151951
253	0xbf3a7720	-0.7283802
254	0x3f041f3a	0.5161015
255	0xbec8b07f	-0.39197156
