experiments/GBMLGG_100/train/GBMLGG_100/s2v/network/network_best.pth (torch_old, 87608 bytes, 17 tensors)

node_init_embedding_layer_g.0.weight f4 [32, 2]
-0.75743866 -0.0031959082 0.71242785 -0.9680332 -0.12228673 0.41536516 0.93370515 -0.017097391
-0.47108474 0.5236378 0.49383113 0.023809433 0.6834565 -0.02674167 0.011125364 0.85131925
-0.43795994 0.1683963 1.369486 0.16319202 -0.17753184 -0.060414936 0.8167035 -1.0849879
0.21119821 -0.93799686 -0.10553999 -0.02095842 -1.056304 -0.09425077 0.16872536 0.3299601
-0.54825604 0.624202 0.024738912 0.02545122 -0.2404518 -0.5728278 -0.76399535 0.43926713
0.022531193 -0.48847345 -0.575764 -0.08394438 -0.19685085 -0.06735158 -0.7112181 -0.004680259
0.5986308 -1.298347 0.20267473 0.11449506 0.45013386 -0.1378047 -1.2447382 0.17797272
0.11348306 0.03224866 0.007266782 -0.1276278 0.41874257 0.12498573 -0.058822937 -0.0068356516
00000000: 80e7 41bf 7172 51bb ac61 363f 06d1 77bf
00000010: 7771 fabd beaa d43e 4d07 6f3f d40f 8cbc
00000020: 0532 f1be 200d 063f 6fd7 fc3e 000c c33c
00000030: 01f7 2e3f 5911 dbbc 2947 363c 0ff0 593f
00000040: 493c e0be 1470 2c3e 514b af3f cf1b 273e
00000050: e8ca 35be a775 77bd 7b13 513f e2e0 8abf
00000060: 5844 583e 9020 70bf 5a25 d8bd feb0 abbc
00000070: f834 87bf 8c06 c1bd 57c6 2c3e 88f0 a83e
00000080: 825a 0cbf b4cb 1f3f 42a9 ca3c 147f d03c
00000090: ff38 76be d8a4 12bf 3395 43bf 9fe7 e03e
000000a0: 5693 b83c 3119 fabe 4565 13bf 08eb abbd
000000b0: 4593 49be a0ef 89bd 6412 36bf dc5c 99bb
000000c0: de3f 193f 3c30 a6bf f789 4f3e 637c ea3d
000000d0: f277 e63e ad1c 0dbe 9553 9fbf 7b3e 363e
000000e0: ce69 e83d 2c17 043d 301e ee3b ddb0 02be
000000f0: 6d65 d63e 85f8 ff3d 52f0 70bd 9afd dfbb

node_init_embedding_layer_p.0.weight f4 [32, 1]
-0.23542835 -0.27778438 0.13525438 -0.4236863 -0.056074504 -0.05794674 -0.009748177 1.1043084
-0.33931577 -0.23223357 -0.38809833 -0.17536838 -0.43497062 -0.0058450373 -0.002368881 0.9063671
0.16308473 0.43611562 -0.56300247 0.14373161 0.19602267 -0.0052867695 -0.69230026 -0.04508317
0.1538601 -0.55381507 0.70949525 0.7363284 0.5288095 -0.3681091 0.034278404 -0.038321722
00000000: 2114 71be c139 8ebe 2080 0a3e 69ed d8be
00000010: 61ae 65bd 9059 6dbd d1b6 1fbc fa59 8d3f
00000020: ccba adbe a3ce 6dbe d3b4 c6be c593 33be
00000030: 78b4 debe ba87 bfbb 3a3f 1bbb ad07 683f
00000040: afff 263e 8c4a df3e ee20 10bf 612e 133e
00000050: 2bba 483e a33c adbb 973a 31bf 21a9 38bd
00000060: 818d 1d3e d3c6 0dbf 7ba1 353f 0580 3c3f
00000070: 0f60 073f cc78 bcbe 8367 0c3d 3df7 1cbd

edge_embedding_layer_g.edge_embedding_NN.weight f4 [31, 1]
-0.47274733 0.35901803 -0.4683493 -0.6533548 0.3431054 -0.41619417 0.15960987 -0.005706541
-0.5228042 -0.17243387 0.24519537 0.22459769 -0.7517091 -0.5373524 0.37001404 -0.30385587
0.28917047 -0.20886357 -0.5960719 0.15585245 -0.00936628 -0.44719622 0.3663807 -0.14047045
-0.16190597 -0.32040024 -0.002044158 0.67354774 -0.5410727 -0.6745824 0.3511211
00000000: f00b f2be 36d1 b73e 7bcb efbe 4342 27bf
00000010: 83ab af3e 6717 d5be c570 233e effd babb
00000020: 7fd6 05bf 8192 30be 7f14 7b3e f0fc 653e
00000030: 0270 40bf ed8f 09bf 7b72 bd3e ff92 9bbe
00000040: 270e 943e 55e0 55be 2b98 18bf c997 1f3e
00000050: 0775 19bc e7f6 e4be 4096 bb3e 7cd7 0fbe
00000060: aeca 25be 800b a4be 48f7 05bb a06d 2c3f
00000070: be83 0abf 6fb1 2cbf 25c6 b33e

edge_embedding_layer_g.edge_feature_NN.weight f4 [32, 32]
-0.19650789 0.6700642 -1.2839496 1.138182 -0.7203529 0.48238435 -0.029343028 0.035198823
-0.15225194 -0.050590158 -0.6710504 -0.54086757 0.24721947 -0.899665 0.4791492 0.40407526
-0.37882125 -0.17378186 0.13119252 -1.0420877 0.55934113 -0.79175496 -0.09099707 0.23894376
0.52919954 -0.65700793 -0.39130563 -0.5938538 -0.68185157 -0.11887052 -0.31132117 0.12359151
0.08680761 0.026500018 0.12588072 0.03508139 0.037137646 -0.9576194 -0.25442106 0.5863681
-0.025783334 0.5105505 0.44857046 0.71172655 -0.10511441 -0.27765444 -0.44561934 0.5045967
-1.030969 -1.0604659 0.011471116 -0.04810934 0.68359685 0.09382478 -0.5166222 0.0753512
-0.00012010492 0.16898853 0.34941337 0.0046041566 -0.0824397 -0.3598504 -1.0057749 0.23002179
0.74965817 -1.1828797 -0.43097833 -0.1982571 -0.65466774 -0.1675413 0.0403357 0.3516781
0.39200044 -0.3730031 -0.8853574 0.1219288 0.41156635 0.55610836 -0.034981053 -0.6458401
0.37665877 -0.6044065 -0.25180876 0.30508742 0.12266128 -0.042376474 -0.45273858 -0.77774847
-0.6264384 -0.064874545 0.4202185 0.68999404 0.20467691 -0.34601268 0.6094231 -0.21284917
-0.02590814 -0.45090106 -0.48930287 -0.52077955 -0.49756378 -0.7222905 1.167 -0.22967228
0.17812866 -0.11601375 0.52329075 -0.59535336 0.6081127 -0.07084803 -0.1341539 -0.20236209
-0.47072843 0.6531968 0.24799833 -0.40605417 -0.58949375 -0.14647056 0.05168195 -0.3637478
-0.053012438 0.17248128 0.46508175 -0.826815 -0.16485211 -0.3557751 0.2916388 0.7363828
-0.14317743 0.22610362 -0.508904 0.04623286 -0.55192775 0.95643014 -0.37936756 -0.027960472
-0.70384604 0.3212848 0.29404625 -0.6123777 -0.24453102 0.74999654 0.015710281 0.18271855
-0.64833146 0.5683386 -0.04256448 0.39550188 0.05466315 -0.39048186 0.98994344 -0.25460887
0.28912064 0.40969396 -0.5301553 -0.62305087 0.06151565 0.0059639243 -0.6543981 0.5038554
0.7344882 0.06718533 -0.6482317 0.63977194 -1.2315859 0.3076848 -0.2788476 0.2514942
0.4757399 -0.8609191 -0.65684414 -0.83612865 0.57235396 0.10413448 -0.23750857 -0.95079964
0.1804398 0.6469501 0.8726262 0.33869627 0.9010383 -0.16940422 0.2547621 0.7537517
0.09761662 0.4953821 -1.3481393 -0.6662416 -0.18532515 0.48454854 -0.15260218 0.16054027
-0.111121096 0.56255144 0.30167764 -0.3094097 0.294699 0.5711363 -0.61929154 -0.73401284
0.98742515 0.2835259 0.34902397 -0.7639724 0.69255906 0.21269582 -0.3485052 0.31893712
-0.5482329 0.2387949 0.23955348 0.18159448 -0.14092089 -0.13150364 0.040455263 -0.110605925
-0.77350867 -0.6489894 -0.77779806 -0.99176806 -0.2826112 0.41208053 -0.21915737 0.21904251
-0.44543985 -0.8891379 -0.30839062 -0.70833004 0.13423687 -0.4600021 -0.3243943 -0.5825246
-0.115582876 0.4306325 -0.13303542 -1.1859561 0.62075967 -0.6741188 0.25076458 0.4519799
-0.24414669 0.36912632 0.9152695 -0.242387 -0.22387463 0.8179727 0.49174502 -0.27627835
-0.036960687 -1.0580468 0.020014137 0.49626178 0.089147314 -0.033590723 -0.5788494 0.038517267
00000000: 5d39 49be 5489 2b3f 7658 a4bf f3af 913f
00000010: 0c69 38bf 15fb f63e ca60 f0bc a42c 103d
00000020: efe7 1bbe a037 4fbd f6c9 2bbf 4c76 0abf
00000030: 1a27 7d3e 7250 66bf 0b53 f53e f4e2 ce3e
00000040: dcf4 c1be dff3 31be 5557 063e 2163 85bf
00000050: fb30 0f3f 74b0 4abf ac5c babd acad 743e
00000060: 9f79 073f ac31 28bf 3659 c8be cd06 18bf
00000070: d38d 2ebf 6372 f3bd 7d65 9fbe 8c1d fd3d
00000080: 30c8 b13d 9116 d93c e0e6 003e 81b1 0f3d
00000090: a51d 183d 8c26 75bf 7a43 82be 381c 163f
000000a0: 9237 d3bc 70b3 023f 07ab e53e b633 363f
000000b0: 3946 d7bd b928 8ebe 3828 e4be 402d 013f
000000c0: cbf6 83bf 59bd 87bf 59f1 3b3c 4d0e 45bd
000000d0: 3400 2f3f 3527 c03d 5a41 04bf bb51 9a3d
000000e0: d7e0 fbb8 540b 2d3e 4fe6 b23e 77de 963b
000000f0: 25d6 a8bd 503e b8be 3bbd 80bf d58a 6b3e
00000100: 99e9 3f3f 9a68 97bf 31a9 dcbe e903 4bbe
00000110: 4e98 27bf f28f 2bbe 0c37 253d 270f b43e
00000120: 48b4 c83e 43fa bebe c8a6 62bf cfb5 f93d
00000130: d3b8 d23e 1e5d 0e3f 4b48 0fbd c755 25bf
00000140: 6bd9 c03e 62ba 1abf 14ed 80be 6b34 9c3e
00000150: d635 fb3d f492 2dbd 5acd e7be 861a 47bf
00000160: 445e 20bf f2dc 84bd e126 d73e 73a3 303f
00000170: d396 513e 9328 b1be 2703 1c3f 22f5 59be
00000180: 4f3d d4bc 81dc e6be e885 fabe cf51 05bf
00000190: aec0 febe 08e8 38bf 4260 953f 362f 6bbe
000001a0: 5c67 363e 9e98 edbd 62f6 053f 1469 18bf
000001b0: 46ad 1b3f c618 91bd a45f 09be 0238 4fbe
000001c0: 5103 f1be e837 273f 46f3 7d3e 55e6 cfbe
000001d0: 10e9 16bf 61fc 15be 74b0 533d 273d babe
000001e0: 9223 59bd ef9e 303e 321f ee3e 26aa 53bf
000001f0: fece 28be 2728 b6be ae51 953e 9583 3c3f
00000200: 1b9d 12be b587 673e 8847 02bf ab5e 3d3d
00000210: 234b 0dbf 9bd8 743f 773c c2be 5c0d e5bc
00000220: 412f 34bf 717f a43e 3b8d 963e c9c4 1cbf
00000230: 5766 7abe c6ff 3f3f d9b2 803c 921a 3b3e
00000240: 0df9 25bf a37e 113f 1858 2ebd 397f ca3e
00000250: 78e6 5f3d 3ded c7be ef6c 7d3f 185c 82be
00000260: 9f07 943e 68c3 d13e 42b8 07bf 4380 1fbf
00000270: d6f7 7b3d 066d c33b a286 27bf abfc 003f
00000280: 6b07 3c3f 7698 893d 83f2 25bf 18c8 233f
00000290: 9ba4 9dbf dd88 9d3e 1dc5 8ebe d9c3 803e
000002a0: 2e94 f33e 3265 5cbf f026 28bf 870c 56bf
000002b0: ca85 123f 7544 d53d 7235 73be 9b67 73bf
000002c0: 36c5 383e 869e 253f 6e64 5f3f 9969 ad3e
000002d0: 72aa 663f 4d78 2dbe 2e70 823e dff5 403f
000002e0: 39eb c73d b9a2 fd3e d48f acbf cf8e 2abf
000002f0: e0c5 3dbe bf16 f83e bf43 1cbe ab64 243e
00000300: 7593 e3bd 5f03 103f 7e75 9a3e f36a 9ebe
00000310: cae2 963e fd35 123f e489 1ebf 44e8 3bbf
00000320: e5c7 7c3f 4f2a 913e 45b3 b23e b293 43bf
00000330: 8d4b 313f efcc 593e 466f b2be ba4b a33e
00000340: fe58 0cbf a686 743e 824d 753e e7f3 393e
00000350: 914d 10be e4a8 06be 6bb4 253d 5c85 e2bd
00000360: aa04 46bf 2b24 26bf c61d 47bf 83e4 7dbf
00000370: 6ab2 90be 38fc d23e ca6a 60be ae4c 603e
00000380: b110 e4be 8b9e 63bf 60e5 9dbe 1e55 35bf
00000390: 6475 093e 6585 ebbe 0217 a6be 5520 15bf
000003a0: b7b6 ecbd dd7b dc3e 703a 08be 69cd 97bf
000003b0: 1bea 1e3f 0d93 2cbf 3764 803e e969 e73e
000003c0: 9701 7abe 20fe bc3e 1a4f 6a3f 4c34 78be
000003d0: 643f 65be a966 513f 01c6 fb3e 5b74 8dbe
000003e0: 1764 17bd 146e 87bf b0f4 a33c 0616 fe3e
000003f0: de92 b63d 6d96 09bd 792f 14bf 48c4 1d3d

edge_embedding_layer_p.edge_embedding_NN.weight f4 [31, 2]
0.22725254 -0.45854273 0.5269459 -1.130603 0.3448899 0.373506 -0.050118346 -0.54322016
0.49589372 0.45721188 -0.48216277 0.56687146 0.5842716 -0.39688194 -0.39977834 0.98286676
0.31035307 -0.6836624 -0.60786396 -0.8641893 -0.2345796 0.22502969 0.8513458 0.17191546
-1.0718244 -0.86279804 -0.049632743 -0.92036575 0.2049278 -0.019884396 -0.08004539 -0.45851898
0.35844705 -0.78133416 0.4437229 0.04077713 -0.0042913943 -0.11482403 -0.40428397 -0.4617068
0.65236986 -1.4198694 -0.15045206 -0.991183 -0.07197479 -0.27332735 0.76126057 -0.018554198
-0.07143243 -0.35717362 0.028000811 -0.14111881 -0.47266138 0.5106625 0.0030380625 -0.053262282
-0.39436674 -0.23673013 -0.18699528 -0.0024943536 -0.44278938 -0.21804246
00000000: e4b4 683e 1dc6 eabe ede5 063f 99b7 90bf
00000010: 6995 b03e 2e3c bf3e e548 4dbd 7a10 0bbf
00000020: c8e5 fd3e ad17 ea3e 0ade f6be 7d1e 113f
00000030: d392 153f 1c34 cbbe bfaf ccbe 289d 7b3f
00000040: 99e6 9e3e 8004 2fbf f99c 1bbf 833b 5dbf
00000050: a235 70be 2f6e 663e ccf1 593f 9b0a 303e
00000060: 8b31 89bf 55e0 5cbf b44b 4bbd 179d 6bbf
00000070: 98d8 513e 9ae4 a2bc d6ee a3bd 00c3 eabe
00000080: 5f86 b73e 8405 48bf a62f e33e eb05 273d
00000090: d39e 8cbb dc28 ebbd 4ffe cebe d564 ecbe
000000a0: b601 273f 48be b5bf 1b10 1abe 2bbe 7dbf
000000b0: 8567 93bd 90f1 8bbe f9e1 423f f9fe 97bc
000000c0: 2a4b 92bd 76df b6be f561 e53c 7381 10be
000000d0: ac00 f2be c7ba 023f 3b1a 473b 8d29 5abd
000000e0: 70ea c9be 6269 72be b17b 3fbe 4f78 23bb
000000f0: 4ab5 e2be 8646 5fbe

edge_embedding_layer_p.edge_feature_NN.weight f4 [32, 32]
0.8532391 -0.34129903 0.8816128 0.32516104 -0.07628087 -0.49543568 -0.7896931 0.116569735
-0.52048665 0.9897353 0.10517597 -0.7074691 -0.17480747 -0.1679435 -0.40769738 0.48099282
-0.114418834 0.42969996 -0.17443614 -0.1689495 0.23460853 -0.30771178 -0.019034656 0.17901285
-0.032950763 -0.50687855 -0.14298631 -0.8479704 0.61732763 -0.32835186 0.26695368 -1.0192311
-0.16772854 -3.3681543 0.4672235 -1.1568896 0.46711624 0.50518304 -0.26674083 -0.06420536
-2.51652 -0.5807476 -0.14462434 -0.5954848 -0.31808054 0.60200053 0.737301 0.12141943
-1.9125705 0.967611 -1.2200776 0.32444757 -2.207157 0.4139909 -0.5238029 -0.49053463
0.8098946 0.7072244 0.25905827 0.7450731 -0.39950186 -0.16138494 0.22405791 -0.28485665
-1.2586315 -2.1303606 -0.48469052 1.2316369 -0.18755682 -0.52778095 -1.6341031 -0.0332288
-0.3863352 0.21114449 0.07686803 0.3371573 -0.29342976 -0.4403545 -0.24647826 0.5001916
-0.62352926 0.054765917 0.23164903 0.07361032 -0.977746 0.6150303 0.41189423 -1.8861902
-0.62996066 -0.475541 -0.12001623 0.1428043 0.716025 -0.33491132 0.39132452 0.2082424
-0.6036287 -0.2290096 -0.54103535 0.9255409 -0.8564561 -0.70553 -0.59911186 -0.17913455
0.22229777 -0.034628868 -0.18561476 -0.22359817 -0.5816851 0.95784485 0.026693135 -0.4749531
-1.2898978 -0.41152456 -0.4808007 0.9765604 0.3644415 0.40748703 -0.21713169 0.01774419
0.47861126 0.28391543 0.56803966 0.119524226 0.29334342 0.58359075 -0.50787544 -0.028293822
0.14325343 -0.47755915 0.5909215 -0.43779078 0.63444614 -0.19593446 -0.10514017 -0.7221801
-0.46823746 -0.6461555 0.13513747 0.6882855 -0.4613571 -0.25667205 -0.4631992 0.28907326
-0.11550254 1.0130548 -0.77014023 0.1310803 -2.0919309 0.026457956 -0.16370484 0.18598017
0.57027346 -0.7241013 0.16482525 0.27283034 0.0723296 0.24508911 0.26944193 -0.111745425
0.23799735 -0.61603177 -0.06801614 1.02923 1.0200411 -0.05263647 0.34864077 0.098938175
-0.049726088 -0.28763974 -0.35415366 -0.33354226 0.5770446 0.5453711 -0.057437833 0.45304587
-0.5401623 0.47638154 -0.3611733 -0.35698602 -1.2749097 0.34675184 0.6714159 -0.10770216
0.013138426 0.6292242 0.12925526 -0.2985968 -0.06712794 -0.3524429 -0.0631504 -0.05852351
-0.38783357 -1.2700238 0.008571218 -0.3567243 -0.971757 -1.1215832 -1.4267334 -0.0002583049
-1.0987954 0.24923986 0.94326067 -0.657178 0.78157926 -0.56541395 -0.7629361 0.44197324
-0.10298243 -1.1575035 -0.8478029 -0.14184828 -1.1819886 -0.40711257 -0.56613994 -2.2485628
0.13497618 -1.7827728 -0.3127883 0.7232049 0.7596853 0.04282535 0.15589947 0.45693475
-0.9185763 -0.65955544 0.86704594 -1.3287617 1.6185579 -0.75658226 0.3197109 0.267716
0.57643664 0.06773184 -0.4746601 -0.11360974 -0.08183438 0.21757923 0.344806 -0.23785622
-0.48443186 -0.49498102 -0.03836357 -0.027325112 -0.11754964 0.22979188 1.0056292 0.5909068
-0.7527149 0.32223326 -0.5483904 0.36421093 -0.96939623 0.060571898 0.42000747 -1.3798184
00000000: e16d 5a3f bfbe aebe 60b1 613f 827b a63e
00000010: 2539 9cbd bfa9 fdbe 5429 4abf 1dbc ee3d
00000020: 9d3e 05bf 4b5f 7d3f 8066 d73d b21c 35bf
00000030: bb00 33be 62f9 2bbe b6bd d0be b144 f63e
00000040: 6c54 eabd a201 dc3e 639f 32be 1901 2dbe
00000050: 383d 703e 668c 9dbe 91ee 9bbc 254f 373e
00000060: 61f7 06bd cbc2 01bf 016b 12be 9714 59bf
00000070: 2f09 1e3f bc1d a8be 27ae 883e 2a76 82bf
00000080: 08c1 2bbe d78f 57c0 eb37 ef3e f514 94bf
00000090: dc29 ef3e ad53 013f 4192 88be 1a7e 83bd
000000a0: aa0e 21c0 e0ab 14bf 6718 14be b171 18bf
000000b0: 74db a2be b51c 1a3f c2bf 3c3f c0aa f83d
000000c0: 1ccf f4bf 5bb5 773f 812b 9cbf fe1d a63e
000000d0: 0f42 0dc0 9ef6 d33e f217 06bf 5b27 fbbe
000000e0: 4155 4f3f a90c 353f 49a3 843e 1cbd 3e3f
000000f0: 828b ccbe 1842 25be 706f 653e bbd8 91be
00000100: d61a a1bf d457 08c0 5b29 f8be 47a6 9d3f
00000110: e50e 40be a71c 07bf 4a2a d1bf ec1a 08bd
00000120: bacd c5be 4336 583e fc6c 9d3d e29f ac3e
00000130: 6d3c 96be 2576 e1be cc64 7cbe 8f0c 003f
00000140: 9d9f 1fbf 3a52 603d 6735 6d3e 02c1 963d
00000150: 904d 7abf a072 1d3f cde3 d23e ae6e f1bf
00000160: 1a45 21bf 1c7a f3be 12cb f5bd 4a3b 123e
00000170: 6a4d 373f 7f79 abbe b05b c83e 7f3d 553e
00000180: 6987 1abf 7e81 6abe 4b81 0abf 40f0 6c3f
00000190: b540 5bbf 9d9d 34bf 655f 19bf 0c6f 37be
000001a0: 07a2 633e 00d7 0dbd cc11 3ebe ebf6 64be
000001b0: 51e9 14bf 5235 753f 90ab da3c 0d2d f3be
000001c0: 5f1b a5bf 59b3 d2be 822b f6be ddff 793f
000001d0: 1498 ba3e 24a2 d03e c557 5ebe 435c 913c
000001e0: 890c f53e 5d5d 913e 0c6b 113f 1ec9 f43d
000001f0: 1c31 963e 3466 153f 2004 02bf 72c8 e7bc
00000200: 07b1 123e a282 f4be a246 173f 1d26 e0be
00000210: 106b 223f 0ba3 48be bb53 d7bd cce0 38bf
00000220: d2bc efbe 726a 25bf 7a61 0a3e 7b33 303f
00000230: ff36 ecbe 856a 83be 7228 edbe 6901 943e
00000240: 988c ecbd c8ab 813f e927 45bf ea39 063e
00000250: 32e2 05c0 5bbe d83c 3ea2 27be 9671 3e3e
00000260: 71fd 113f b45e 39bf f3c7 283e 6bb0 8b3e
00000270: 8b21 943d a4f8 7a3e 4bf4 893e c9da e4bd
00000280: 94b5 733e 42b4 1dbf 0c4c 8bbd cfbd 833f
00000290: b590 823f 5799 57bd 0b81 b23e 19a0 ca3d
000002a0: 95ad 4bbd 8445 93be a153 b5be 0dc6 aabe
000002b0: 32b9 133f 719d 0b3f ef43 6bbd a1f5 e73e
000002c0: 1448 0abf 48e8 f33e b5eb b8be dfc6 b6be
000002d0: 3e30 a3bf 7589 b13e eae1 2b3f f392 dcbd
000002e0: 8d42 573c d614 213f 7e5b 043e aee1 98be
000002f0: 607a 89bd 6573 b4be ff54 81bd 59b6 6fbd
00000300: 1f92 c6be 2490 a2bf 4b6e 0c3c 91a4 b6be
00000310: 11c5 78bf 0a90 8fbf 339f b6bf 196d 87b9
00000320: 54a5 8cbf bc38 7f3e 8879 713f d13c 28bf
00000330: 9415 483f f8be 10bf c84f 43bf 514a e23e
00000340: 74e8 d2bd 1329 94bf 9c09 59bf ad40 11be
00000350: 674b 97bf 0f71 d0be 8cee 10bf 74e8 0fc0
00000360: 3237 0a3e e631 e4bf ca25 a0be f523 393f
00000370: bc7a 423f a269 2f3d 1ca4 1f3e 5af3 e93e
00000380: d127 6bbf a0d8 28bf b9f6 5d3f dd14 aabf
00000390: e82c cf3f 60af 41bf 26b1 a33e 1212 893e
000003a0: 5a91 133f feb6 8a3d a606 f3be 39ac e8bd
000003b0: c998 a7bd 17cd 5e3e 698a b03e 9590 73be
000003c0: 7407 f8be 276e fdbe 1e23 1dbd ead8 dfbc
000003d0: debd f0bd 904e 6b3e 75b8 803f ab45 173f
000003e0: ecb1 40bf c2fb a43e 5063 0cbf db79 ba3e
000003f0: 5a2a 78bf 3d1a 783d 380b d73e e49d b0bf

update_node_embedding_layer_g.0.message_layer.weight f4 [32, 64]
-0.3327985 0.7969703 -1.0936015 -0.22108485 0.74974704 0.0064336364 -0.28272858 -1.2726744
0.057327937 0.35257828 0.18632862 0.09841275 0.2151689 -0.29713112 -0.15895972 -0.43360734
0.2679949 -0.6881296 -0.08748273 -0.54234946 1.6605082 -0.6906749 -0.08557944 0.19234103
-0.02645555 0.18559435 0.07922467 -0.009138693 -0.099075295 0.23370562 0.14403526 0.24586524
-1.098055 -0.4074366 0.35510665 0.37683034 -0.20117567 0.5048315 0.33236754 -0.22295628
0.46769014 -1.1715063 -0.6994219 0.071551666 0.37437224 0.5250613 -0.22139414 -0.06641044
-0.040129013 -0.10590028 -0.38488713 0.05906313 0.07542852 -0.17968166 -0.4700298 -0.015213689
0.40013614 0.5647837 -0.18935929 -0.15435849 0.33886525 -0.93776906 0.35615495 -0.477653
-0.15238865 0.10135719 0.6831923 -0.12531783 0.72157747 -0.34285066 0.3429301 0.69857883
0.54063797 -1.0937798 0.047894694 -0.9642869 -0.2522177 -0.2429926 -0.8474396 -0.17852163
-0.36085612 0.17881837 -0.79230535 1.0200583 -0.62073046 0.8179566 -0.4234617 0.2516577
0.07603866 0.24698451 0.27437165 0.3035442 0.6522153 0.73049843 0.35797763 -0.57207555
-0.9108615 -0.6929307 -0.741392 -2.0253646 -0.75448406 0.5405012 -0.25897166 0.118565515
-0.31681332 0.48805338 -0.6692603 -0.71776474 -0.20890903 -0.26350307 -0.27316153 6.4153037e-06
-0.18186931 -2.5423527 -0.5598658 -0.66973335 -0.71740174 0.94525826 0.41470483 -0.29593223
-0.6616027 -0.18057567 -0.19731764 0.26234576 0.80815816 -0.38590986 0.12603183 1.0143831
0.1723756 -0.8217529 -0.21824288 0.4635583 -1.1220908 0.27469954 -0.81691694 -0.2559509
0.32243732 -0.4000384 0.7363037 -0.31617537 -0.43658903 0.7710106 -0.5298576 -0.10014719
-0.26482064 -0.80020225 -0.57906467 -0.15733728 -0.055333335 -0.4759482 0.3242454 -0.29131007
1.1172032 -0.16789275 0.51765203 -1.5116394 -0.18444031 1.1938924 0.55135787 0.017110651
0.9797373 0.1082362 -0.3228501 0.4130631 -0.55298334 1.115903 0.036475062 -0.33745182
-0.17177583 -0.4145556 -0.36393696 -0.46828014 0.49789044 0.00355312 -0.026210733 0.83695865
0.85406876 -0.33107924 -0.6501988 0.30180687 -0.6230573 0.38944325 0.24025881 0.65433294
-0.77594346 0.100319445 -0.10981609 0.5316333 1.0062824 0.39358962 -0.051348973 0.6327025
0.1529941 0.6508407 -0.19919808 -0.7483903 0.1305875 -0.3165563 -0.15476383 0.24669626
-0.14141509 0.19653691 -0.51922834 -0.65048563 -0.1794285 0.22536756 -0.17970876 -0.39629802
-1.3926013 0.14169775 -0.55152863 -0.070994064 -1.0029415 -0.06806544 0.21897316 0.40355173
-0.4527203 0.9819854 0.13885978 -0.57845306 -0.16298191 0.29057714 -0.094297074 0.093182065
-0.03972652 -0.3048097 0.27949086 -0.10784038 -0.62235147 0.4866094 -0.59287286 -0.3502665
-0.30820546 -0.03859029 -0.65030366 0.6198016 -0.13940272 -0.7600167 0.04234913 -0.3647393
-0.29931268 0.42257702 0.72842926 -0.08614354 -0.8728083 -0.00911504 -0.4214131 0.29080486
-0.9656065 -0.53597665 0.60372645 -0.047328945 0.33881065 0.43915015 -0.02266471 -0.45040807
00000000: 9164 aabe 3f06 4c3f 22fb 8bbf 1164 62be
00000010: 6cef 3f3f 41d1 d23b cdc1 90be ffe6 a2bf
00000020: b3d0 6a3d 2485 b43e eecc 3e3e a08c c93d
00000030: 3c55 5c3e 9221 98be 56c6 22be c801 debe
00000040: a136 893e 4329 30bf 252a b3bd 6ad7 0abf
00000050: 888b d43f 12d0 30bf 4644 afbd 0cf5 443e
00000060: 4fb9 d8bc 720c 3e3e 8b40 a23d 75ba 15bc
00000070: fde7 cabd 8750 6f3e fb7d 133e 19c4 7b3e
00000080: 118d 8cbf 889b d0be 8ad0 b53e e8ef c03e
00000090: ff00 4ebe a33c 013f 142c aa3e a74e 64be
000000a0: 1575 ef3e ebf3 95bf 500d 33bf ae89 923d
000000b0: b8ad bf3e 6b6a 063f 25b5 62be 3202 88bd
000000c0: 525e 24bd 3fe2 d8bd ed0f c5be 2eec 713d
000000d0: 457a 9a3d 78fe 37be bfa7 f0be d642 79bc
000000e0: a5de cc3e aa95 103f 67e7 41be 2710 1ebe
000000f0: bf7f ad3e a211 70bf f159 b63e ef8e f4be
00000100: c50b 1cbe 5c94 cf3d b1e5 2e3f 5153 00be
00000110: 4db9 383f 1f8a afbe 8994 af3e 10d6 323f
00000120: 4067 0a3f fa00 8cbf 3a2d 443d 82db 76bf
00000130: ae22 81be 0dd3 78be cdf1 58bf 60ce 36be
00000140: 22c2 b8be 2a1c 373e 86d4 4abf 4591 823f
00000150: 31e8 1ebf 9b65 513f f9cf d8be 47d9 803e
00000160: 28ba 9b3d 82e9 7c3e 717a 8c3e 256a 9b3e
00000170: 95f7 263f f201 3b3f d848 b73e 8b73 12bf
00000180: 382e 69bf e863 31bf decb 3dbf 939f 01c0
00000190: de25 41bf 495e 0a3f ef97 84be 7ad2 f23d
000001a0: 5b35 a2be 22e2 f93e a554 2bbf 6ebf 37bf
000001b0: 40ec 55be e0e9 86be d4db 8bbe 0a43 d736
000001c0: f33b 3abe e8b5 22c0 5d53 0fbf a573 2bbf
000001d0: a4a7 37bf 72fc 713f 3154 d43e 6e84 97be
000001e0: cb5e 29bf d4e8 38be a30d 4abe 2f52 863e
000001f0: 74e3 4e3f fa95 c5be 7d0e 013e 4ed7 813f
00000200: 3b83 303e 665e 52bf 107b 5fbe 8357 ed3e
00000210: aca0 8fbf 6ba5 8c3e 7821 51bf ff0b 83be
00000220: 8116 a53e d5d1 ccbe 667e 3c3f bde1 a1be
00000230: 9988 dfbe f360 453f bfa4 07bf f819 cdbd
00000240: 9296 87be 0eda 4cbf 953d 14bf 061d 21be
00000250: 35a5 62bd 7caf f3be 7e03 a63e 9826 95be
00000260: 8400 8f3f 14ec 2bbe d884 043f 667d c1bf
00000270: ecdd 3cbe 77d1 983f ca25 0d3f a32b 8c3c
00000280: 10d0 7a3f f1aa dd3d 9c4c a5be 027d d33e
00000290: 5190 0dbf e9d5 8e3f e066 153d 7cc6 acbe
000002a0: 01e6 2fbe a240 d4be f255 babe 6ac2 efbe
000002b0: 7feb fe3e 76db 683b e4b7 d6bc ec42 563f
000002c0: 40a4 5a3f 3883 a9be 6e73 26bf 6e86 9a3e
000002d0: af80 1fbf 1b65 c73e 6806 763e 5d82 273f
000002e0: 3ba4 46bf 4874 cd3d 42e7 e0bd 1f19 083f
000002f0: ddcd 803f 9484 c93e 4d53 52bd cbf8 213f
00000300: 7caa 1c3e 7f9d 263f 95fa 4bbe 8296 3fbf
00000310: bbb8 053e ab13 a2be 697a 1ebe f29d 7c3e
00000320: 1ecf 10be f940 493e 26ec 04bf 3a86 26bf
00000330: 1bbc 37be c1c6 663e 9305 38be 93e7 cabe
00000340: c240 b2bf 3719 113e fb30 0dbf 5665 91bd
00000350: 6360 80bf e565 8bbd 803a 603e 559e ce3e
00000360: f5ca e7be 6563 7b3f 4231 0e3e 8015 14bf
00000370: bbe4 26be 87c6 943e d31e c1bd 3dd6 be3d
00000380: 47b8 22bd 0410 9cbe 6d19 8f3e 6bdb dcbd
00000390: 6d52 1fbf de24 f93e 84c6 17bf 2156 b3be
000003a0: 1bcd 9dbe da10 1ebd 4d7a 26bf 51ab 1e3f
000003b0: 96bf 0ebe 7490 42bf 4876 2d3d 1cbf babe
000003c0: 833f 99be 045c d83e 577a 3a3f 066c b0bd
000003d0: 5d70 5fbf 4057 15bc 75c3 d7be 60e4 943e
000003e0: fd31 77bf c435 09bf d18d 1a3f ffdb 41bd
000003f0: 9778 ad3e 4ad8 e03e 58ab b9bc e39b e6be

update_node_embedding_layer_g.0.update_layer.weight f4 [32, 64]
-0.8307098 0.28817025 0.19144443 0.033490036 0.0007034729 -0.52951074 -0.67917675 -0.4004844
-0.35945722 0.6827486 0.4035109 -0.62186706 0.05075525 -0.936371 -0.41993922 0.24133076
0.1367921 -0.6301565 0.70887065 -0.49546015 -0.6026175 0.37759215 0.104661256 0.51786214
0.22442733 -0.5750509 0.01254142 -0.15707707 0.054058857 0.5479839 -0.028980616 -0.06636165
0.37781963 -0.26015535 -0.3888542 -0.4770539 0.5328745 -0.34594724 0.5521919 -0.18448102
-0.4838276 -0.7688437 -0.49178872 0.2258142 0.116218776 0.43223444 -0.6299592 -0.37543246
0.351939 -0.2598284 -0.68501014 -0.36715487 0.33556646 -0.57885486 -1.1512535 -0.90139884
0.4275065 0.24981026 0.12383814 0.18084101 0.23968971 0.25873324 0.70998734 0.32474163
0.34392196 -0.09416426 -0.7336352 -0.70886105 0.62814057 0.5612354 -0.029416448 0.37109482
0.3089844 -0.23126072 -0.12387785 0.38072467 -0.65639955 -0.057763457 0.21062118 -0.24243572
0.10534688 0.088405654 0.042149074 -1.0008088 -0.48415768 0.01074634 -0.013931302 0.5988683
-0.2491789 0.110646844 -0.59369344 -0.02804915 -0.36194053 -0.83347625 0.25086623 0.13495007
0.12819177 -0.00372668 0.19613004 0.3581701 0.38482544 -0.33717605 0.68615276 0.5924343
-0.047470517 0.14206626 0.04926752 -0.06423289 0.15892161 -0.17372562 -0.23557621 -0.0069365385
0.6515118 -0.5378965 0.17910084 0.40574586 0.6813091 -0.5764457 -0.76773274 -0.41748053
0.9398982 0.27178922 -0.22941865 -0.64949936 0.27405515 0.2911451 0.12568207 -0.2241047
1.3175782 0.09675516 0.14129324 -0.5810648 -0.014436338 -0.5118694 0.6353789 -0.5142704
-0.21859477 -0.11038635 0.75125265 0.15467966 -0.4751996 0.42274892 -0.6772651 0.45720753
-0.21595067 -0.00086054485 -0.4388891 -0.13224313 0.17940441 -0.11813125 -0.8359269 -0.60478795
-0.4261601 0.26027125 0.39176822 -0.29719028 -0.30841696 0.15352573 -0.9300978 -0.2954315
-0.3811509 -0.508998 -0.60106766 0.62463903 0.77569395 0.042444818 -0.44161084 -0.081555694
-0.42017022 -0.2719093 -0.07622939 -0.80445266 0.6040394 0.00020829734 0.73840696 0.2843985
0.54221165 -0.6158064 0.6255949 1.9200729 0.11157599 -0.5362548 -0.91116035 0.38957673
-0.14218135 0.32381913 -0.48141977 -0.21549298 -0.6414004 0.3048602 -0.320937 -0.5979579
-1.165997 -0.27310535 1.1293663 -0.4033568 0.7460572 0.46398723 -0.2561579 1.0069659
1.0825448 -0.759908 -0.025606928 0.14951457 0.12446763 -0.3052734 0.080346145 1.1455235
-0.5807943 0.0029389013 -0.14069067 -0.58682936 0.17483754 -0.9336533 -0.4802112 0.22358917
-1.2788832 -0.3226608 0.4129184 -0.9692516 -0.6576792 0.3549912 1.1487153 -0.049698934
0.099855505 0.32201794 1.2233052 0.6847408 -0.08598902 0.053427722 -0.0020801327 -0.25440797
0.34381917 -0.5008449 -0.3703921 0.29020882 0.5683865 -0.018149395 -0.3555513 -0.3746107
-0.5164307 -0.5330374 0.55639106 -0.36922005 -0.008784115 0.16221678 -0.29484442 -0.8598736
-0.20443681 0.55924445 0.4378321 -0.028287606 -0.7030229 0.09454261 -1.0269989 -0.6039417
00000000: 66a9 54bf 0d8b 933e 020a 443e d92c 093d
00000010: 4469 383a 048e 07bf 87de 2dbf 4b0c cdbe
00000020: c70a b8be 9dc8 2e3f fb98 ce3e ae32 1fbf
00000030: bde4 4f3d 03b6 6fbf 4602 d7be 691f 773e
00000040: 3a13 0c3e f051 21bf 8c78 353f f4ac fdbe
00000050: 2445 1abf c253 c13e a458 d63d 9d92 043f
00000060: 47d0 653e 8936 13bf 877a 4d3c d0d8 20be
00000070: d26c 5d3d ac48 0c3f c268 edbc 9ee8 87bd
00000080: 9371 c13e 1533 85be e617 c7be 6940 f4be
00000090: 776a 083f ff1f b1be 735c 0d3f 98e8 3cbe
000000a0: 40b8 f7be f1d2 44bf bbcb fbbe d63b 673e
000000b0: 1c04 ee3d d54d dd3e 0245 21bf af38 c0be
000000c0: 5931 b43e 3a08 85be d35c 2fbf b9fb bbbe
000000d0: 5ecf ab3e d52f 14bf 465c 93bf 13c2 66bf
000000e0: 22e2 da3e 43ce 7f3e da9e fd3d 632e 393e
000000f0: 3871 753e af78 843e bbc1 353f 8944 a63e
00000100: 8a16 b03e 31d9 c0bd 84cf 3bbf eb77 35bf
00000110: d2cd 203f 20ad 0f3f c3fa f0bc 2400 be3e
00000120: 3433 9e3e 9ccf 6cbe acb3 fdbd 58ee c23e
00000130: cd09 28bf 6099 6cbd 14ad 573e 1241 78be
00000140: 1bc0 d73d 060e b53d 82a4 2c3d 811a 80bf
00000150: 84e3 f7be 6b11 303c 1e40 64bc 6f4f 193f
00000160: c128 7fbe d09a e23d 4bfc 17bf 55c7 e5bc
00000170: 4550 b9be b35e 55bf 8a71 803e 5a30 0a3e
00000180: b444 033e 513b 74bb 50d6 483e 1262 b73e
00000190: d707 c53e 57a2 acbe b5a7 2f3f c6a9 173f
000001a0: 7270 42bd d179 113e bdcc 493d 898c 83bd
000001b0: 59bc 223e 21e5 31be e43a 71be e74b e3bb
000001c0: 7ac9 263f 96b3 09bf 3666 373e ecbd cf3e
000001d0: 466a 2e3f f291 13bf 228a 44bf 02c0 d5be
000001e0: 2b9d 703f f527 8b3e b9ec 6abe 9745 26bf
000001f0: f550 8c3e f810 953e cdb2 003e b47b 65be
00000200: 67a6 a83f 9227 c63d 2daf 103e aac0 14bf
00000210: 6486 6cbc df09 03bf 31a8 223f 3aa7 03bf
00000220: 4fd7 5fbe 3d12 e2bd 1852 403f 5864 1e3e
00000230: 5d4d f3be 8c72 d83e 3f61 2dbf 1b17 ea3e
00000240: 2c22 5dbe 3096 61ba 12b6 e0be be6a 07be
00000250: cab5 373e ccee f1bd 4eff 55bf 62d3 1abf
00000260: a831 dabe 4642 853e d895 c83e 5329 98be
00000270: d4e8 9dbe d935 1d3e e41a 6ebf cc42 97be
00000280: 3626 c3be b14d 02bf 92df 19bf 58e8 1f3f
00000290: e193 463f 9eda 2d3d d11a e2be ac06 a7bd
000002a0: 8d20 d7be b237 8bbe 281e 9cbd 9cf0 4dbf
000002b0: 53a2 1a3f 646a 5a39 3d08 3d3f ae9c 913e
000002c0: 62ce 0a3f 7da5 1dbf fd26 203f f3c4 f53f
000002d0: f481 e43d ff47 09bf ce41 69bf 9a76 c73e
000002e0: fd97 11be 9fcb a53e a77c f6be 31aa 5cbe
000002f0: d132 24bf a316 9c3e db51 a4be c513 19bf
00000300: 643f 95bf 77d4 8bbe 138f 903f c884 cebe
00000310: 9bfd 3e3f bc8f ed3e 2127 83be 42e4 803f
00000320: d490 8a3f 5589 42bf 9fc5 d1bc 591a 193e
00000330: e3e8 fe3d cc4c 9cbe 858c a43d 84a0 923f
00000340: efae 14bf 959a 403b 3711 10be 733a 16bf
00000350: 9d08 333e e703 6fbf 3ede f5be 8ff4 643e
00000360: 72b2 a3bf cc33 a5be 0a6a d33e df20 78bf
00000370: aa5d 28bf 68c1 b53e 1a09 933f 1c91 4bbd
00000380: 0b81 cc3d 89df a43e 4495 9c3f 2c4b 2f3f
00000390: 031b b0bd 07d7 5a3d d652 08bb c341 82be
000003a0: 1109 b03e 5f37 00bf 09a4 bdbe 4096 943e
000003b0: c781 113f 0aae 94bc d20a b6be f9cc bfbe
000003c0: cd34 04bf 2475 08bf a56f 0e3f 690a bdbe
000003d0: 40eb 0fbc 281c 263e d9f5 96be ad20 5cbf
000003e0: e257 51be a52a 0f3f 872b e03e 69bb e7bc
000003f0: 4ff9 33bf 8e9f c13d b374 83bf ec9b 1abf

update_node_embedding_layer_g.1.message_layer.weight f4 [32, 64]
-1.2091955 -0.15103231 -0.21681136 -0.3931816 -0.5601013 0.05773924 -0.26506984 1.3012066
0.540687 -0.9638483 -0.6394379 0.13517798 -1.0946726 -0.086370505 -0.61968887 -0.6602891
-0.42733282 0.29342815 0.5361957 0.21878575 -0.8158542 -0.8854353 0.5196622 0.11914134
1.0173798 -1.5102584 0.18760711 -0.2444303 0.18172993 -0.39857018 0.6264103 0.046600666
-0.36169532 0.35497963 -0.7372465 -0.6768006 0.46693727 -0.7152244 0.2042141 -0.5833988
-0.12477815 -0.10707964 -0.69314635 0.17462143 0.41451085 0.025312303 0.18262433 0.05112208
-0.5912178 0.08386559 0.48535034 -0.3208134 -0.42706287 -1.1010149 -0.56546396 -0.50339615
0.07662762 0.25695762 -0.94944906 -0.7141939 -0.73997295 0.47616088 0.456553 -0.78021234
0.3585481 0.16075169 0.05601755 0.8705824 -0.9421748 0.23758891 0.56929624 0.15574339
-0.49732155 -0.5736386 0.34366864 -0.4793397 -0.67291474 -0.24631199 -0.6176662 -1.7415015
0.9701827 -0.1473823 0.91244334 0.01534366 0.5107558 0.28469703 -0.7150425 -0.033102512
0.21933714 -1.3373938 -0.24543574 0.9645502 -0.22063592 -0.36835334 -0.59738123 -0.10255312
0.057578746 0.86561424 0.54065824 -1.5409116 -0.64237225 -0.35495684 -0.041425146 -0.33831427
-0.6742967 -0.5795963 -0.16529949 0.74717027 0.2927399 -0.64534193 0.07363915 -0.59867376
-1.1152952 -0.8215882 -0.09827951 -0.57943577 0.4051069 -0.44527972 -0.30187494 0.09897489
-0.04490386 -1.4651947 -1.1460949 0.4667596 -0.43670124 0.3182126 -0.5114317 -0.7983257
-1.6145597 -3.8984358 -0.28980404 -1.2010492 -0.53575706 0.27225313 -0.26291764 -0.6810055
1.0952859 0.5202459 -0.55951333 0.85108054 -1.2598047 0.32881552 -0.14948606 -0.87943506
-0.25989532 0.30731836 -0.5848366 0.06999483 -1.1135302 0.13139938 -0.100003675 -2.2833638
0.2965207 0.18027501 0.75422764 0.12392588 0.45963967 -0.08262378 -0.46502307 0.4579152
0.5479337 0.7973125 0.4172209 -0.69370013 -1.4969041 -0.45139474 -0.87147105 0.15107003
-0.30965194 0.397128 0.033936694 -0.35685322 -0.9534275 0.1667118 0.12731746 -0.20011544
-0.38392696 -1.6731137 -0.37778553 -0.4709576 0.30133548 -0.37652597 -0.6437399 0.35221598
0.56300956 0.16147615 0.73059404 0.22023837 0.21122093 0.23100597 0.20445554 -0.7887519
0.19313641 0.7671792 0.2899838 -0.90350085 0.39527068 -0.3953045 -1.195033 -0.0133462995
0.037204675 -0.08300548 -0.021775313 -1.7747113 0.3987295 -0.72037935 -0.04597478 0.3115356
1.0108773 -1.4869874 0.603258 0.4944904 1.3655576 0.5761423 -0.31193995 0.07109488
-0.3857544 -0.31956393 0.04957763 0.7379882 -0.12972164 0.22082913 -2.2792706 -0.64675295
-1.4937178 -1.6610031 -0.17693807 0.040023454 -0.66891885 -0.7513528 0.43876863 0.33822536
0.015767915 -0.6690426 -0.45801038 0.5044095 -0.7041346 -0.6090595 -0.239389 -1.1203398
-0.83913034 0.34804368 -0.8289499 -0.8411011 -0.10159633 -0.45629075 -0.2760575 0.23510468
-0.17952195 0.47257656 -0.52870613 0.30641884 0.15064424 -0.5991395 -0.056828182 -0.55631906
00000000: ebc6 9abf 37a8 1abe cc03 5ebe 194f c9be
00000010: cc62 0fbf fb7f 6c3d 3cb7 87be f08d a63f
00000020: 776a 0a3f c3be 76bf 34b2 23bf 196c 0a3e
00000030: 3b1e 8cbf 05e3 b0bd eea3 1ebf b508 29bf
00000040: 5ecb dabe 373c 963e 1f44 093f 5f09 603e
00000050: d2db 50bf e3ab 62bf 9508 053f 6000 f43d
00000060: 8039 823f 2650 c1bf 141c 403e f04b 7abe
00000070: 6917 3a3e 6411 ccbe 6d5c 203f 57e0 3e3d
00000080: 2130 b9be e4bf b53e 30bc 3cbf ce42 2dbf
00000090: 6712 ef3e f218 37bf 801d 513e a059 15bf
000000a0: b08b ffbd 924c dbbd 0a72 31bf f6cf 323e
000000b0: c43a d43e bf5b cf3c df01 3b3e 6365 513d
000000c0: 0d5a 17bf b9c1 ab3d d77f f83e a741 a4be
000000d0: fca7 dabe 0eee 8cbf 3fc2 10bf 92de 00bf
000000e0: f1ee 9c3d f38f 833e 180f 73bf 69d5 36bf
000000f0: de6e 3dbf 5ccb f33e 51c1 e93e ffbb 47bf
00000100: 9e93 b73e 179c 243e a972 653d 7dde 5e3f
00000110: 5e32 71bf 824a 733e 66bd 113f 327b 1f3e
00000120: eea0 febe fbd9 12bf 56f5 af3e 036c f5be
00000130: 2444 2cbf 3639 7cbe 5f1f 1ebf 85e9 debf
00000140: e55d 783f 63eb 16be e395 693f f963 7b3c
00000150: e4c0 023f cfc3 913e 060d 37bf 8096 07bd
00000160: ea99 603e b82f abbf 8253 7bbe c3ec 763f
00000170: 62ee 61be cf98 bcbe faed 18bf 5f07 d2bd
00000180: b1d7 6b3d e598 5d3f 9468 0a3f 973c c5bf
00000190: 8272 24bf e7bc b5be 6aad 29bd 8737 adbe
000001a0: b59e 2cbf 6c60 14bf 4544 29be 8d46 3f3f
000001b0: 01e2 953e 2135 25bf 1fd0 963d af42 19bf
000001c0: fec1 8ebf 9b53 52bf c546 c9bd e755 14bf
000001d0: 2c6a cf3e b4fb e3be 5a8f 9abe 59b3 ca3d
000001e0: 1ced 37bd 808b bbbf 3db3 92bf 1dfb ee3e
000001f0: 4e97 dfbe c3ec a23e 30ed 02bf 135f 4cbf
00000200: e4a9 cebf f97f 79c0 3261 94be fbbb 99bf
00000210: 6027 09bf c364 8b3e 249d 86be 6056 2ebf
00000220: 5432 8c3f d62e 053f 443c 0fbf 6ae0 593f
00000230: 4841 a1bf 825a a83e e012 19be a822 61bf
00000240: 0011 85be d558 9d3e dab7 15bf 7359 8f3d
00000250: 2888 8ebf 8f8d 063e bace ccbd a222 12c0
00000260: 90d1 973e 039a 383e 1015 413f dacc fd3d
00000270: e455 eb3e a836 a9bd 8117 eebe dc73 ea3e
00000280: 6245 0c3f ac1c 4c3f fa9d d53e 5596 31bf
00000290: 8e9a bfbf 361d e7be ba18 5fbf 1ab2 1a3e
000002a0: b38a 9ebe 5c54 cb3e 3401 0b3d 77b5 b6be
000002b0: d313 74bf 80b6 2a3e 825f 023e 10eb 4cbe
000002c0: 1392 c4be 9728 d6bf 1b6d c1be 5b21 f1be
000002d0: a548 9a3e 03c8 c0be 23cc 24bf a755 b43e
000002e0: 6521 103f 015a 253e 3608 3b3f 2b86 613e
000002f0: 4d4a 583e d48c 6c3e cb5c 513e a5eb 49bf
00000300: 8dc5 453e db65 443f c278 943e d54b 67bf
00000310: eb60 ca3e 5a65 cabe d7f6 98bf 70aa 5abc
00000320: ee63 183d c7fe a9bd 2462 b2bc bd29 e3bf
00000330: 4626 cc3e c86a 38bf 0d50 3cbd 9881 9f3e
00000340: 6d64 813f 9a55 bebf 1e6f 1a3f d92d fd3e
00000350: 97ca ae3f 107e 133f 98b6 9fbe 319a 913d
00000360: 9a81 c5be e29d a3be ea11 4b3d cbec 3c3f
00000370: c0d5 04be 0821 623e 92df 11c0 9a91 25bf
00000380: 2532 bfbf c09b d4bf 412f 35be a2ef 233d
00000390: 443e 2bbf a858 40bf 48a6 e03e e02b ad3e
000003a0: b72b 813c 6046 2bbf 5680 eabe fb20 013f
000003b0: 2a42 34bf 53eb 1bbf 6422 75be 4b67 8fbf
000003c0: 3fd1 56bf c832 b23e 1036 54bf 6752 57bf
000003d0: bd11 d0bd f19e e9be 6957 8dbe 48bf 703e
000003e0: 9ad4 37be 8ef5 f13e 4959 07bf eee2 9c3e
000003f0: 7c42 1a3e 3561 19bf abc4 68bd ed6a 0ebf

update_node_embedding_layer_g.1.update_layer.weight f4 [32, 64]
0.35571134 -0.8374941 -0.0910553 -1.0759038 0.6363096 1.098518 0.61185676 -0.22605087
0.3421388 -0.8781884 -0.3926098 -0.9556891 -0.47214857 0.7473474 -0.30997404 0.53258115
0.14955005 -0.08615391 -0.10430618 -0.5064024 -0.09114133 0.0064508384 -0.35029465 0.7432812
-0.18261261 -0.6569721 0.21558069 -0.16263382 -0.19878034 -0.10862299 0.49893296 -0.12234514
0.38807872 -0.5523824 0.82942975 0.527519 -0.032590155 -0.042002473 0.7014571 0.11357685
-0.23464431 -0.2661487 -0.19556406 0.95092374 0.59562236 -1.5348125 0.6309676 -0.46583787
1.7013304 0.30700353 -0.6199612 -0.35348007 0.08802887 0.53595376 -0.60965306 0.42494407
-0.07917643 0.33438942 -0.84842306 0.02719456 0.9779921 0.27591306 -0.8771528 0.31988123
0.23937674 0.67406815 -0.04598662 -0.5044579 -0.09109784 0.7690613 -0.027618676 -0.010853407
1.361546 -0.9363738 -0.52132493 0.5860911 -0.34870657 -1.0603833 -0.9147084 -0.042212717
0.13001771 0.44208974 -0.05445951 -0.06861588 -0.43550223 0.326771 -1.0582745 -0.10903887
-0.3217154 0.45566955 0.707692 -0.67185766 0.7562714 -0.06306508 1.1002932 -0.3634828
0.7650017 -0.016737128 -0.17641197 -0.77054125 0.14415869 -0.13270603 -0.35823482 0.77901155
-0.61154807 0.5296828 -0.23946044 -0.2205254 -0.60333884 0.45235845 1.28493 -0.87998706
-0.049358446 -1.4456786 -0.28323016 -0.87466574 0.5721191 -0.86480665 -0.47479177 0.6874902
-0.2098776 0.24446347 0.5214823 0.2198968 0.18176866 -0.54343563 -0.47613034 0.09619712
-0.5176138 -0.23057021 0.33402488 -0.81860256 -0.3776511 -0.68160796 0.8285302 -0.028291987
0.1287127 0.49705428 -0.5540843 0.28712773 -0.6540123 -0.52884007 -0.424755 -0.4502663
0.6265423 1.2014093 0.15571745 0.12171898 0.20758168 -0.21318014 -0.39443108 -0.5669316
-0.14046475 -0.56158674 -0.100386694 -0.30769446 -1.2295731 -0.33325684 0.29012176 0.2482118
-0.089868404 0.38066077 0.3585972 0.87956464 -0.05093205 -0.1566072 -0.8895311 -0.053653967
-0.57195354 -0.82477236 -0.12792093 -0.08313507 -0.014261413 -0.2779966 0.37182418 -0.61443347
1.7221793 0.39372686 0.78523266 0.27337202 -0.4712793 0.82161933 -0.13191783 -0.8995703
-0.586212 -0.8274446 -0.17042197 0.0106604 -0.14579663 0.4422785 -0.003325739 0.13058093
-0.5745642 0.5589974 0.07394685 -0.12706694 -0.46462268 -0.6457288 -0.076190695 0.87468874
-0.21298505 -0.4184026 0.08051096 0.08663898 0.6455596 -0.32106772 -0.1836271 0.5421244
-0.5948618 -0.9630644 -0.37213263 -0.4347009 -0.09514392 -0.7942455 -1.057032 -0.40435722
0.86683244 0.040350657 0.23121817 -0.045064438 -0.72269267 -0.42900163 -0.30976915 -0.1772124
0.055776015 -0.013638892 0.24906398 0.66748494 0.25953975 -0.25223526 0.4164694 0.047084227
0.14899774 0.4565324 -0.7066346 -0.7525348 0.4474046 0.14074059 0.20160842 0.44918254
0.19655454 0.86869335 0.34367663 0.6118935 0.45234916 -0.8642503 0.5551423 -0.035905078
-0.35271376 -0.080494545 -0.067955285 -0.4975396 0.029964512 -0.56238246 0.6649442 -0.42796782
00000000: cc1f b63e 0366 56bf 337b babd 37b7 89bf
00000010: 30e5 223f 3d9c 8c3f a5a2 1c3f e179 67be
00000020: d12c af3e f4d0 60bf 2704 c9be 0aa8 74bf
00000030: 75bd f1be 2952 3f3f ebb4 9ebe 3d57 083f
00000040: a623 193e 7671 b0bd 7a9e d5bd 96a3 01bf
00000050: 4ea8 babd 8e61 d33b d259 b3be ad47 3e3f
00000060: cdfe 3abe 532f 28bf 2fc1 5c3e 7b89 26be
00000070: 138d 4bbe bb75 debd 2474 ff3e 1790 fabd
00000080: 41b2 c63e ef68 0dbf 8255 543f 7c0b 073f
00000090: 417d 05bd c90a 2cbd b192 333f fb9a e83d
000000a0: 9946 70be a444 88be f241 48be bd6f 733f
000000b0: b57a 183f bc74 c4bf 1887 213f 4d82 eebe
000000c0: 32c5 d93f 912f 9d3e c7b5 1ebf 57fb b4be
000000d0: 7b48 b43d 4434 093f 3912 1cbf 4592 d93e
000000e0: 4127 a2bd 1735 ab3e 4132 59bf 20c7 de3c
000000f0: b15d 7a3f 7a44 8d3e 168d 60bf 79c7 a33e
00000100: 2d1f 753e bb8f 2c3f 775c 3cbd 2724 01bf
00000110: 8191 babd 34e1 443f 9040 e2bc 7dd2 31bc
00000120: 2447 ae3f 31b6 6fbf 8d75 05bf 110a 163f
00000130: ab89 b2be a4ba 87bf 542a 6abf 3ee7 2cbd
00000140: 5d23 053e 9659 e23e ef10 5fbd 7c86 8cbd
00000150: 26fa debe 874e a73e 8a75 87bf c54f dfbd
00000160: e2b7 a4be 854d e93e 4e2b 353f ddfe 2bbf
00000170: 019b 413f 4428 81bd 68d6 8c3f 6b1a babe
00000180: 27d7 433f 4d1c 89bc 57a5 34be 3142 45bf
00000190: 569e 133e 17e4 07be 8e6a b7be 4d6d 473f
000001a0: 6a8e 1cbf 4b99 073f 1e35 75be 69d1 61be
000001b0: 6a74 1abf 879b e73e 9678 a43f d546 61bf
000001c0: 152c 4abd ff0b b9bf 8b03 91be 18ea 5fbf
000001d0: 6676 123f f863 5dbf e817 f3be 5cff 2f3f
000001e0: 27ea 56be a254 7a3e dd7f 053f a02c 613e
000001f0: 9021 3a3e 991e 0bbf 5bc7 f3be ff02 c53d
00000200: 5782 04bf 991a 6cbe 4f05 ab3e f08f 51bf
00000210: 7c5b c1be dc7d 2ebf 8e1a 543f 99c4 e7bc
00000220: 43cd 033e e67d fe3e 78d8 0dbf 6802 933e
00000230: 5a6d 27bf 1062 07bf 7d79 d9be 4e89 e6be
00000240: 1465 203f c8c7 993f 6574 1f3e cd47 f93d
00000250: 4b90 543e e54b 5abe dff2 c9be 6e22 11bf
00000260: fed5 0fbe 26c4 0fbf 8a97 cdbd 218a 9dbe
00000270: a762 9dbf a4a0 aabe d78a 943e 3c2b 7e3e
00000280: ed0c b8bd f8e5 c23e 0d9a b73e 262b 613f
00000290: 209e 50bd a35d 20be 4fb8 63bf 43c4 5bbd
000002a0: 8c6b 12bf 4824 53bf b4fd 02be b842 aabd
000002b0: b4a8 69bc 9255 8ebe bd5f be3e 834b 1dbf
000002c0: 5f70 dc3f 9196 c93e 0205 493f 6bf7 8b3e
000002d0: 854b f1be a555 523f 7815 07be 3d4a 66bf
000002e0: fd11 16bf 69d3 53bf 1983 2ebe f5a8 2e3c
000002f0: b64b 15be 5472 e23e a4f4 59bb 02b7 053e
00000300: a416 13bf 741a 0f3f 7271 973d d61d 02be
00000310: 06e3 edbe 7c4e 25bf de09 9cbd 9aeb 5f3f
00000320: c118 5abe de38 d6be eee2 a43d c76f b13d
00000330: 6543 253f fd62 a4be be08 3cbe aac8 0a3f
00000340: dd48 18bf 638b 76bf 2b88 bebe 1e91 debe
00000350: d1da c2bd ac53 4bbf d34c 87bf e907 cfbe
00000360: bbe8 5d3f bb46 253d 75c4 6c3e 7d95 38bd
00000370: 6302 39bf 1aa6 dbbe 109a 9ebe 2b77 35be
00000380: 6475 643d a975 5fbc a10a 7f3e 4be0 2a3f
00000390: 65e2 843e fb24 81be 7a3b d53e 64db 403d
000003a0: dd92 183e 9dbe e93e 01e6 34bf 1fa6 40bf
000003b0: 3712 e53e 4d1e 103e 7072 4e3e 41fb e53e
000003c0: 9845 493e b062 5e3f 62f6 af3e 0da5 1c3f
000003d0: 4f9a e73e 823f 5dbf ce1d 0e3f 3411 13bd
000003e0: e696 b4be 53da a4bd 242c 8bbd 83bd febe
000003f0: 2378 f53c 4cf8 0fbf c839 2a3f 991e dbbe

update_node_embedding_layer_p.0.message_layer.weight f4 [32, 64]
-0.23381652 -0.56739885 -0.13938631 1.2937865 0.2635706 0.75504214 -0.5990744 0.98953307
-0.21019575 0.51370627 0.12523971 0.2044791 -0.11875617 0.29889697 0.061033398 -0.08533905
0.00796719 -0.1803432 -0.22315063 0.007577839 -0.43442306 -0.28842446 -0.33574307 -0.041047115
-0.27967438 -0.53275585 0.9132482 -0.02467376 0.35856342 0.053995162 -0.025833836 1.0323895
1.096363 0.56952167 -0.05065819 -0.40216798 0.43123797 -0.19014898 0.44492164 0.42031983
0.6205896 0.77825844 -0.50218886 0.068176955 0.23892498 -0.20634654 -0.33649108 -0.6730307
-2.174975 -0.25584304 0.3087357 -0.9378005 -1.3709055 -0.14767419 -0.3482921 1.2732304
-0.5537048 0.077897474 -0.42584535 -0.5226998 -0.1678015 1.6242554 -0.80834144 0.6426302
-0.43713346 -0.9145041 0.9345796 0.5929897 -0.0763434 0.39796358 0.4237579 -0.11131233
-0.123701915 0.43659696 -0.1493286 -0.10598267 -0.57787585 -0.15981404 0.06912121 0.01041812
-0.75355804 -0.5093109 -0.04563007 -0.110511154 -0.6054064 -0.012884248 0.38125458 -0.26997972
-2.0348873 0.07539826 0.40616637 -0.5961782 -0.30926186 -0.3159151 -0.6734508 0.33053744
0.2121093 0.10090428 -0.6193386 -0.046387255 1.0244021 0.66926754 -0.8192713 0.207627
-0.4092853 -0.3730103 1.2809236 -0.63344723 0.13155133 -0.31656137 -0.7362092 -0.91572446
0.23932214 -0.11931453 0.48234642 -1.2662714 0.385283 0.15093003 0.010811453 -1.114402
-0.5583184 0.2125777 -0.8763027 -0.26518843 -0.36919263 -1.9351655 0.32691705 0.49775288
0.2109356 -0.64141476 -0.63212234 -0.3405108 -1.0702897 0.6633013 0.01027692 -0.80136806
-0.8571638 0.047515295 -0.08110663 -0.26028314 -0.85470915 -0.08672242 -0.5447246 0.3620682
-0.14050204 -0.5346736 0.74279106 -0.3529973 0.20022875 -0.088053346 -0.55796564 -0.27813447
-1.6285017 -0.04541954 -0.34171727 -0.32741424 -0.07194957 0.39129174 0.3485499 0.1375339
0.11404494 0.30304778 -0.28248125 -0.07292184 1.0225523 0.4875095 0.25901583 -0.65170914
-1.5560243 -0.4060646 1.5998619 0.760433 -0.21167621 0.023777489 -1.0099807 1.3040271
0.34760627 -0.1597567 0.3906075 -0.57956046 -0.17322618 -0.46294168 -0.6614015 -0.30688703
-1.014996 -0.12906516 0.3769767 0.12246039 0.21649279 -0.10856947 -0.10889232 -0.006760364
0.3453999 -0.42394438 0.13443507 -0.82717913 -0.45641372 -0.28029233 0.25674286 -0.23664585
-1.1217092 0.31546468 0.6950359 -0.2635715 0.44706884 0.05822023 -0.27003244 0.44091007
-0.7466043 0.65876764 -0.41211444 0.010363706 -0.87645525 0.19079396 -0.092805766 -0.71383375
-0.09069123 0.09608828 -0.11817363 0.5308999 -0.28631884 0.45918813 -0.29143104 -0.16106874
0.87549955 0.11471402 0.39248422 -0.07404889 -0.08782113 0.0629892 -0.2257751 -0.4025644
0.13780805 0.4590637 0.3053519 0.042959448 -0.59119874 -0.069664635 -0.16316693 -0.45372704
-0.10789082 -0.24235837 -0.7115112 -0.42944846 0.00089240284 0.052281037 -0.100613125 0.10134108
-0.056763742 -0.70880526 -0.117268674 0.86155 -0.44617924 -0.0008083049 0.29282865 -1.1383659
00000000: 996d 6fbe 0d41 11bf 49bb 0ebe cc9a a53f
00000010: baf2 863e 714a 413f f15c 19bf 0a52 7d3f
00000020: 8e3d 57be 4182 033f d73e 003e f862 513e
00000030: 6f36 f3bd 0609 993e 28fe 793d 3dc6 aebd
00000040: d188 023c e3ab 38be 9981 64be 854f f83b
00000050: b36c debe 5fac 93be 84e6 abbe 0521 28bd
00000060: 7b31 8fbe b062 08bf a2ca 693f a020 cabc
00000070: a095 b73e 082a 5d3d 7ba1 d3bc 5725 843f
00000080: 9f55 8c3f 2ccc 113f f67e 4fbd f6e8 cdbe
00000090: 39cb dc3e 6ab6 42be c5cc e33e 2934 d73e
000000a0: f6de 1e3f f23b 473f 738f 00bf 5ca0 8b3d
000000b0: c0a8 743e 824c 53be 8f48 acbe bd4b 2cbf
000000c0: ca32 0bc0 dcfd 82be 9b12 9e3e b213 70bf
000000d0: d579 afbf e737 17be 5853 b2be 37f9 a23f
000000e0: 99bf 0dbf b688 9f3d 6708 dabe a7cf 05bf
000000f0: 28d4 2bbe 9ae7 cf3f 77ef 4ebf 6a83 243f
00000100: f5cf dfbe f11c 6abf 9c40 6f3f 2cce 173f
00000110: ee59 9cbd e2c1 cb3e ccf6 d83e b8f7 e3bd
00000120: 6e57 fdbd a389 df3e 99e9 18be 710d d9bd
00000130: acef 13bf 4ba6 23be 6c8f 8d3d c3b0 2a3c
00000140: 2ee9 40bf 3362 02bf 99e6 3abd ac53 e2bd
00000150: eafb 1abf 7418 53bc cd33 c33e c83a 8abe
00000160: 983b 02c0 676a 9a3d 0af5 cf3e 229f 18bf
00000170: 9257 9ebe a0bf a1be 4667 2cbf 343c a93e
00000180: 2e33 593e e7a6 ce3d f98c 1ebf 9000 3ebd
00000190: 9c1f 833f 1e55 2b3f c4bb 51bf 2c9c 543e
000001a0: d88d d1be 35fb bebe 4ef5 a33f 9929 22bf
000001b0: 64b5 063e 5514 a2be 3578 3cbf eb6c 6abf
000001c0: dd10 753e 2d5b f4bd 1cf6 f63e 2e15 a2bf
000001d0: d043 c53e 678d 1a3e 8522 313c baa4 8ebf
000001e0: f4ed 0ebf f8ad 593e 6055 60bf c7c6 87be
000001f0: d106 bdbe 81b3 f7bf ac61 a73e 77d9 fe3e
00000200: 80ff 573e c233 24bf c5d2 21bf 6e57 aebe
00000210: 41ff 88bf 1dce 293f 8760 283c 7526 4dbf
00000220: 166f 5bbf 669f 423d 3c1b a6bd d543 85be
00000230: 38ce 5abf 869b b1bd 1273 0bbf 0161 b93e
00000240: c4df 0fbe 5ee0 08bf 8e27 3e3f 10bc b4be
00000250: c408 4d3e 5055 b4bd d6d6 0ebf a467 8ebe
00000260: be72 d0bf d709 3abd 91f5 aebe d7a2 a7be
00000270: 4c5a 93bd 6457 c83e 2275 b23e b0d5 0c3e
00000280: 6590 e93d 1429 9b3e 62a1 90be 0c58 95bd
00000290: fee2 823f d89a f93e b99d 843e 69d6 26bf
000002a0: ce2b c7bf b3e7 cfbe 46c8 cc3f bdab 423f
000002b0: a6c1 58be 02c9 c23c 0c47 81bf 5cea a63f
000002c0: 73f9 b13e 4397 23be b5fd c73e 135e 14bf
000002d0: 3462 31be b106 edbe 9c51 29bf 4c20 9dbe
000002e0: 64eb 81bf a829 04be 1703 c13e 83cc fa3d
000002f0: 49b0 5d3e ac59 debd f002 dfbd 0b86 ddbb
00000300: 41d8 b03e 3d0f d9be 59a9 093e 03c2 53bf
00000310: 0faf e9be 7a82 8fbe cd73 833e 4a53 72be
00000320: 2b94 8fbf 9684 a13e dfed 313f d8f2 86be
00000330: 35e6 e43e 5678 6e3d b141 8abe f7be e13e
00000340: 7621 3fbf ffa4 283f aa00 d3be 89cc 293c
00000350: 5f5f 60bf 7e5f 433e f310 bebd cfbd 36bf
00000360: 53bc b9bd efc9 c43d 0405 f2bd 0ee9 073f
00000370: 6298 92be b51a eb3e 7336 95be 34ef 24be
00000380: bd20 603f 2fef ea3d b1f3 c83e f2a6 97bd
00000390: 91db b3bd 7b00 813d 9631 67be ec1c cebe
000003a0: 8e1d 0d3e 660a eb3e 1657 9c3e 3ff6 2f3d
000003b0: cd58 17bf 55ac 8ebd 3b15 27be e94e e8be
000003c0: ddf5 dcbd cb2c 78be 9925 36bf abe0 dbbe
000003d0: 24f0 693a a424 563d 410e cebd ea8b cf3d
000003e0: 1981 68bd 4374 35bf 8f2a f0bd 8a8e 5c3f
000003f0: 9b71 e4be 6ce4 53ba a3ed 953e f9b5 91bf
