experiments/GBMLGG_100/train/GBMLGG_100/s2v/network/network32000.pth (torch_old, 87608 bytes, 17 tensors)

node_init_embedding_layer_g.0.weight f4 [32, 2]
000000 80 e7 41 bf 71 72 51 bb f9 c6 3a 3f 77 77 70 bf
       -0.75743866 -0.0031959082 0.7295986 -0.9393229
000010 52 96 14 be ec 42 d2 3e 69 7b 71 3f e1 a2 b6 bb
       -0.14510468 0.41066682 0.94328934 -0.005573616
000020 05 32 f1 be c2 fd 02 3f 0a 9d fe 3e 2f 1d d9 3c
       -0.47108474 0.51168454 0.49729186 0.026503174
000030 e9 56 32 3f 71 3a 68 bc d8 ba d5 3c 1f 9f 5d 3f
       0.69663864 -0.01417409 0.02609007 0.86570925
000040 49 3c e0 be 61 36 2f 3e f0 34 b0 3f 42 7b 36 3e
       -0.43795994 0.17110588 1.3766155 0.17820457
000050 e8 ca 35 be a7 75 77 bd df 35 51 3f db 97 88 bf
       -0.17753184 -0.060414936 0.81722826 -1.0671343
000060 6f ff 66 3e 1e 45 63 bf 5a 25 d8 bd fe b0 ab bc
       0.22558378 -0.8877734 -0.10553999 -0.02095842
000070 f8 34 87 bf 8c 06 c1 bd 10 e9 3e 3e 43 52 aa 3e
       -1.056304 -0.09425077 0.18643594 0.33265886
000080 82 5a 0c bf c4 d5 1f 3f 38 f0 99 3c a5 7c bf 3c
       -0.54825604 0.62435555 0.018791303 0.023374865
000090 ff 38 76 be d8 a4 12 bf 33 95 43 bf de 3e ea 3e
       -0.2404518 -0.5728278 -0.76399535 0.4575109
0000a0 56 93 b8 3c 31 19 fa be 45 65 13 bf 08 eb ab bd
       0.022531193 -0.48847345 -0.575764 -0.08394438
0000b0 45 93 49 be a0 ef 89 bd 64 12 36 bf dc 5c 99 bb
       -0.19685085 -0.06735158 -0.7112181 -0.004680259
0000c0 31 a7 15 3f 67 9d a7 bf e1 0e 5b 3e 41 65 03 3e
       0.5845824 -1.309491 0.21392395 0.12831594
0000d0 ab fc f0 3e 9a 79 08 be 95 53 9f bf fc 20 41 3e
       0.4706777 -0.13327637 -1.2447382 0.18860239
0000e0 7e e1 f7 3d 9e 86 20 3d 30 1e ee 3b dd b0 02 be
       0.12103556 0.03919088 0.007266782 -0.1276278
0000f0 cf b2 e6 3e a9 3d 0e 3e 52 f0 70 bd 9a fd df bb
       0.45058295 0.13890709 -0.058822937 -0.0068356516

node_init_embedding_layer_p.0.weight f4 [32, 1]
000000 21 14 71 be c1 39 8e be 38 1c 17 3e 69 ed d8 be
       -0.23542835 -0.27778438 0.14756858 -0.4236863
000010 61 ae 65 bd 90 59 6d bd d1 b6 1f bc 09 6e 8f 3f
       -0.056074504 -0.05794674 -0.009748177 1.1205455
000020 cc ba ad be a3 ce 6d be d3 b4 c6 be c5 93 33 be
       -0.33931577 -0.23223357 -0.38809833 -0.17536838
000030 78 b4 de be 34 a2 8e 3c 3a 3f 1b bb cb cc 6c 3f
       -0.43497062 0.017411329 -0.002368881 0.9249999
000040 fd 5f 33 3e 45 27 e7 3e ee 20 10 bf af e6 39 3e
       0.17517085 0.45147148 -0.56300247 0.18154405
000050 9e a6 51 3e a3 3c ad bb 97 3a 31 bf 21 a9 38 bd
       0.20473716 -0.0052867695 -0.69230026 -0.04508317
000060 37 e3 2b 3e d3 c6 0d bf 41 a7 36 3f 17 c0 3f 3f
       0.16785894 -0.55381507 0.7134896 0.7490248
000070 a4 20 0a 3f cc 78 bc be 69 9b 6a 3d 3d f7 1c bd
       0.53956056 -0.3681091 0.057277117 -0.038321722

edge_embedding_layer_g.edge_embedding_NN.weight f4 [31, 1]
000000 f0 0b f2 be 7b d0 b1 3e 7b cb ef be 43 42 27 bf
       -0.47274733 0.3472937 -0.4683493 -0.6533548
000010 cd c1 b4 3e 67 17 d5 be d0 8a 40 3e ef fd ba bb
       0.35304108 -0.41619417 0.18802953 -0.005706541
000020 7f d6 05 bf 81 92 30 be df a5 77 3e 05 f1 60 3e
       -0.5228042 -0.17243387 0.24184369 0.21966942
000030 02 70 40 bf ed 8f 09 bf c8 6b bf 3e ff 92 9b be
       -0.7517091 -0.5373524 0.37386918 -0.30385587
000040 73 c6 8e 3e 55 e0 55 be 2b 98 18 bf b6 28 2c 3e
       0.2788578 -0.20886357 -0.5960719 0.16812405
000050 07 75 19 bc e7 f6 e4 be 64 c4 be 3e 7c d7 0f be
       -0.00936628 -0.44719622 0.3725921 -0.14047045
000060 ae ca 25 be 80 0b a4 be 48 f7 05 bb 02 75 30 3f
       -0.16190597 -0.32040024 -0.002044158 0.6892854
000070 be 83 0a bf 6f b1 2c bf dd 8b bd 3e
       -0.5410727 -0.6745824 0.3702077

edge_embedding_layer_g.edge_feature_NN.weight f4 [32, 32]
000000 5d 39 49 be 54 89 2b 3f 76 58 a4 bf f3 af 91 3f
       -0.19650789 0.6700642 -1.2839496 1.138182
000010 0c 69 38 bf 15 fb f6 3e ca 60 f0 bc a4 2c 10 3d
       -0.7203529 0.48238435 -0.029343028 0.035198823
000020 ef e7 1b be a0 37 4f bd f6 c9 2b bf 4c 76 0a bf
       -0.15225194 -0.050590158 -0.6710504 -0.54086757
000030 1a 27 7d 3e 72 50 66 bf 0b 53 f5 3e f4 e2 ce 3e
       0.24721947 -0.899665 0.4791492 0.40407526
000040 dc f4 c1 be df f3 31 be 55 57 06 3e 21 63 85 bf
       -0.37882125 -0.17378186 0.13119252 -1.0420877
000050 fb 30 0f 3f 74 b0 4a bf ac 5c ba bd ac ad 74 3e
       0.55934113 -0.79175496 -0.09099707 0.23894376
000060 9f 79 07 3f ac 31 28 bf 36 59 c8 be cd 06 18 bf
       0.52919954 -0.65700793 -0.39130563 -0.5938538
000070 d3 8d 2e bf 63 72 f3 bd 7d 65 9f be 8c 1d fd 3d
       -0.68185157 -0.11887052 -0.31132117 0.12359151
000080 30 c8 b1 3d e1 bb 20 3d e0 e6 00 3e 81 b1 0f 3d
       0.08680761 0.039241675 0.12588072 0.03508139
000090 20 67 49 3d 8c 26 75 bf db a7 7a be 38 1c 16 3f
       0.049170613 -0.9576194 -0.24478094 0.5863681
0000a0 92 37 d3 bc 70 b3 02 3f 8c 72 ec 3e 01 01 39 3f
       -0.025783334 0.5105505 0.46181142 0.72267157
0000b0 39 46 d7 bd b9 28 8e be 66 9d dd be 40 2d 01 3f
       -0.10511441 -0.27765444 -0.43284148 0.5045967
0000c0 17 70 82 bf 59 bd 87 bf 59 f1 3b 3c ff cf 1d bd
       -1.0190457 -1.0604659 0.011471116 -0.03852844
0000d0 34 00 2f 3f 35 27 c0 3d 74 1f 01 bf bb 51 9a 3d
       0.68359685 0.09382478 -0.5043862 0.0753512
0000e0 d7 e0 fb b8 54 0b 2d 3e 4f e6 b2 3e 56 1d 97 3c
       -0.00012010492 0.16898853 0.34941337 0.018446606
0000f0 25 d6 a8 bd 50 3e b8 be a2 d0 7d bf 08 76 73 3e
       -0.0824397 -0.3598504 -0.99146473 0.23775494
000100 99 e9 3f 3f 9a 68 97 bf 31 a9 dc be e9 03 4b be
       0.74965817 -1.1828797 -0.43097833 -0.1982571
000110 4e 98 27 bf f2 8f 2b be 0c 37 25 3d 27 0f b4 3e
       -0.65466774 -0.1675413 0.0403357 0.3516781
000120 48 b4 c8 3e 43 fa be be c8 a6 62 bf cf b5 f9 3d
       0.39200044 -0.3730031 -0.8853574 0.1219288
000130 d3 b8 d2 3e 1e 5d 0e 3f 4b 48 0f bd c7 55 25 bf
       0.41156635 0.55610836 -0.034981053 -0.6458401
000140 6b d9 c0 3e 62 ba 1a bf 14 ed 80 be 6b 34 9c 3e
       0.37665877 -0.6044065 -0.25180876 0.30508742
000150 d6 35 fb 3d f4 92 2d bd 5a cd e7 be 86 1a 47 bf
       0.12266128 -0.042376474 -0.45273858 -0.77774847
000160 44 5e 20 bf f2 dc 84 bd e1 26 d7 3e 73 a3 30 3f
       -0.6264384 -0.064874545 0.4202185 0.68999404
000170 d3 96 51 3e 93 28 b1 be 27 03 1c 3f 22 f5 59 be
       0.20467691 -0.34601268 0.6094231 -0.21284917
000180 4f 3d d4 bc be e9 e5 be e8 85 fa be cf 51 05 bf
       -0.02590814 -0.44904894 -0.48930287 -0.52077955
000190 e4 ee fd be 08 e8 38 bf 5e 6a 96 3f 36 2f 6b be
       -0.49596322 -0.7222905 1.1751211 -0.22967228
0001a0 5c 67 36 3e 9e 98 ed bd 3d 4d 08 3f 0f 95 18 bf
       0.17812866 -0.11601375 0.53242856 -0.59602445
0001b0 46 ad 1b 3f c6 18 91 bd 04 5f 04 be 02 38 4f be
       0.6081127 -0.07084803 -0.1292687 -0.20236209
0001c0 33 a6 f0 be e8 37 27 3f 46 f3 7d 3e d2 97 cf be
       -0.470018 0.6531968 0.24799833 -0.40545517
0001d0 10 e9 16 bf 61 fc 15 be f6 67 61 3d 27 3d ba be
       -0.58949375 -0.14647056 0.055030786 -0.3637478
0001e0 92 23 59 bd ef 9e 30 3e 32 1f ee 3e ea a6 52 bf
       -0.053012438 0.17248128 0.46508175 -0.8228594
0001f0 fe ce 28 be 27 28 b6 be 7f ca 99 3e 14 be 3a 3f
       -0.16485211 -0.3557751 0.30037305 0.72946286
000200 1b 9d 12 be 49 9c 70 3e 88 47 02 bf ab 5e 3d 3d
       -0.14317743 0.23497118 -0.508904 0.04623286
000210 04 44 0b bf 9b d8 74 3f ec 80 bd be 5c 0d e5 bc
       -0.5440066 0.95643014 -0.37012422 -0.027960472
000220 41 2f 34 bf 71 7f a4 3e bb 9a 9e 3e 37 3c 1b bf
       -0.70384604 0.3212848 0.30977425 -0.60638756
000230 57 66 7a be c6 ff 3f 3f be 86 d9 3c 92 1a 3b 3e
       -0.24453102 0.74999654 0.026553508 0.18271855
000240 71 22 24 bf a3 7e 11 3f 18 58 2e bd 5e e7 ce 3e
       -0.64115053 0.5683386 -0.04256448 0.40410894
000250 78 e6 5f 3d 3d ed c7 be a9 eb 7f 3f 18 5c 82 be
       0.05466315 -0.39048186 0.99968964 -0.25460887
000260 9f 07 94 3e 68 c3 d1 3e 42 b8 07 bf 8c f2 1c bf
       0.28912064 0.40969396 -0.5301553 -0.613076
000270 d6 f7 7b 3d 06 6d c3 3b b7 04 24 bf ab 3c 02 3f
       0.06151565 0.0059639243 -0.64069694 0.5087382
000280 6b 07 3c 3f 76 98 89 3d 83 f2 25 bf 18 c8 23 3f
       0.7344882 0.06718533 -0.6482317 0.63977194
000290 9b a4 9d bf dd 88 9d 3e 1d c5 8e be d9 c3 80 3e
       -1.2315859 0.3076848 -0.2788476 0.2514942
0002a0 2e 94 f3 3e 32 65 5c bf f0 26 28 bf 87 0c 56 bf
       0.4757399 -0.8609191 -0.65684414 -0.83612865
0002b0 ca 85 12 3f 75 44 d5 3d 72 35 73 be 9b 67 73 bf
       0.57235396 0.10413448 -0.23750857 -0.95079964
0002c0 36 c5 38 3e 86 9e 25 3f 6e 64 5f 3f 99 69 ad 3e
       0.1804398 0.6469501 0.8726262 0.33869627
0002d0 72 aa 66 3f 4d 78 2d be 2e 70 82 3e df f5 40 3f
       0.9010383 -0.16940422 0.2547621 0.7537517
0002e0 39 eb c7 3d b9 a2 fd 3e d4 8f ac bf cf 8e 2a bf
       0.09761662 0.4953821 -1.3481393 -0.6662416
0002f0 e0 c5 3d be bf 16 f8 3e bf 43 1c be ab 64 24 3e
       -0.18532515 0.48454854 -0.15260218 0.16054027
000300 75 93 e3 bd 5d 5e 0f 3f 7e 75 9a 3e f3 6a 9e be
       -0.111121096 0.5600336 0.30167764 -0.3094097
000310 19 a6 95 3e fd 35 12 3f 35 bc 1f bf 44 e8 3b bf
       0.29228285 0.5711363 -0.62396556 -0.73401284
000320 e5 c7 7c 3f 4f 2a 91 3e 30 9d b1 3e 80 69 44 bf
       0.98742515 0.2835259 0.34690237 -0.7672348
000330 8d 4b 31 3f ef cc 59 3e bc 17 b4 be ba 4b a3 3e
       0.69255906 0.21269582 -0.35174358 0.31893712
000340 8c 57 0d bf a6 86 74 3e 82 4d 75 3e 9f 80 37 3e
       -0.5521171 0.2387949 0.23955348 0.17920159
000350 91 4d 10 be e4 a8 06 be e6 80 1a 3d 5c 85 e2 bd
       -0.14092089 -0.13150364 0.037720583 -0.110605925
000360 aa 04 46 bf 2b 24 26 bf c6 1d 47 bf 41 ae 7e bf
       -0.77350867 -0.6489894 -0.77779806 -0.9948464
000370 6a b2 90 be 38 fc d2 3e 64 6d 64 be 87 2e 5c 3e
       -0.2826112 0.41208053 -0.22307354 0.21502124
000380 b1 10 e4 be 8b 9e 63 bf 60 e5 9d be 1e 55 35 bf
       -0.44543985 -0.8891379 -0.30839062 -0.70833004
000390 64 75 09 3e 65 85 eb be 02 17 a6 be 55 20 15 bf
       0.13423687 -0.4600021 -0.3243943 -0.5825246
0003a0 b7 b6 ec bd dd 7b dc 3e 70 3a 08 be 69 cd 97 bf
       -0.115582876 0.4306325 -0.13303542 -1.1859561
0003b0 1b ea 1e 3f 0d 93 2c bf 37 64 80 3e e9 69 e7 3e
       0.62075967 -0.6741188 0.25076458 0.4519799
0003c0 97 01 7a be 20 fe bc 3e 1a 4f 6a 3f 4c 34 78 be
       -0.24414669 0.36912632 0.9152695 -0.242387
0003d0 64 3f 65 be a9 66 51 3f 01 c6 fb 3e 5b 74 8d be
       -0.22387463 0.8179727 0.49174502 -0.27627835
0003e0 17 64 17 bd 14 6e 87 bf b0 f4 a3 3c 06 16 fe 3e
       -0.036960687 -1.0580468 0.020014137 0.49626178
0003f0 de 92 b6 3d 6d 96 09 bd 79 2f 14 bf 48 c4 1d 3d
       0.089147314 -0.033590723 -0.5788494 0.038517267

edge_embedding_layer_p.edge_embedding_NN.weight f4 [31, 2]
000000 df ab 47 3e 7a e1 f3 be b0 6f 01 3f ff 57 90 bf
       0.19499157 -0.47632962 0.50561047 -1.1276854
000010 6c 2b b6 3e 00 fa bf 3e e5 48 4d bd 7a 10 0b bf
       0.35580003 0.37495422 -0.050118346 -0.54322016
000020 a1 5b 01 3f 66 9b eb 3e 0a de f6 be 0f dc 12 3f
       0.5053044 0.46016997 -0.48216277 0.5736703
000030 36 f3 16 3f 76 f7 ce be 78 2c bc be d2 91 7d 3f
       0.5896486 -0.40423173 -0.36752677 0.9905063
000040 dc 3e 96 3e 42 e4 32 bf f9 9c 1b bf 83 3b 5d bf
       0.29344833 -0.69879544 -0.60786396 -0.8641893
000050 a2 35 70 be 7a 4d 73 3e 2e 21 5b 3f 63 37 2f 3e
       -0.2345796 0.23760024 0.85597503 0.17110972
000060 8b 31 89 bf 55 e0 5c bf b4 4b 4b bd 17 9d 6b bf
       -1.0718244 -0.86279804 -0.049632743 -0.92036575
000070 fc 36 5f 3e 4e a4 f2 bc d6 ee a3 bd 00 c3 ea be
       0.21798319 -0.029619362 -0.08004539 -0.45851898
000080 91 67 ad 3e 00 0b 47 bf 03 36 e6 3e c0 56 51 3d
       0.33868077 -0.7775116 0.44963083 0.051108122
000090 d3 9e 8c bb dc 28 eb bd 4f fe ce be d5 64 ec be
       -0.0042913943 -0.11482403 -0.40428397 -0.4617068
0000a0 66 34 22 3f 29 ac b5 bf 1b 10 1a be 2b be 7d bf
       0.63361204 -1.4193164 -0.15045206 -0.991183
0000b0 85 67 93 bd 90 f1 8b be 9f 7b 41 3f a9 fb 72 bc
       -0.07197479 -0.27332735 0.75579256 -0.014830508
0000c0 2a 4b 92 bd 76 df b6 be a2 7a 3e 3d 39 dd ea bd
       -0.07143243 -0.35717362 0.04650367 -0.11467976
0000d0 ac 00 f2 be df 54 04 3f 3b 1a 47 3b 8d 29 5a bd
       -0.47266138 0.51692003 0.0030380625 -0.053262282
0000e0 70 ea c9 be 62 69 72 be b1 7b 3f be 4f 78 23 bb
       -0.39436674 -0.23673013 -0.18699528 -0.0024943536
0000f0 4a b5 e2 be 86 46 5f be
       -0.44278938 -0.21804246

edge_embedding_layer_p.edge_feature_NN.weight f4 [32, 32]
000000 e1 6d 5a 3f bf be ae be 60 b1 61 3f 82 7b a6 3e
       0.8532391 -0.34129903 0.8816128 0.32516104
000010 25 39 9c bd bf a9 fd be 54 29 4a bf 1d bc ee 3d
       -0.07628087 -0.49543568 -0.7896931 0.116569735
000020 9d 3e 05 bf 4b 5f 7d 3f 80 66 d7 3d b2 1c 35 bf
       -0.52048665 0.9897353 0.10517597 -0.7074691
000030 bb 00 33 be 62 f9 2b be b6 bd d0 be b1 44 f6 3e
       -0.17480747 -0.1679435 -0.40769738 0.48099282
000040 6c 54 ea bd a2 01 dc 3e 63 9f 32 be 19 01 2d be
       -0.114418834 0.42969996 -0.17443614 -0.1689495
000050 38 3d 70 3e 66 8c 9d be 91 ee 9b bc 25 4f 37 3e
       0.23460853 -0.30771178 -0.019034656 0.17901285
000060 61 f7 06 bd cb c2 01 bf 01 6b 12 be 97 14 59 bf
       -0.032950763 -0.50687855 -0.14298631 -0.8479704
000070 2f 09 1e 3f bc 1d a8 be 27 ae 88 3e 2a 76 82 bf
       0.61732763 -0.32835186 0.26695368 -1.0192311
000080 c1 b4 02 be f5 a0 4c c0 bb e4 e3 3e f5 14 94 bf
       -0.12764265 -3.197324 0.44510445 -1.1568896
000090 de 9a e3 3e 8c 8d f8 3e 9d e6 8f be f5 7e ae bd
       0.44454092 0.48545492 -0.2810563 -0.08520309
0000a0 ce a5 1c c0 e0 ab 14 bf 58 ab 29 be 76 ce 1d bf
       -2.44762 -0.5807476 -0.16569269 -0.6164316
0000b0 74 db a2 be b5 1c 1a 3f e9 a4 3a 3f c0 aa f8 3d
       -0.31808054 0.60200053 0.7290788 0.12141943
0000c0 dc 47 ee bf 6d 08 74 3f 81 2b 9c bf fe 1d a6 3e
       -1.861568 0.95325357 -1.2200776 0.32444757
0000d0 b2 5e 05 c0 9e f6 d3 3e f2 17 06 bf d2 30 01 bf
       -2.0839047 0.4139909 -0.5238029 -0.5046512
0000e0 41 55 4f 3f 2e 7a 35 3f 7a 69 75 3e 1c bd 3e 3f
       0.8098946 0.70889556 0.23966017 0.7450731
0000f0 82 8b cc be 18 42 25 be 70 6f 65 3e 18 a6 91 be
       -0.39950186 -0.16138494 0.22405791 -0.28447032
000100 fb bc 8d bf 1b 24 fe bf c3 ec fb be 47 a6 9d 3f
       -1.1073297 -1.9854769 -0.49204072 1.2316369
000110 a9 ea 46 be a8 17 08 bf 3f e7 d0 bf db 5d 18 bd
       -0.19425453 -0.53161097 -1.6320571 -0.037198883
000120 42 af 7e be 43 36 58 3e 4f a6 98 3d 08 4e a6 3e
       -0.24871543 0.21114449 0.07453596 0.32481408
000130 6d 3c 96 be 25 76 e1 be 66 e5 87 be 8f 0c 00 3f
       -0.29342976 -0.4403545 -0.26542205 0.5001916
000140 05 ca f8 be d6 99 bb 3c 67 35 6d 3e 02 c1 96 3d
       -0.4859163 0.022900503 0.23164903 0.07361032
000150 83 a6 55 bf a0 72 1d 3f cd e3 d2 3e 82 e0 f4 bf
       -0.834572 0.6150303 0.41189423 -1.9131014
000160 1a 45 21 bf c4 7b e1 be ba b3 ff bd 4a 3b 12 3e
       -0.62996066 -0.44039738 -0.12485452 0.1428043
000170 6a 4d 37 3f 7f 79 ab be b0 5b c8 3e bc ab 4d 3e
       0.716025 -0.33491132 0.39132452 0.20085043
000180 69 87 1a bf 7e 81 6a be 4b 81 0a bf 40 f0 6c 3f
       -0.6036287 -0.2290096 -0.54103535 0.9255409
000190 b5 40 5b bf 9d 9d 34 bf 65 5f 19 bf 0c 6f 37 be
       -0.8564561 -0.70553 -0.59911186 -0.17913455
0001a0 07 a2 63 3e 00 d7 0d bd cc 11 3e be eb f6 64 be
       0.22229777 -0.034628868 -0.18561476 -0.22359817
0001b0 51 e9 14 bf 52 35 75 3f 90 ab da 3c 0d 2d f3 be
       -0.5816851 0.95784485 0.026693135 -0.4749531
0001c0 5f 1b a5 bf 59 b3 d2 be 82 2b f6 be dd ff 79 3f
       -1.2898978 -0.41152456 -0.4808007 0.9765604
0001d0 14 98 ba 3e 24 a2 d0 3e c5 57 5e be 43 5c 91 3c
       0.3644415 0.40748703 -0.21713169 0.01774419
0001e0 89 0c f5 3e 5d 5d 91 3e 0c 6b 11 3f 1e c9 f4 3d
       0.47861126 0.28391543 0.56803966 0.119524226
0001f0 1c 31 96 3e 34 66 15 3f 20 04 02 bf 72 c8 e7 bc
       0.29334342 0.58359075 -0.50787544 -0.028293822
000200 37 63 23 3e 2e 3c ea be bc ea 19 3f 1d 26 e0 be
       0.15955816 -0.45749038 0.601238 -0.43779078
000210 80 01 25 3f 26 24 2e be 6f c0 cb bd 40 9e 33 bf
       0.64455414 -0.17005977 -0.09948813 -0.70163345
000220 5f ca e5 be 72 6a 25 bf 5a 66 25 3e b5 f2 31 3f
       -0.4488096 -0.6461555 0.16152325 0.69510967
000230 ff 36 ec be 85 6a 83 be 5b d3 ed be 69 01 94 3e
       -0.4613571 -0.25667205 -0.46450314 0.28907326
000240 6b e3 cc bd f8 89 82 3f e9 27 45 bf ea 39 06 3e
       -0.10004314 1.0198355 -0.77014023 0.1310803
000250 08 67 04 c0 5b be d8 3c 3e a2 27 be f2 e0 42 3e
       -2.0687885 0.026457956 -0.16370484 0.19031122
000260 71 fd 11 3f 47 53 37 bf 57 67 45 3e 6b b0 8b 3e
       0.57027346 -0.71611446 0.19277702 0.27283034
000270 8b 21 94 3d a4 f8 7a 3e 4b f4 89 3e 01 8b cf bd
       0.0723296 0.24508911 0.26944193 -0.10133935
000280 7a da 79 3e 8e a3 1b bf cc ef 9d bd cf bd 83 3f
       0.24399748 -0.6079644 -0.07711753 1.02923
000290 5d 59 81 3f 65 b7 43 bd 1c 4f aa 3e ba b6 c9 3d
       1.0105397 -0.04778232 0.3326348 0.098493055
0002a0 2a 18 10 bd 84 45 93 be ca da b3 be a7 aa b3 be
       -0.035179295 -0.28763974 -0.3512786 -0.35091135
0002b0 32 b9 13 3f 71 9d 0b 3f d4 50 9d bd a1 f5 e7 3e
       0.5770446 0.5453711 -0.07681432 0.45304587
0002c0 5f a1 08 bf de da eb 3e b5 eb b8 be df c6 b6 be
       -0.5337123 0.4606542 -0.3611733 -0.35698602
0002d0 ac 05 a1 bf 75 89 b1 3e ea e1 2b 3f 10 b2 01 be
       -1.2579856 0.34675184 0.6714159 -0.12665582
0002e0 8d 42 57 3c bb c1 20 3f 8f 51 08 3e ae e1 98 be
       0.013138426 0.6279561 0.13312362 -0.2985968
0002f0 60 7a 89 bd 65 73 b4 be ff 54 81 bd ee 31 4c bd
       -0.06712794 -0.3524429 -0.0631504 -0.049852304
000300 f4 b4 92 be 38 57 95 bf 1c 9b 30 3c 91 a4 b6 be
       -0.2865368 -1.1667242 0.010779168 -0.3567243
000310 2c 10 78 bf 2c 18 8f bf 62 cf ae bf 8f 47 80 3b
       -0.96899676 -1.1179252 -1.3657038 0.0039147804
000320 5d d1 7f bf bc 38 7f 3e 9c e9 72 3f 10 a1 27 bf
       -0.9992884 0.24923986 0.9488771 -0.65480137
000330 94 15 48 3f f8 be 10 bf 2c a8 36 bf 51 4a e2 3e
       0.78157926 -0.56541395 -0.7135036 0.44197324
000340 89 50 1f b9 1b f7 95 bf 9c 09 59 bf ad 40 11 be
       -0.00015193423 -1.1716036 -0.8478029 -0.14184828
000350 92 04 8a bf 0f 71 d0 be 8c ee 10 bf 45 b4 0c c0
       -1.0782645 -0.40711257 -0.56613994 -2.1985028
000360 32 37 0a 3e 4f 38 e2 bf 50 3f 9e be f5 23 39 3f
       0.13497618 -1.7673434 -0.3090768 0.7232049
000370 bc 7a 42 3f a2 69 2f 3d 1c a4 1f 3e 5b fd e7 3e
       0.7596853 0.04282535 0.15589947 0.45310482
000380 f7 d0 5c bf 66 7f 19 bf e7 60 5f 3f dd 14 aa bf
       -0.86256355 -0.5996002 0.87257236 -1.3287617
000390 47 ec cf 3f 1c 24 3e bf 9e 93 ad 3e 61 3e 8c 3e
       1.6243981 -0.7427385 0.33901685 0.2739134
0003a0 32 21 24 3f fe b6 8a 3d 36 84 ed be 4f ae d7 bd
       0.6411315 0.06773184 -0.4638993 -0.105312936
0003b0 c9 98 a7 bd 17 cd 5e 3e 6f 11 bb 3e 95 90 73 be
       -0.08183438 0.21757923 0.36536738 -0.23785622
0003c0 87 6a da be f3 a7 f9 be 1e 23 1d bd ea d8 df bc
       -0.426594 -0.48760948 -0.03836357 -0.027325112
0003d0 92 8c 63 bd 90 4e 6b 3e 75 b8 80 3f ff d0 19 3f
       -0.05555398 0.22979188 1.0056292 0.6008453
0003e0 ec b1 40 bf 60 83 ae 3e e8 20 09 bf db 79 ba 3e
       -0.7527149 0.34084606 -0.53565836 0.36421093
0003f0 5a 2a 78 bf 3d 1a 78 3d 38 0b d7 3e 4e b0 b0 bf
       -0.96939623 0.060571898 0.42000747 -1.3803804

update_node_embedding_layer_g.0.message_layer.weight f4 [32, 64]
000000 91 64 aa be 3f 06 4c 3f 22 fb 8b bf 11 64 62 be
       -0.3327985 0.7969703 -1.0936015 -0.22108485
000010 6c ef 3f 3f 41 d1 d2 3b cd c1 90 be ff e6 a2 bf
       0.74974704 0.0064336364 -0.28272858 -1.2726744
000020 b3 d0 6a 3d 24 85 b4 3e ee cc 3e 3e a0 8c c9 3d
       0.057327937 0.35257828 0.18632862 0.09841275
000030 3c 55 5c 3e 92 21 98 be 56 c6 22 be c8 01 de be
       0.2151689 -0.29713112 -0.15895972 -0.43360734
000040 a1 36 89 3e 43 29 30 bf 25 2a b3 bd 6a d7 0a bf
       0.2679949 -0.6881296 -0.08748273 -0.54234946
000050 88 8b d4 3f 12 d0 30 bf 46 44 af bd 0c f5 44 3e
       1.6605082 -0.6906749 -0.08557944 0.19234103
000060 4f b9 d8 bc 72 0c 3e 3e 8b 40 a2 3d 75 ba 15 bc
       -0.02645555 0.18559435 0.07922467 -0.009138693
000070 fd e7 ca bd 87 50 6f 3e fb 7d 13 3e 19 c4 7b 3e
       -0.099075295 0.23370562 0.14403526 0.24586524
000080 11 8d 8c bf 88 9b d0 be 8a d0 b5 3e e8 ef c0 3e
       -1.098055 -0.4074366 0.35510665 0.37683034
000090 ff 00 4e be a3 3c 01 3f 14 2c aa 3e a7 4e 64 be
       -0.20117567 0.5048315 0.33236754 -0.22295628
0000a0 15 75 ef 3e eb f3 95 bf 50 0d 33 bf ae 89 92 3d
       0.46769014 -1.1715063 -0.6994219 0.071551666
0000b0 b8 ad bf 3e 6b 6a 06 3f 25 b5 62 be 32 02 88 bd
       0.37437224 0.5250613 -0.22139414 -0.06641044
0000c0 52 5e 24 bd 3f e2 d8 bd ed 0f c5 be 2e ec 71 3d
       -0.040129013 -0.10590028 -0.38488713 0.05906313
0000d0 45 7a 9a 3d 78 fe 37 be bf a7 f0 be d6 42 79 bc
       0.07542852 -0.17968166 -0.4700298 -0.015213689
0000e0 a5 de cc 3e aa 95 10 3f 67 e7 41 be 27 10 1e be
       0.40013614 0.5647837 -0.18935929 -0.15435849
0000f0 bf 7f ad 3e a2 11 70 bf f1 59 b6 3e ef 8e f4 be
       0.33886525 -0.93776906 0.35615495 -0.477653
000100 c5 0b 1c be 5c 94 cf 3d 4b 61 33 3f 51 53 00 be
       -0.15238865 0.10135719 0.7007033 -0.12531783
000110 4d b9 38 3f 1f 8a af be 89 94 af 3e 71 9f 37 3f
       0.72157747 -0.34285066 0.3429301 0.71727663
000120 40 67 0a 3f fa 00 8c bf 3a 2d 44 3d 82 db 76 bf
       0.54063797 -1.0937798 0.047894694 -0.9642869
000130 ae 22 81 be af ee 73 be cd f1 58 bf 45 38 23 be
       -0.2522177 -0.2382152 -0.8474396 -0.15939434
000140 d7 91 b1 be d1 89 49 3e 86 d4 4a bf b3 38 86 3f
       -0.3468158 0.19681479 -0.79230535 1.0486053
000150 d7 74 1a bf 9b 65 51 3f f9 cf d8 be 47 d9 80 3e
       -0.60334533 0.8179566 -0.4234617 0.2516577
000160 73 3d c9 3d 82 e9 7c 3e 76 f7 95 3e 6c 0a a5 3e
       0.09826174 0.24698451 0.2929036 0.32234514
000170 fc 23 2c 3f f2 01 3b 3f 9e 35 c0 3e 8b 73 12 bf
       0.6724241 0.73049843 0.37540907 -0.57207555
000180 38 2e 69 bf e8 63 31 bf de cb 3d bf 3f 3b fd bf
       -0.9108615 -0.6929307 -0.741392 -1.9783705
000190 87 fe 2e bf 49 5e 0a 3f ef 97 84 be 7a d2 f2 3d
       -0.6835713 0.5405012 -0.25897166 0.118565515
0001a0 ae 0d 66 be f9 7f 02 3f 9a 5c 21 bf 6e bf 37 bf
       -0.22466156 0.5097652 -0.63031924 -0.71776474
0001b0 40 ec 55 be 57 8e 89 be d4 db 8b be 0a 43 d7 36
       -0.20890903 -0.2686641 -0.27316153 6.4153037e-06
0001c0 f3 3b 3a be 35 2c 20 c0 5d 53 0f bf a5 73 2b bf
       -0.18186931 -2.5026982 -0.5598658 -0.66973335
0001d0 a4 a7 37 bf 72 fc 71 3f 31 54 d4 3e 6e 84 97 be
       -0.71740174 0.94525826 0.41470483 -0.29593223
0001e0 cb 5e 29 bf 56 30 14 be a3 0d 4a be 2f 52 86 3e
       -0.6616027 -0.14471564 -0.19731764 0.26234576
0001f0 74 e3 4e 3f fa 95 c5 be 7d 0e 01 3e 4e d7 81 3f
       0.80815816 -0.38590986 0.12603183 1.0143831
000200 3b 83 30 3e 66 5e 52 bf 10 7b 5f be 83 57 ed 3e
       0.1723756 -0.8217529 -0.21824288 0.4635583
000210 ac a0 8f bf 6b a5 8c 3e 78 21 51 bf ff 0b 83 be
       -1.1220908 0.27469954 -0.81691694 -0.2559509
000220 81 16 a5 3e d5 d1 cc be 66 7e 3c 3f bd e1 a1 be
       0.32243732 -0.4000384 0.7363037 -0.31617537
000230 99 88 df be f3 60 45 3f bf a4 07 bf f8 19 cd bd
       -0.43658903 0.7710106 -0.5298576 -0.10014719
000240 92 96 87 be 0e da 4c bf 95 3d 14 bf 06 1d 21 be
       -0.26482064 -0.80020225 -0.57906467 -0.15733728
000250 35 a5 62 bd 7c af f3 be 7e 03 a6 3e 98 26 95 be
       -0.055333335 -0.4759482 0.3242454 -0.29131007
000260 84 00 8f 3f 14 ec 2b be d8 84 04 3f 66 7d c1 bf
       1.1172032 -0.16789275 0.51765203 -1.5116394
000270 ec dd 3c be 77 d1 98 3f ca 25 0d 3f a3 2b 8c 3c
       -0.18444031 1.1938924 0.55135787 0.017110651
000280 10 d0 7a 3f f1 aa dd 3d 9c 4c a5 be 02 7d d3 3e
       0.9797373 0.1082362 -0.3228501 0.4130631
000290 51 90 0d bf e9 d5 8e 3f e0 66 15 3d 7c c6 ac be
       -0.55298334 1.115903 0.036475062 -0.33745182
0002a0 01 e6 2f be a2 40 d4 be f2 55 ba be 6a c2 ef be
       -0.17177583 -0.4145556 -0.36393696 -0.46828014
0002b0 7f eb fe 3e 76 db 68 3b e4 b7 d6 bc ec 42 56 3f
       0.49789044 0.00355312 -0.026210733 0.83695865
0002c0 40 a4 5a 3f 38 83 a9 be 6e 73 26 bf 6e 86 9a 3e
       0.85406876 -0.33107924 -0.6501988 0.30180687
0002d0 af 80 1f bf 1b 65 c7 3e 68 06 76 3e 5d 82 27 3f
       -0.6230573 0.38944325 0.24025881 0.65433294
0002e0 3b a4 46 bf 48 74 cd 3d 42 e7 e0 bd 1f 19 08 3f
       -0.77594346 0.100319445 -0.10981609 0.5316333
0002f0 dd cd 80 3f 94 84 c9 3e 4d 53 52 bd cb f8 21 3f
       1.0062824 0.39358962 -0.051348973 0.6327025
000300 7c aa 1c 3e 7f 9d 26 3f 95 fa 4b be 82 96 3f bf
       0.1529941 0.6508407 -0.19919808 -0.7483903
000310 bb b8 05 3e ab 13 a2 be 69 7a 1e be f2 9d 7c 3e
       0.1305875 -0.3165563 -0.15476383 0.24669626
000320 1e cf 10 be f9 40 49 3e 26 ec 04 bf 3a 86 26 bf
       -0.14141509 0.19653691 -0.51922834 -0.65048563
000330 1b bc 37 be c1 c6 66 3e 93 05 38 be 93 e7 ca be
       -0.1794285 0.22536756 -0.17970876 -0.39629802
000340 c2 40 b2 bf 37 19 11 3e fb 30 0d bf 56 65 91 bd
       -1.3926013 0.14169775 -0.55152863 -0.070994064
000350 63 60 80 bf e5 65 8b bd 80 3a 60 3e 55 9e ce 3e
       -1.0029415 -0.06806544 0.21897316 0.40355173
000360 f5 ca e7 be 65 63 7b 3f 42 31 0e 3e 80 15 14 bf
       -0.4527203 0.9819854 0.13885978 -0.57845306
000370 bb e4 26 be 87 c6 94 3e d3 1e c1 bd 3d d6 be 3d
       -0.16298191 0.29057714 -0.094297074 0.093182065
000380 47 b8 22 bd 04 10 9c be 6d 19 8f 3e 6b db dc bd
       -0.03972652 -0.3048097 0.27949086 -0.10784038
000390 6d 52 1f bf de 24 f9 3e 84 c6 17 bf 21 56 b3 be
       -0.62235147 0.4866094 -0.59287286 -0.3502665
0003a0 1b cd 9d be da 10 1e bd 4d 7a 26 bf 51 ab 1e 3f
       -0.30820546 -0.03859029 -0.65030366 0.6198016
0003b0 96 bf 0e be 74 90 42 bf 48 76 2d 3d 1c bf ba be
       -0.13940272 -0.7600167 0.04234913 -0.3647393
0003c0 83 3f 99 be 04 5c d8 3e 57 7a 3a 3f 06 6c b0 bd
       -0.29931268 0.42257702 0.72842926 -0.08614354
0003d0 5d 70 5f bf 40 57 15 bc 75 c3 d7 be 60 e4 94 3e
       -0.8728083 -0.00911504 -0.4214131 0.29080486
0003e0 fd 31 77 bf c4 35 09 bf d1 8d 1a 3f ff db 41 bd
       -0.9656065 -0.53597665 0.60372645 -0.047328945
0003f0 97 78 ad 3e 4a d8 e0 3e 58 ab b9 bc e3 9b e6 be
       0.33881065 0.43915015 -0.02266471 -0.45040807

update_node_embedding_layer_g.0.update_layer.weight f4 [32, 64]
000000 66 a9 54 bf 0d 8b 93 3e 02 0a 44 3e d9 2c 09 3d
       -0.8307098 0.28817025 0.19144443 0.033490036
000010 44 69 38 3a 04 8e 07 bf 87 de 2d bf 4b 0c cd be
       0.0007034729 -0.52951074 -0.67917675 -0.4004844
000020 c7 0a b8 be 9d c8 2e 3f fb 98 ce 3e ae 32 1f bf
       -0.35945722 0.6827486 0.4035109 -0.62186706
000030 bd e4 4f 3d 03 b6 6f bf 46 02 d7 be 69 1f 77 3e
       0.05075525 -0.936371 -0.41993922 0.24133076
000040 3a 13 0c 3e f0 51 21 bf 8c 78 35 3f f4 ac fd be
       0.1367921 -0.6301565 0.70887065 -0.49546015
000050 24 45 1a bf c2 53 c1 3e a4 58 d6 3d 9d 92 04 3f
       -0.6026175 0.37759215 0.104661256 0.51786214
000060 47 d0 65 3e 89 36 13 bf 87 7a 4d 3c d0 d8 20 be
       0.22442733 -0.5750509 0.01254142 -0.15707707
000070 d2 6c 5d 3d ac 48 0c 3f c2 68 ed bc 9e e8 87 bd
       0.054058857 0.5479839 -0.028980616 -0.06636165
000080 93 71 c1 3e 15 33 85 be e6 17 c7 be 69 40 f4 be
       0.37781963 -0.26015535 -0.3888542 -0.4770539
000090 77 6a 08 3f ff 1f b1 be 73 5c 0d 3f 98 e8 3c be
       0.5328745 -0.34594724 0.5521919 -0.18448102
0000a0 40 b8 f7 be f1 d2 44 bf bb cb fb be d6 3b 67 3e
       -0.4838276 -0.7688437 -0.49178872 0.2258142
0000b0 1c 04 ee 3d d5 4d dd 3e 02 45 21 bf af 38 c0 be
       0.116218776 0.43223444 -0.6299592 -0.37543246
0000c0 59 31 b4 3e 3a 08 85 be d3 5c 2f bf b9 fb bb be
       0.351939 -0.2598284 -0.68501014 -0.36715487
0000d0 5e cf ab 3e d5 2f 14 bf 46 5c 93 bf 13 c2 66 bf
       0.33556646 -0.57885486 -1.1512535 -0.90139884
0000e0 22 e2 da 3e 43 ce 7f 3e da 9e fd 3d 63 2e 39 3e
       0.4275065 0.24981026 0.12383814 0.18084101
0000f0 38 71 75 3e af 78 84 3e bb c1 35 3f 89 44 a6 3e
       0.23968971 0.25873324 0.70998734 0.32474163
000100 8a 16 b0 3e 31 d9 c0 bd 52 ab 38 bf eb 77 35 bf
       0.34392196 -0.09416426 -0.72136414 -0.70886105
000110 e5 14 24 3f 85 a4 12 3f c3 fa f0 bc 6f 58 c4 3e
       0.6409438 0.57282287 -0.029416448 0.3834872
000120 d0 bb a4 3e 87 01 60 be ac b3 fd bd 58 ee c2 3e
       0.3217454 -0.21875583 -0.12387785 0.38072467
000130 cd 09 28 bf 60 99 6c bd 14 ad 57 3e d6 71 6b be
       -0.65639955 -0.057763457 0.21062118 -0.22992644
000140 d0 58 f1 3d c7 09 cc 3d 82 a4 2c 3d 13 f6 7c bf
       0.11784518 0.099628024 0.042149074 -0.9881298
000150 84 e3 f7 be 6b 11 30 3c 1e 40 64 bc 6f 4f 19 3f
       -0.48415768 0.01074634 -0.013931302 0.5988683
000160 c1 28 7f be 48 5e fc 3d 4b fc 17 bf aa f4 6e bc
       -0.2491789 0.1232267 -0.59369344 -0.0145847
000170 9c d3 b3 be b3 5e 55 bf 6f cd 86 3e 5a 30 0a 3e
       -0.35122383 -0.83347625 0.26328608 0.13495007
000180 b4 44 03 3e 51 3b 74 bb 50 d6 48 3e 12 62 b7 3e
       0.12819177 -0.00372668 0.19613004 0.3581701
000190 d7 07 c5 3e 57 a2 ac be b5 a7 2f 3f c6 a9 17 3f
       0.38482544 -0.33717605 0.68615276 0.5924343
0001a0 72 70 42 bd d1 79 11 3e df e9 78 3d 89 8c 83 bd
       -0.047470517 0.14206626 0.06076991 -0.06423289
0001b0 59 bc 22 3e 21 e5 31 be e4 3a 71 be e7 4b e3 bb
       0.15892161 -0.17372562 -0.23557621 -0.0069365385
0001c0 7a c9 26 3f 96 b3 09 bf 36 66 37 3e ec bd cf 3e
       0.6515118 -0.5378965 0.17910084 0.40574586
0001d0 46 6a 2e 3f e0 b9 10 bf d1 6d 41 bf 02 c0 d5 be
       0.6813091 -0.5653362 -0.7555819 -0.41748053
0001e0 2c aa 73 3f f5 27 8b 3e b9 ec 6a be 97 45 26 bf
       0.95181537 0.27178922 -0.22941865 -0.64949936
0001f0 f5 50 8c 3e f8 10 95 3e cd b2 00 3e b4 7b 65 be
       0.27405515 0.2911451 0.12568207 -0.2241047
000200 67 a6 a8 3f 92 27 c6 3d 2d af 10 3e aa c0 14 bf
       1.3175782 0.09675516 0.14129324 -0.5810648
000210 64 86 6c bc df 09 03 bf 31 a8 22 3f 3a a7 03 bf
       -0.014436338 -0.5118694 0.6353789 -0.5142704
000220 4f d7 5f be 3d 12 e2 bd 18 52 40 3f 58 64 1e 3e
       -0.21859477 -0.11038635 0.75125265 0.15467966
000230 5d 4d f3 be 8c 72 d8 3e 3f 61 2d bf 1b 17 ea 3e
       -0.4751996 0.42274892 -0.6772651 0.45720753
000240 2c 22 5d be 30 96 61 ba 12 b6 e0 be be 6a 07 be
       -0.21595067 -0.00086054485 -0.4388891 -0.13224313
000250 ca b5 37 3e cc ee f1 bd 4e ff 55 bf 62 d3 1a bf
       0.17940441 -0.11813125 -0.8359269 -0.60478795
000260 a8 31 da be 46 42 85 3e d8 95 c8 3e 53 29 98 be
       -0.4261601 0.26027125 0.39176822 -0.29719028
000270 d4 e8 9d be d9 35 1d 3e e4 1a 6e bf cc 42 97 be
       -0.30841696 0.15352573 -0.9300978 -0.2954315
000280 36 26 c3 be b1 4d 02 bf 92 df 19 bf 58 e8 1f 3f
       -0.3811509 -0.508998 -0.60106766 0.62463903
000290 e1 93 46 3f 9e da 2d 3d d1 1a e2 be ac 06 a7 bd
       0.77569395 0.042444818 -0.44161084 -0.081555694
0002a0 8d 20 d7 be b2 37 8b be 28 1e 9c bd 9c f0 4d bf
       -0.42017022 -0.2719093 -0.07622939 -0.80445266
0002b0 53 a2 1a 3f 64 6a 5a 39 3d 08 3d 3f ae 9c 91 3e
       0.6040394 0.00020829734 0.73840696 0.2843985
0002c0 62 ce 0a 3f 7d a5 1d bf fd 26 20 3f f3 c4 f5 3f
       0.54221165 -0.6158064 0.6255949 1.9200729
0002d0 f4 81 e4 3d ff 47 09 bf ce 41 69 bf 9a 76 c7 3e
       0.11157599 -0.5362548 -0.91116035 0.38957673
0002e0 fd 97 11 be 9f cb a5 3e a7 7c f6 be 31 aa 5c be
       -0.14218135 0.32381913 -0.48141977 -0.21549298
0002f0 d1 32 24 bf a3 16 9c 3e db 51 a4 be c5 13 19 bf
       -0.6414004 0.3048602 -0.320937 -0.5979579
000300 64 3f 95 bf 3d e5 82 be e5 28 8d 3f 4c 21 c5 be
       -1.165997 -0.2556552 1.1028105 -0.38501966
000310 0e 6b 38 3f 31 6a ef 3e 5f cd 72 be 4c f2 7a 3f
       0.7203835 0.46760705 -0.23711155 0.98025966
000320 9c fd 87 3f 54 d8 45 bf 9f c5 d1 bc 41 f3 2a 3e
       1.062427 -0.77283216 -0.025606928 0.16694357
000330 e3 e8 fe 3d cc 4c 9c be 85 8c a4 3d 36 5d 8f 3f
       0.12446763 -0.3052734 0.080346145 1.1200321
000340 13 1d 1c bf 69 85 bc 3b 37 11 10 be 94 05 1d bf
       -0.60981864 0.0057532084 -0.14069067 -0.61336637
000350 9d 08 33 3e e7 03 6f bf 3e de f5 be 8f f4 64 3e
       0.17483754 -0.9336533 -0.4802112 0.22358917
000360 72 b2 a3 bf 8b fb af be 24 46 dd 3e 25 e6 7f bf
       -1.2788832 -0.343716 0.43217576 -0.9996055
000370 eb 2f 2f bf 68 c1 b5 3e 02 ce 90 3f 1c 91 4b bd
       -0.6843249 0.3549912 1.1312869 -0.049698934
000380 0b 81 cc 3d 74 0a bb 3e 44 95 9c 3f 2c 4b 2f 3f
       0.099855505 0.36531413 1.2233052 0.6847408
000390 03 1b b0 bd 92 1e be 3d d6 52 08 bb 11 49 8c be
       -0.08598902 0.092831746 -0.0020801327 -0.27399495
0003a0 11 09 b0 3e 5f 37 00 bf 8f fd ae be 40 96 94 3e
       0.34381917 -0.5008449 -0.34177825 0.29020882
0003b0 c7 81 11 3f 0a ae 94 bc d2 0a b6 be f9 cc bf be
       0.5683865 -0.018149395 -0.3555513 -0.3746107
0003c0 cd 34 04 bf 24 75 08 bf a5 6f 0e 3f 5a 27 c1 be
       -0.5164307 -0.5330374 0.55639106 -0.37725335
0003d0 40 eb 0f bc b7 32 08 3e 2e 87 9d be ad 20 5c bf
       -0.008784115 0.13300596 -0.30767196 -0.8598736
0003e0 83 b1 31 be a5 2a 0f 3f 87 2b e0 3e 69 bb e7 bc
       -0.17352872 0.55924445 0.4378321 -0.028287606
0003f0 4f f9 33 bf 8e 9f c1 3d b3 74 83 bf ec 9b 1a bf
       -0.7030229 0.09454261 -1.0269989 -0.6039417

update_node_embedding_layer_g.1.message_layer.weight f4 [32, 64]
000000 23 3b 9e bf ea af 1c be 1d dc 5d be 03 ff d7 be
       -1.2361797 -0.15301481 -0.21665998 -0.42186746
000010 cc 62 0f bf fb 7f 6c 3d 88 79 9b be 12 9f a2 3f
       -0.5601013 0.05773924 -0.30366158 1.2704794
000020 77 6a 0a 3f c3 be 76 bf 0f 84 ed be 22 83 01 3e
       0.540687 -0.9638483 -0.46389815 0.1264768
000030 3b 1e 8c bf a9 bb 06 be 2d d4 1c bf df 77 26 bf
       -1.0946726 -0.13157524 -0.61261255 -0.6502666
000040 33 77 d3 be c9 96 89 3e 66 89 06 3f 5f 09 60 3e
       -0.4130188 0.26872852 0.52553403 0.21878575
000050 f7 0b 40 bf e3 ab 62 bf 95 08 05 3f 1c c0 07 3e
       -0.75018257 -0.8854353 0.5196622 0.13256878
000060 ae 11 80 3f c1 c7 bc bf 9b 3a 34 3e f2 8d 80 be
       1.0005395 -1.474846 0.17600481 -0.25108296
000070 69 17 3a 3e 64 11 cc be 6b b1 1d 3f 6a 5d 50 3c
       0.18172993 -0.39857018 0.61598843 0.012717584
000080 21 30 b9 be b3 9e c0 3e 30 bc 3c bf 4f 2e 29 bf
       -0.36169532 0.37621078 -0.7372465 -0.66086286
000090 06 f5 f7 3e f2 18 37 bf 99 b3 63 3e a0 59 15 bf
       0.48429126 -0.7152244 0.2223648 -0.5833988
0000a0 42 d6 e3 bd ec 25 01 be f3 2d 2f bf f6 cf 32 3e
       -0.11124851 -0.12612122 -0.6842949 0.17462143
0000b0 c4 3a d4 3e cc ae a4 3c df 01 3b 3e e9 ef 96 3d
       0.41451085 0.02010288 0.18262433 0.07369978
0000c0 c0 0c 12 bf 99 4f d6 3d 48 65 02 3f a7 41 a4 be
       -0.57050705 0.10464401 0.5093579 -0.3208134
0000d0 fc a7 da be 23 3e 8a bf 3f c2 10 bf 92 de 00 bf
       -0.42706287 -1.0800213 -0.56546396 -0.50339615
0000e0 f1 ee 9c 3d 8b 93 86 3e 18 0f 73 bf 69 d5 36 bf
       0.07662762 0.2628444 -0.94944906 -0.7141939
0000f0 04 ea 36 bf 5c cb f3 3e 51 c1 e9 3e ff bb 47 bf
       -0.7145083 0.47616088 0.456553 -0.78021234
000100 b1 df af 3e a2 4b 13 3e c7 a5 ef 3c 26 13 64 3f
       0.3435035 0.1438432 0.029253853 0.8909172
000110 5e 32 71 bf 82 4a 73 3e 0e 00 0a 3f 60 c4 15 3e
       -0.9421748 0.23758891 0.53906333 0.14625692
000120 ee a0 fe be fb d9 12 bf a3 e4 cc 3d a7 14 ff be
       -0.49732155 -0.5736386 0.100045465 -0.49820444
000130 24 44 2c bf 5f 00 8e be c3 1f 1d bf 71 48 da bf
       -0.67291474 -0.27734658 -0.6137659 -1.7053357
000140 32 da 6a 3f 71 e1 25 be 0c ca 69 3f f9 63 7b 3c
       0.9173919 -0.1619928 0.91323924 0.01534366
000150 ea e9 08 3f cf c3 91 3e 06 0d 37 bf 2b 41 b5 bc
       0.53481925 0.28469703 -0.7150425 -0.022125801
000160 68 5c 3e 3e df d8 a6 bf 5a 19 7f be 70 d7 62 3f
       0.18589938 -1.3034934 -0.24912015 0.8860998
000170 62 ee 61 be cf 98 bc be d8 08 20 bf 6c 5f 0f be
       -0.22063592 -0.36835334 -0.62513494 -0.14001244
000180 b1 d7 6b 3d e5 98 5d 3f 94 68 0a 3f fb b2 c3 bf
       0.057578746 0.86561424 0.54065824 -1.5288996
000190 3a 56 1d bf e7 bc b5 be 6a ad 29 bd 87 37 ad be
       -0.61459696 -0.35495684 -0.041425146 -0.33831427
0001a0 68 3d 2e bf cd e8 16 bf 3f f3 2f be 8d 46 3f 3f
       -0.6806245 -0.58948976 -0.17182635 0.74717027
0001b0 01 e2 95 3e 2f 2e 22 bf 1f d0 96 3d af 42 19 bf
       0.2927399 -0.6335172 0.07363915 -0.59867376
0001c0 fe c1 8e bf bd d0 43 bf c5 46 c9 bd e7 55 14 bf
       -1.1152952 -0.76490384 -0.09827951 -0.57943577
0001d0 2c 6a cf 3e 5e 17 bf be 5a 8f 9a be 59 b3 ca 3d
       0.4051069 -0.37322515 -0.30187494 0.09897489
0001e0 1c ed 37 bd dc 78 bc bf 3d b3 92 bf 1d fb ee 3e
       -0.04490386 -1.4724383 -1.1460949 0.4667596
0001f0 a6 e1 d3 be c3 ec a2 3e 30 ed 02 bf 13 5f 4c bf
       -0.41383094 0.3182126 -0.5114317 -0.7983257
000200 09 fc c2 bf 77 6c 72 c0 c4 5f 68 be 1d 13 93 bf
       -1.5233165 -3.7878702 -0.22692782 -1.1490208
000210 60 27 09 bf c3 64 8b 3e 9f 2f 7f be aa 2f 2f bf
       -0.53575706 0.27225313 -0.2492051 -0.68432105
000220 54 32 8c 3f d6 2e 05 3f 44 3c 0f bf 0c 4f 60 3f
       1.0952859 0.5202459 -0.55951333 0.87620616
000230 48 41 a1 bf 5c 80 ae 3e 3d 10 09 be be 6b 64 bf
       -1.2598047 0.34082305 -0.133851 -0.892269
000240 00 11 85 be 71 d9 b4 3e c2 14 11 bf 73 59 8f 3d
       -0.25989532 0.35322145 -0.566723 0.06999483
000250 28 88 8e bf 8f 8d 06 3e ba ce cc bd ed 86 12 c0
       -1.1135302 0.13139938 -0.100003675 -2.2894852
000260 79 52 8f 3e c7 c3 0b 3e 42 43 45 3f da cc fd 3d
       0.2799261 0.13648902 0.7705575 0.12392588
000270 e4 55 eb 3e a8 36 a9 bd 58 0f fd be 80 8e f5 3e
       0.45963967 -0.08262378 -0.4942577 0.4796028
000280 62 45 0c 3f ac 1c 4c 3f fa 9d d5 3e 83 22 34 bf
       0.5479337 0.7973125 0.4172209 -0.7036516
000290 5a bf bf bf 36 1d e7 be ba 18 5f bf 1a b2 1a 3e
       -1.4980271 -0.45139474 -0.87147105 0.15107003
0002a0 68 36 b1 be 9b a2 d4 3e a5 b6 1d 3d 77 b5 b6 be
       -0.3461182 0.41530308 0.03850426 -0.35685322
0002b0 d3 13 74 bf 67 7e 4a 3e 82 5f 02 3e 10 eb 4c be
       -0.9534275 0.19774781 0.12731746 -0.20011544
0002c0 13 92 c4 be 81 3f d5 bf 1b 6d c1 be 5b 21 f1 be
       -0.38392696 -1.6660005 -0.37778553 -0.4709576
0002d0 a5 48 9a 3e db 50 bb be 23 cc 24 bf a7 55 b4 3e
       0.30133548 -0.36585125 -0.6437399 0.35221598
0002e0 65 21 10 3f 4d ed 2e 3e 36 08 3b 3f 2b 86 61 3e
       0.56300956 0.1708271 0.73059404 0.22023837
0002f0 4d 4a 58 3e d4 8c 6c 3e cb 5c 51 3e a5 eb 49 bf
       0.21122093 0.23100597 0.20445554 -0.7887519
000300 33 49 43 3e 00 e0 3d 3f a1 5c 8b 3e df 50 7c bf
       0.19070892 0.7416992 0.27219108 -0.985609
000310 eb 60 ca 3e 5a 65 ca be 4f 39 98 bf bc 53 c6 bc
       0.39527068 -0.3953045 -1.1892489 -0.02420985
000320 ee 63 18 3d c7 fe a9 bd 82 10 2a bd 0f 29 dd bf
       0.037204675 -0.08300548 -0.04151965 -1.7278155
000330 46 26 cc 3e 35 9b 2e bf 5a 39 50 bd 23 e1 a9 3e
       0.3987295 -0.6820558 -0.050835945 0.33179578
000340 0c 64 80 3f bb de c2 bf a6 85 18 3f d9 2d fd 3e
       1.0030532 -1.5224222 0.5957893 0.4944904
000350 29 21 9b 3f 10 7e 13 3f 98 b6 9f be 14 f0 e4 bc
       1.2119495 0.5761423 -0.31193995 -0.02794651
000360 db 4a c6 be f8 fa 83 be 55 c9 f9 bb e3 5b 4e 3f
       -0.38728985 -0.2577741 -0.0076228776 0.8060896
000370 c0 d5 04 be 08 21 62 3e 43 b3 0d c0 7f de 1b bf
       -0.12972164 0.22082913 -2.2140663 -0.6088638
000380 25 32 bf bf 3f 1f d6 bf 41 2f 35 be 35 d2 d2 3b
       -1.4937178 -1.6728286 -0.17693807 0.00643375
000390 09 b4 37 bf a8 58 40 bf d6 7f d2 3e e0 2b ad 3e
       -0.71759087 -0.7513528 0.41113156 0.33822536
0003a0 d2 ea e6 bb 9f 6c 2e bf 4f 03 fc be fb 20 01 3f
       -0.0070470357 -0.6813449 -0.49221274 0.5044095
0003b0 2a 42 34 bf db d1 1d bf 64 22 75 be 69 a7 92 bf
       -0.7041346 -0.6164834 -0.239389 -1.145734
0003c0 46 6e 67 bf 01 7d 9f 3e 9a 7e 53 bf 67 52 57 bf
       -0.9040264 0.31150058 -0.82615054 -0.8411011
0003d0 bd 11 d0 bd e5 6d 01 bf 69 57 8d be 48 bf 70 3e
       -0.10159633 -0.5055831 -0.2760575 0.23510468
0003e0 9a d4 37 be 57 40 e7 3e 49 59 07 bf ee e2 9c 3e
       -0.17952195 0.45166275 -0.52870613 0.30641884
0003f0 4c 2d cf 3d 35 61 19 bf ab c4 68 bd ed 6a 0e bf
       0.101160616 -0.5991395 -0.056828182 -0.55631906

update_node_embedding_layer_g.1.update_layer.weight f4 [32, 64]
000000 cc 1f b6 3e 03 66 56 bf 33 7b ba bd cf b5 7d bf
       0.35571134 -0.8374941 -0.0910553 -0.9910554
000010 30 e5 22 3f 3d 9c 8c 3f 87 ad 25 3f f5 f2 52 be
       0.6363096 1.098518 0.64717907 -0.20600493
000020 7e f6 cb 3e f4 d0 60 bf db 26 b6 be 76 68 7a bf
       0.39836496 -0.8781884 -0.3557652 -0.97815645
000030 9d 0b e1 be e2 5f 48 3f 45 63 84 be c6 d2 06 3f
       -0.43954173 0.78271306 -0.25856987 0.52665365
000040 a6 23 19 3e 82 5b 86 bd 7a 9e d5 bd ec 4b f4 be
       0.14955005 -0.065604225 -0.10430618 -0.47714174
000050 b9 4f 42 be 8e 61 d3 3b 04 d7 a0 be 62 95 45 3f
       -0.18975724 0.0064508384 -0.31414044 0.77181065
000060 cd fe 3a be 53 2f 28 bf 05 1f 77 3e 20 50 02 be
       -0.18261261 -0.6569721 0.24132927 -0.12725878
000070 ed 8e d0 bd bb 75 de bd 5b 6e 09 3f 17 90 fa bd
       -0.10183511 -0.10862299 0.53684014 -0.12234514
000080 63 6f ba 3e fd d1 0d bf 3e 30 4e 3f 7f 8e 02 3f
       0.36413106 -0.5539854 0.8054236 0.5099868
000090 16 23 b0 3d c9 0a 2c bd 31 ad 3b 3f da a1 0c 3e
       0.08600442 -0.042002473 0.73311144 0.13733616
0000a0 7e 23 81 be a4 44 88 be 82 7b 46 be ee 04 85 3f
       -0.2522239 -0.2661487 -0.19383052 1.039213
0000b0 fc 06 29 3f 13 a7 be bf 27 4b 2a 3f 5d 9a e8 be
       0.6602628 -1.4894737 0.66520923 -0.4543027
0000c0 26 33 d4 3f eb e5 9d 3e c7 b5 1e bf 1a b8 b6 be
       1.6578109 0.30839476 -0.6199612 -0.35687333
0000d0 c5 67 e4 3d 69 78 01 3f 12 dd 16 bf 88 5e d1 3e
       0.11152605 0.50574356 -0.58931077 0.40892434
0000e0 e5 41 cd bd e7 ec a5 3e da eb 59 bf 20 c7 de 3c
       -0.10022334 0.32407305 -0.85125506 0.02719456
0000f0 b1 5d 7a 3f 03 1b b4 3e cc 2f 66 bf 1c 67 9b 3e
       0.9779921 0.35176858 -0.8991668 0.30352104
000100 2d 1f 75 3e bb 8f 2c 3f 77 5c 3c bd e9 23 01 bf
       0.23937674 0.67406815 -0.04598662 -0.5044542
000110 81 91 ba bd 34 e1 44 3f 90 40 e2 bc 7d d2 31 bc
       -0.09109784 0.7690613 -0.027618676 -0.010853407
000120 96 47 b0 3f 31 b6 6f bf 07 0b f6 be 51 70 1e 3f
       1.3771846 -0.9363738 -0.48055288 0.6189013
000130 87 c1 a1 be a4 ba 87 bf 41 ae 61 bf a9 41 17 be
       -0.31592962 -1.0603833 -0.88156515 -0.14771141
000140 5d 23 05 3e 96 59 e2 3e ef 10 5f bd 7c 86 8c bd
       0.13001771 0.44208974 -0.05445951 -0.06861588
000150 26 fa de be 5a 80 a7 3e 93 44 87 bf c5 4f df bd
       -0.43550223 0.32715112 -1.0567802 -0.10903887
000160 e2 b7 a4 be 85 4d e9 3e 64 eb 21 3f e1 5f 49 bf
       -0.3217154 0.45566955 0.632498 -0.78661925
000170 51 31 2b 3f 44 28 81 bd 68 d6 8c 3f 6b 1a ba be
       0.66872126 -0.06306508 1.1002932 -0.3634828
000180 a6 81 45 3f 9c 7d 77 3b 57 a5 34 be 00 f4 25 bf
       0.7715095 0.0037764078 -0.17641197 -0.6482544
000190 19 d9 2b 3e 17 e4 07 be 3f f2 96 be 28 a1 34 3f
       0.16782035 -0.13270603 -0.29481694 0.70558405
0001a0 4e 10 16 bf 4b 99 07 3f 1e 35 75 be 69 d1 61 be
       -0.5861863 0.5296828 -0.23946044 -0.2205254
0001b0 6a 74 1a bf c2 6b 0e 3f 96 78 a4 3f b5 a1 59 bf
       -0.60333884 0.55633175 1.28493 -0.8501237
0001c0 15 2c 4a bd da 09 b9 bf 8b 03 91 be 18 ea 5f bf
       -0.049358446 -1.4456131 -0.28323016 -0.87466574
0001d0 22 ef 16 3f 45 d1 64 bf 43 26 e3 be d3 2a 3a 3f
       0.5895864 -0.8938182 -0.4436513 0.72721595
0001e0 27 ea 56 be 58 59 90 3e f9 3f 11 3f a0 2c 61 3e
       -0.2098776 0.28193164 0.5673824 0.2198968
0001f0 90 21 3a 3e 1f 35 14 bf ea 61 f3 be 5f 9e 1f 3e
       0.18176866 -0.57893556 -0.4753564 0.15587758
000200 57 82 04 bf 99 1a 6c be 4f 05 ab 3e 73 4c 4d bf
       -0.5176138 -0.23057021 0.33402488 -0.8019478
000210 7c 5b c1 be dc 7d 2e bf 79 9a 4c 3f 86 9f 34 bd
       -0.3776511 -0.68160796 0.79923207 -0.044097446
000220 73 c0 f4 3d e6 7d fe 3e 89 eb 0d bf 1d fb 9d 3e
       0.11950769 0.49705428 -0.55437523 0.30855647
000230 70 3c 2c bf c7 53 0e bf 86 d5 da be 68 88 e6 be
       -0.6727972 -0.55596584 -0.4274103 -0.45025945
000240 14 65 20 3f f2 f8 91 3f 65 74 1f 3e aa 5c 17 3d
       0.6265423 1.1404097 0.15571745 0.036953606
000250 14 b7 ad 3d e5 4b 5a be ab 2b ce be ab 9b 13 bf
       0.08482185 -0.21318014 -0.4026769 -0.57659405
000260 fe d5 0f be 26 c4 0f bf 8a 97 cd bd 4a 10 aa be
       -0.14046475 -0.56158674 -0.100386694 -0.33215553
000270 9c d2 96 bf a4 a0 aa be 89 40 4d 3e 3c 2b 7e 3e
       -1.1783023 -0.33325684 0.2004415 0.2482118
000280 4a 54 c7 bd a1 97 96 3e 62 ed cb 3e 73 b6 3b 3f
       -0.09732874 0.2941256 0.39829546 0.7332527
000290 ba c5 8d 3c a3 5d 20 be b5 95 78 bf 28 06 cf bb
       0.017306197 -0.1566072 -0.97103435 -0.0063178726
0002a0 c4 9a 0e bf 48 24 53 bf b4 fd 02 be b8 42 aa bd
       -0.55704904 -0.82477236 -0.12792093 -0.08313507
0002b0 b1 1a 61 bc 8b 19 cd be 27 47 b9 3e 97 e9 18 bf
       -0.013739274 -0.4005855 0.36187097 -0.5973143
0002c0 3e 1d db 3f b8 c6 d2 3e 02 05 49 3f 6b f7 8b 3e
       1.7118299 0.41167235 0.78523266 0.27337202
0002d0 c5 9d e4 be 6a 60 53 3f 99 8a 86 be 01 a6 8b bf
       -0.4465162 0.8256899 -0.26277617 -1.0910035
0002e0 fd 11 16 bf 0d 40 57 bf 53 c5 32 be f5 a8 2e 3c
       -0.586212 -0.8408211 -0.17458086 0.0106604
0002f0 b6 4b 15 be 37 73 df 3e 48 d8 9e bd b1 11 14 3e
       -0.14579663 0.4364259 -0.07756096 0.14459874
000300 a4 16 13 bf 8b d8 17 3f 72 71 97 3d a3 17 e0 bd
       -0.5745642 0.59314793 0.07394685 -0.10942008
000310 06 e3 ed be 7c 4e 25 bf ce d5 d3 bd 49 ca 5e 3f
       -0.46462268 -0.6457288 -0.103435144 0.8702741
000320 a1 1c 0c be de 38 d6 be 90 c0 c7 3d 79 f9 df 3d
       -0.13682796 -0.4184026 0.09753525 0.10936255
000330 26 9f 2b 3f 29 31 b7 be 62 46 1f be 67 05 0c 3f
       0.67039716 -0.35779694 -0.15554193 0.54695743
000340 dd 48 18 bf 81 1f 71 bf 2b 88 be be 81 49 d0 be
       -0.5948618 -0.94188696 -0.37213263 -0.4068108
000350 ba 12 d0 bd 92 7d 4b bf eb c3 81 bf 7c 06 d2 be
       -0.10159822 -0.7948848 -1.0137914 -0.41020572
000360 bb e8 5d 3f bb 46 25 3d 45 f6 84 3e 61 fb 64 bd
       0.86683244 0.040350657 0.2596914 -0.055903796
000370 8f 3f 38 bf 1a a6 db be 59 dc 94 be 2b 77 35 be
       -0.7197198 -0.42900163 -0.29074362 -0.1772124
000380 bd b4 8e 3d 3c 93 29 3c 11 33 7b 3e 57 1a 40 3f
       0.06968067 0.010350045 0.24531199 0.7504019
000390 a8 1e 90 3e fb 24 81 be 36 6c e9 3e 17 79 62 3d
       0.2814839 -0.25223526 0.4559037 0.05529126
0003a0 68 f3 2b 3e 9d be e9 3e 8b 0e 38 bf dd 55 3d bf
       0.16792071 0.4565324 -0.7189719 -0.7395914
0003b0 14 f1 d8 3e 90 71 23 3e d0 b5 38 3e 35 e0 ed 3e
       0.42371428 0.1596129 0.18038106 0.4646012
0003c0 d8 5b 1c 3e e7 04 56 3f 62 f6 af 3e 87 71 0a 3f
       0.1526941 0.8360123 0.34367663 0.5407948
0003d0 ed c6 ec 3e ec d5 59 bf 80 35 16 3f e6 fc 38 bc
       0.46245518 -0.85092044 0.58675385 -0.011290764
0003e0 ad 08 c4 be 30 d7 b3 bd 50 33 1c bd 83 bd fe be
       -0.3828787 -0.08781278 -0.038134873 -0.4975396
0003f0 23 78 f5 3c ed a7 0c bf ad 34 25 3f 2d c7 d0 be
       0.029964512 -0.54943734 0.645335 -0.4077696
